Models/dual_nn_model_new_version.pth (torch, 255101 bytes, 11 tensors)

conv.weight f4 [32, 1, 3, 3]
00000000: 8c65 403e b4e5 b33d b015 b7bd ef79 743e
00000010: a33c 2f3d 3c54 323e 9a9e c93d 76c8 a13d
00000020: ab47 a8bc c921 353e 3118 2a3e de68 8d3e
00000030: cf5c 0f3e e76c cb3d 7407 153e 8ac7 123e
00000040: c5d4 d93d 57ce 143e e27c 823e a8e4 0e3e
00000050: 4f44 093e 15e5 3e3e 6a4e 4c3e 2dd6 613e
00000060: 0ed9 2d3e c7bd 0e3e c267 613e c30e 893d
00000070: 56f7 0abe 59b3 7d3c 3c55 49bd 30c2 bdbe
00000080: 58de 9abd 02dc 1f3e 97b7 56be 0c9b c6be
00000090: 532f b63d d40b 903e 3347 fe3d 58cb 03bd
000000a0: fe63 ba3d 1832 bf3d 703c 083e 4f89 b43d
000000b0: f3d8 cd3e e11c 8cbe cd89 f83d 11a4 dc3d
000000c0: 6725 1cbe ac89 22be 5e62 91be 77ac a03d
000000d0: 882c b7be 4062 6d3e ea30 0f3e dce4 2f3e
000000e0: 847f 133d fcd2 3e3e 3418 9c3e 1ca2 a2bb
000000f0: a2dc 903d fb0f 773e 4619 19bd 7372 50bc
00000100: 08fe e4bc 2657 cd3e 6532 4d3e aa77 cbbd
00000110: d3bc 82bd 3ab0 0ebe 28a4 763e 7145 fa3d
00000120: 8d0a 463e ebac 9ebd 9482 903d ed76 953e
00000130: 7377 573e ee44 513e 4e82 223e 9f71 a9bd
00000140: 859a 173e d116 453c 88eb 853e 6de0 9ebd
00000150: b2ea 713e 0b30 7c3e dcd6 083e 5e00 6f3e
00000160: 04db 0b3e eae4 833c 6348 a43e be69 843e
00000170: f5fa 883e 6efe 673e c247 c33d 9930 0e3e
00000180: f751 8a3d 561f f93d a2b8 733e bf31 d9bd
00000190: 900d 8c3e ac33 a13e 6e42 253e 2dc2 dabb
000001a0: 1436 b13d 2248 d63b b724 203e 97f0 ad3d
000001b0: fe26 5f3e 263f 363e a22e 4c3e f76f 6d3e
000001c0: 7184 ee3d da1a 383e 6016 523e d7f6 2a3e
000001d0: a046 7b3e 9b99 b6bd b0ee 9e3e 983d 643e
000001e0: 9033 dd3d 9b96 9c3e 890b ef3d cae0 2c3e
000001f0: b1a8 4c3e 1367 8a3e 703e dd3d 690d 82be
00000200: 9b81 8c3e b997 8cbe adc7 93bb 4b19 2ebe
00000210: 98a8 6fbe 2172 f3bc 296e 6dbe 4ba3 913e
00000220: 87a8 80be 78c9 57be 6046 7dbe b55a 75be
00000230: 004d 8e3c 43b4 e7bd 1956 eebd c736 c3be
00000240: 739a cfbd 62a5 15be 33f3 093e 8dcb bebc
00000250: 8057 69be 6912 a63d 9ae2 6fbe c725 b8bd
00000260: 6674 37be 7773 a2bc 9e2b 75be 3e90 803e
00000270: 0dd4 233e 9816 87be 8038 a3be 833d 9fbe
00000280: 828b a2bd 88a0 4abe 3d7b 4fbe 79d9 703d
00000290: 50de fc3d e4a3 33bb 5756 22be a5bc f5bd
000002a0: 2635 623d a79a a6bd d681 943e 03d7 46bd
000002b0: 2a9f e3bc 00b7 1a3c 6880 833e 6f0a 25bc
000002c0: cb41 9c3e a6c2 0d3e f76d 83bd 69a0 10bd
000002d0: f37c e0bd 32ee 9dbe 1f0b 79bd 6c16 9dbe
000002e0: 6624 41be 4f09 66be b5bb 6abe db67 15be
000002f0: 4683 4ebe 0aca 613e c5e5 88bd 47b3 e73d
00000300: aa79 0b3d 340d 6f3e 0f14 1bbe dc44 4b3e
00000310: 4b56 c1bd d4df 4f3e 1dbb d43d 98de 643d
00000320: fab9 68be 83b5 43bc 8a64 30be 9a85 0f3d
00000330: 0e35 893e a024 eabd e848 8fbe 4c7d 0abe
00000340: 04f9 7bbe c49c 8d3e 40fa 5d3d 0134 723e
00000350: 4ed1 07be 6b04 15be b550 7d3e 20e4 2e3e
00000360: be49 ef3d 81c5 053e c7e5 a8be f750 91be
00000370: ee10 35be 7ce4 2b3d f117 063e 4b15 653e
00000380: f0a7 5cbe aff1 e73d 7af4 d5bd 3285 353e
00000390: 79d0 c93e 35fe 4b3e d34b b73e 053c 433e
000003a0: 3619 21bd 3db4 a83e d6d1 903e e9ea 973d
000003b0: 471d 2f3d e7fc 413e 643c b13e 4d89 49bd
000003c0: ebb0 633e 10c6 f9bd 7dd5 b63e e4c4 5abe
000003d0: 1c53 ac3e 4132 74be a155 44be c0c4 583e
000003e0: 3bac 15be 68f8 183e 89ad 48be 5aa3 e63d
000003f0: d72c 6f3c 70ce e83e aaa8 713e 9621 203e
0.18788737 0.08784047 -0.089396834 0.23874639 0.042782437 0.17414945 0.09844704 0.07899563
-0.020541986 0.1768867 0.16610791 0.2761907 0.14000247 0.09932881 0.14553624 0.1433393
0.10636286 0.14531837 0.25485903 0.13954413 0.13404964 0.18642075 0.19951788 0.22054358
0.16977331 0.13939582 0.22012237 0.06692269 -0.13570914 0.015484654 -0.04915355 -0.37062216
-0.0756194 0.1561127 -0.20968471 -0.38790166 0.08895745 0.28134024 0.12415924 -0.032176346
0.09101103 0.093357265 0.13304305 0.08815252 0.40204582 -0.27365783 0.121356584 0.10773481
-0.15248643 -0.1587283 -0.2839536 0.07845395 -0.35776162 0.2318201 0.13983503 0.17177147
0.03601028 0.18635172 0.30487216 -0.0049631726 0.07073332 0.2412719 -0.03737762 -0.012722599
-0.027953163 0.4010555 0.20038755 -0.099349335 -0.063836716 -0.13934413 0.24086058 0.12220276
0.19339962 -0.07747825 0.07056156 0.29192296 0.2104166 0.20436451 0.1587002 -0.08273625
0.14805038 0.012029366 0.2615626 -0.077576496 0.23624685 0.24627702 0.13363212 0.23339984
0.13657767 0.016100366 0.32086477 0.25861925 0.26753965 0.22655651 0.09535171 0.13885726
0.06753915 0.1216418 0.238009 -0.106051914 0.27354097 0.31484735 0.16138622 -0.0066759796
0.08652893 0.0065393606 0.15639006 0.084931545 0.21792218 0.17797527 0.19939664 0.23187242
0.11646355 0.17978993 0.20516348 0.16695724 0.2453866 -0.08916017 0.3104148 0.22289121
0.108008504 0.30583653 0.11672122 0.16882625 0.19986226 0.27031764 0.10802925 -0.25400856
0.2744263 -0.27459505 -0.004509887 -0.17001836 -0.23404157 -0.029717507 -0.23186554 0.28444895
-0.25128576 -0.21072948 -0.24733877 -0.23960383 0.0173707 -0.11313679 -0.116375156 -0.3812773
-0.10136881 -0.1461387 0.1347168 -0.02329042 -0.22787285 0.0810898 -0.23426285 -0.089915805
-0.17915496 -0.019830449 -0.2394242 0.25110048 0.1599886 -0.26384425 -0.31879044 -0.31101617
-0.07936765 -0.197878 -0.20261855 0.058801148 0.1234709 -0.002741092 -0.15853249 -0.11998872
0.055226468 -0.08134966 0.29005307 -0.048544895 -0.027785856 0.009443045 0.25683904 -0.010073288
0.30518946 0.13843784 -0.064174585 -0.03530923 -0.10961332 -0.3084579 -0.06080162 -0.3068117
-0.18861541 -0.22464488 -0.22923167 -0.14590399 -0.20167264 0.22049728 -0.0668445 0.11313491
0.034051575 0.2334488 -0.1514437 0.19850487 -0.09440287 0.20300227 0.103872515 0.055876344
-0.22727194 -0.011945131 -0.17225853 0.03503952 0.2679829 -0.11432767 -0.2798531 -0.1352436
-0.2460671 0.27658665 0.054193735 0.2365265 -0.13263437 -0.14552467 0.24737819 0.1707921
0.11683987 0.13063623 -0.32987806 -0.28382084 -0.1768224 0.041965947 0.1309507 0.22371404
-0.21548438 0.11325394 -0.10447021 0.17726591 0.39416865 0.19921191 0.35800037 0.19065864
-0.039330684 0.3295001 0.28285092 0.074178524 0.04275253 0.18944131 0.34616387 -0.049203206
0.22235458 -0.121959805 0.35709754 -0.2136417 0.33657157 -0.23847295 -0.1917329 0.21168804
-0.14616482 0.1493851 -0.19597448 0.112616256 0.014598093 0.4547 0.23599496 0.15637812

conv.bias f4 [32]
00000000: f684 3bbd 55bb c1bc fcb5 af3d 986e 3fbe
00000010: 0316 dfbd 7483 e33d e48f 38be 535b a93c
00000020: 7a50 913d 9969 1f3d 4fda 163e 8c21 db3d
00000030: 3949 f23c 7050 d43d 2a4e 013e 3520 443e
00000040: 1961 213e bf47 863e d778 c93d b207 bebc
00000050: 8aee 0e3e 4ae5 bd3d ea45 4e3d f392 1ebe
00000060: ca1c c83d b38f 77be c816 89be e189 e7bd
00000070: a0f2 89be 0ea6 27bd 2308 0dbe 6d49 33be
-0.0457811 -0.023648897 0.08579633 -0.18694532 -0.1089287 0.11109057 -0.1802364 0.02067343
0.07095428 0.038919065 0.14731716 0.10699758 0.02957593 0.10366905 0.12627473 0.19152911
0.15759696 0.26226613 0.098375015 -0.023197029 0.13958183 0.09272249 0.050359644 -0.15485744
0.09771116 -0.2417591 -0.26775193 -0.11305595 -0.2694292 -0.040929846 -0.13772635 -0.17508478

fc1.weight f4 [64, 288]
00000000: eeb3 a2bd aecb cfbc ecd3 27bd 0036 1dbd
00000010: afd8 87bd 632c 843d 5883 80bd 2544 05bd
00000020: 39c0 60bd fdba 5bbd 94f8 05bc 745f d8bc
00000030: ebf1 90bb 285a 06bd 7d83 1ebd 56f2 aebd
00000040: b25d 033d a0ca 10bc 2843 62ba 0d72 0dbc
00000050: 1158 5f3d 53c6 ebbb 4b36 cabc 8114 aabd
00000060: d090 473c 2664 df3a 7869 ab3c 6233 fc3c
00000070: c096 9abd 5e04 b53c 75ee 70bd fcae 363c
00000080: ee60 6cbc 5b87 c43c 56aa 243c 11d0 88bd
00000090: 1b1b 133d 90e6 793d bded b3bc 9dbe 3e3d
000000a0: 70d4 1f3d c3bf e4bb 54a3 10bd fbc1 323d
000000b0: ed1a 47bd 3c14 b7bc 091e aabc 365b 6cbd
000000c0: 453c 263d 8b22 5fbd b610 9ebd 77b7 a2bd
000000d0: c7ad 93bc fa59 bdbd 0087 04bd a6df 5ebc
000000e0: f2b0 05bd 9bf8 1b3d b8db 983a 4ad8 773d
000000f0: 4299 c9bd 7b91 8fbc 61bd 2d3c 685e debc
00000100: eb0d 9ebd 9fbb 2b3d 51bd e93c cc72 56bd
00000110: 26c2 70bc afb1 82bd 83b3 98bd 5f99 b6bc
00000120: 6ed3 063c 2062 babc 4456 59bd 92d2 03bd
00000130: db01 87bd 4a36 7dbd fc4f 97bd bc87 b4bd
00000140: 9a37 1dbc 31aa 27bb 1087 49bd a503 ce3c
00000150: 1b64 1cbd c5b3 9abd 6732 24bb d30d 9ebd
00000160: 3094 d43c 12ce 12bd 2b8e ccbc 154f a6bd
00000170: 3851 97bd ed12 193b f7aa 293c 51a8 26bd
00000180: af73 c03c 3bc7 3ebd d935 323c 0af7 4f3c
00000190: e818 5dbd 3823 a7bd 466f 49bd 3da6 b8bd
000001a0: 087f 9abd f437 6cbc 890b debc ebab 95bc
000001b0: b616 c3bc 5577 84bc acb1 36bd a761 463d
000001c0: 9ef7 093d 72a7 57bd 5bf5 7c3d 110f 4abd
000001d0: 1d8c febc 50b9 1c3d 7239 323d 363a 37bd
000001e0: ccc1 df3c a7b2 acbc 59ae 1d3d a22f 093d
000001f0: 8c49 4dbc 8079 21bd 5a0d 54bc b320 98bc
00000200: 6350 a9bc 8a27 4bbd 6341 c4bc 0079 1abc
00000210: cec9 553c 7d24 8fbc 6ea5 3fbd 0976 a63c
00000220: 182b 6cbd c658 693c 3c27 acbd ddc0 c6bd
00000230: 8beb 66bb d898 f0bc 037f 09bd 5a15 80bd
00000240: a43a 243c 0bf9 21bd 803c d23a 7732 003d
00000250: e214 b4bd 804d 9cbd e639 30bb 46ba e9bc
00000260: e6a2 98bd 2f60 c0bd f0e3 1d3a 0225 0cbc
00000270: d5e0 76bd 9aad 41bd 4529 ebbd d90e b4bb
00000280: a883 aabb 442d a7bc b838 d73c 3717 94bd
00000290: 7b29 62bd 0378 6e3d 41a0 bfbc 1c30 c9bd
000002a0: 648c 073c c7cf 0bbd 7dce e8bd 6ec6 d03c
000002b0: e39f d9bc de65 27bd 36fa 0bbc 309f b43b
000002c0: 87c4 6d3d a622 a7bc 0811 4cbd f25e 623d
000002d0: a233 6cbd a348 c2bd 6af1 5cbd 28ce febc
000002e0: 7619 adbd aaab 97bc 6c90 c8bd fb1a f3bc
000002f0: 23f7 bebd 383b a1bc ea89 a6bc e8a6 2cbb
00000300: 5649 94ba ba87 14bd cf7d 21bd 6949 39bd
00000310: 8ce4 1cbd 49cd d2bc 0c2e 8cbd d2e4 58bd
00000320: d693 dd3c f4ee f0bd 485d 1fbd 602a 12bd
00000330: 4bed 5fbd 3b83 8d3c 8df9 223d 6ada 68bb
00000340: 68ef 75bd 2fa6 c1bc 80bf 9ebc ef96 53bd
00000350: e2af 86ba 3505 f1bd 15fc 0f3d d878 dabb
00000360: 89a0 13bd 0957 e9bc c753 8ebd 69c9 f8bd
00000370: 15ab 6bbd a7d5 8ebd 6794 2ebd 9ae2 8ebd
00000380: 8ae6 b3bc 3e84 47bc 7bc7 173c df4e 963c
00000390: 4794 653b 3a19 46bd de9e 2ebd cbc5 a1bd
000003a0: b8bb 133a b67a 313d 5497 9ebc 6018 67bd
000003b0: 5fe2 263c 94b8 54bd 6f46 55bb 3d53 373c
000003c0: bf61 8fbd 1d42 d6bc 4435 edbc dc2a cf3a
000003d0: a2f2 80bd dffb 34bd 3f69 c9bd f6d9 d1bc
000003e0: 0235 aebc 3345 7abd 19b7 86bd 10fa a239
000003f0: 1509 c0bb 174d d43c 8b51 cebc 0e95 ddbb
-0.07944475 -0.025365677 -0.04097359 -0.038381577 -0.06633126 0.064537786 -0.06275052 -0.03253569
-0.054870818 -0.053645123 -0.008176941 -0.026412703 -0.00442337 -0.032800823 -0.038699616 -0.08542316
0.032071777 -0.008837372 -0.0008631223 -0.008633149 0.054527346 -0.007195273 -0.024684092 -0.08304692
0.012180522 0.0017043396 0.020924315 0.03078622 -0.075482845 0.022096809 -0.05882116 0.011150118
-0.014427407 0.023990324 0.010050377 -0.066803105 0.03591452 0.061010897 -0.021963948 0.0465685
0.039020956 -0.0069808676 -0.03531201 0.043642025 -0.048609663 -0.022348516 -0.020766275 -0.057704173
0.04058482 -0.054476302 -0.07718031 -0.079451494 -0.0180272 -0.09245677 -0.03235531 -0.013603127
-0.03263945 0.038078886 0.0011662161 0.060509004 -0.09843685 -0.017525425 0.0106042335 -0.027144626
-0.077174984 0.041926976 0.028532656 -0.052355573 -0.014694726 -0.06381547 -0.07456114 -0.02228993
0.00822912 -0.022751868 -0.053060785 -0.032183237 -0.06592151 -0.061819352 -0.07388303 -0.08814952
-0.009595776 -0.002558362 -0.04920107 0.025148222 -0.038181406 -0.075538196 -0.0025054456 -0.077174805
0.025949568 -0.035841055 -0.024970135 -0.081205525 -0.07388538 0.0023357228 0.010355703 -0.040687863
0.023492662 -0.04657672 0.010877096 0.012693176 -0.05397883 -0.08161014 -0.049178384 -0.090160824
-0.075437605 -0.014417637 -0.02710511 -0.018270453 -0.02381454 -0.016170183 -0.044603035 0.048432972
0.03368341 -0.052649923 0.061757427 -0.049330775 -0.03107267 0.038262665 0.043511815 -0.04473325
0.02731409 -0.021081282 0.03849635 0.03349269 -0.012529742 -0.039422512 -0.012942636 -0.01857028
-0.020668214 -0.049598254 -0.02395696 -0.009428263 0.013048602 -0.017473454 -0.046788625 0.020319955
-0.057658285 0.014242357 -0.08405921 -0.097047545 -0.003523561 -0.029369757 -0.033568393 -0.062540725
0.010023747 -0.039544147 0.0016039759 0.031298127 -0.087930456 -0.076319695 -0.002688998 -0.028531205
-0.074529454 -0.093933456 0.000602304 -0.008553745 -0.06027301 -0.0472847 -0.11482481 -0.005494934
-0.005203683 -0.020407327 0.026272163 -0.072309904 -0.05521534 0.05821992 -0.023391845 -0.09823629
0.008273218 -0.0341337 -0.113675095 0.025485244 -0.026565498 -0.040868632 -0.008543542 0.0055121407
0.05804875 -0.020402264 -0.04982093 0.05526633 -0.05766643 -0.094865106 -0.053941168 -0.031104162
-0.08452122 -0.018514473 -0.09793171 -0.029675951 -0.09324481 -0.019681558 -0.020329434 -0.00263446
-0.001131336 -0.03626225 -0.03942662 -0.045236025 -0.038303897 -0.025732653 -0.0684472 -0.052952595
0.027048033 -0.11764327 -0.03890732 -0.035684943 -0.05466966 0.01727449 0.03978877 -0.0035530576
-0.06004277 -0.023638813 -0.019378424 -0.051657613 -0.0010275806 -0.11768571 0.035152514 -0.0066672377
-0.03604177 -0.028483884 -0.06949573 -0.12147791 -0.057536203 -0.06974345 -0.042621996 -0.069768146
-0.021960516 -0.012177525 0.009263868 0.018348156 0.0035031007 -0.0483639 -0.042631976 -0.07899054
0.0005635577 0.043329917 -0.019359268 -0.05641973 0.010185807 -0.05193384 -0.0032543202 0.011189279
-0.070010655 -0.026154572 -0.028956063 0.001580562 -0.062962785 -0.044185515 -0.09834527 -0.025616627
-0.02126551 -0.06110115 -0.06577892 0.0003108536 -0.0058604577 0.025915666 -0.025185367 -0.0067621535

fc1.bias f4 [64]
00000000: 5f99 df3c 909e 43bd da06 57bd 1f05 e23d
00000010: b128 85bd fbb4 eebc 2b99 043c 4c9f 213c
00000020: 8cea 55bd 0274 40bd 85d0 90bd df8e 413d
00000030: bfb0 97bc f72b 8cbd a8bf 37bd 4314 40bd
00000040: 2f91 41bd 51a4 d9bd 552c e9bc 2d71 83bb
00000050: abd8 a8bd 76ed c63c 668d 88bd d579 debc
00000060: 152b 91bc 345a e13b 3345 e3bc 0430 c4bc
00000070: d4d5 a7bc 89fa 94bd 9a94 27bb 5f86 b0bc
00000080: 54e9 95bc ae9c 89bd b2d3 e43a 9bba 9abd
00000090: 1df2 ca3c 78b0 8ebd 384e d7bb 5418 2ebd
000000a0: a958 e1bc a70e a5bd ed1d 11bd 2b52 a9bd
000000b0: fa7d b0bc 0d6d 8ebd 3df5 2dbd 76b1 f23b
000000c0: b108 a9bb 5319 1fbd aa6c 52bd 5920 99bd
000000d0: 3e65 e73c 8010 a73c b848 b93b 6e2f 17bb
000000e0: 4a68 42bd 4e8f 1dbd f434 c23c f63f 03bd
000000f0: 1917 9bbc 5ded 8dbd 941d 96bd 9b9c 73bb
0.027294813 -0.04775864 -0.05249677 0.11036133 -0.06501902 -0.029139033 0.008093159 0.0098646395
-0.052225634 -0.046985634 -0.07071022 0.047255393 -0.018516896 -0.06844323 -0.044860512 -0.046894323
-0.0472576 -0.10627044 -0.028463522 -0.0040112943 -0.08244451 0.024283152 -0.066675946 -0.027157703
-0.017720738 0.006877208 -0.027742958 -0.023948677 -0.020487703 -0.07274348 -0.0025570751 -0.021548448
-0.018299736 -0.067193374 0.001745811 -0.075551234 0.024773652 -0.069672525 -0.0065706037 -0.04250367
-0.027508097 -0.08059435 -0.03542893 -0.082676254 -0.021544445 -0.069543935 -0.042470206 0.007406409
-0.005158507 -0.03884251 -0.05137316 -0.07476873 0.028246518 0.02039361 0.0056544207 -0.0023069042
-0.04746274 -0.038466744 0.02370689 -0.03204342 -0.018931912 -0.06930039 -0.0732986 -0.0037172202

fc2.weight f4 [128, 64]
00000000: a69e 8b3b 7cce e63c bbda 403c 42e6 eb3c
00000010: 9ad0 10bd 3588 713d 583e 30bd 6afc 38bd
00000020: ee49 a0bc 27ef ebbd 899f a13d dabb 08be
00000030: 4856 8ebc ca8c 123d 0f44 653c 1401 693d
00000040: e8d0 ab3c e296 e73c 1122 12bd d66e 863d
00000050: 76c5 5bbc fb80 ecbc 01d1 57bc ce6b 97bb
00000060: 26dd ae3b fa38 a23d 42eb 183c efe4 b7bd
00000070: a3ff 78bd e15f d73d 3a40 87bd 1897 083d
00000080: a00b f33c ae14 0a3e 77e8 2fbe 4f3d a3bd
00000090: 08a4 0cbc ae46 9cbd a076 0a3e 5cd7 41bd
000000a0: 5103 a83d 82b0 3bbd d40f 0dbd baec d93c
000000b0: ec47 fc3d be1e d23d 1533 5bbd d5dd ddbc
000000c0: 83ef 453d 3c83 edbc ea94 b3bd dd05 98bc
000000d0: 62ac ec3d 8b5c 8bbd e561 00be dc1e 153c
000000e0: e25b 20be bd09 eb3d cdf4 09bc 19aa 96bc
000000f0: 4d76 8f3d 7f45 043c 26f8 e6bc e94c 63bd
00000100: dc23 c03d 1e6f 203b 537c cabc 9e6b 43be
00000110: 9212 bd3d 647b 33bd 2733 bbbc 08bd 7abc
00000120: 40bb 93bd 4420 04bc 7810 0b3d f259 97bd
00000130: ec41 9d3c 9282 473c f152 343d 8e3a a3bd
00000140: b17f 123e f08d c53d eacc 703d d911 cebc
00000150: 195a d63d 4ff8 8d3d 38c2 8c3d 458c 973d
00000160: 1d91 83bd 000c a3bd df6b 3c3e d17d 743d
00000170: a811 fa3d f4e4 ef3d 69d8 f53d f8b9 a93d
00000180: a36b bb3d 3f6e 323d 8648 cd3d 867b b1bd
00000190: cf84 3e3d b417 6dbc 389e 313d e8e6 203d
000001a0: 19d0 cf3d f515 b7bd b295 383c 26fe 123d
000001b0: 7064 44b9 8bc3 80bd 8a6b a0bd 9f8d f6bd
000001c0: d20e 603e 7421 b5bd 7813 a73d 1977 adbd
000001d0: 2d63 7abd 8855 7f3d 04fb 75bc 653b adbd
000001e0: ff41 b93d 2299 4e3b 832a 10be a2b0 833d
000001f0: c883 23bd 6aaf 07bd 2822 b9bd 3d4d c63d
00000200: a683 c0bd da50 163d 7d27 62bd 897b 733d
00000210: 58ff 18bd 12fe 3c3c a83b ddbd 2be6 6a3c
00000220: ba2d 03be 7bd9 013d 3c6e 953b 7cd4 23be
00000230: 8baa dfbd 59f9 63bd 166d 0ebe 118d 163d
00000240: 011f 1fbe 1630 1bbd e1f9 e6bd 0dc0 0c3d
00000250: b487 3cbe 3add aa3d e867 91be 693d fdbc
00000260: 96a5 eb3c cebb 873d 35c2 8abd b2e2 eabd
00000270: 81d2 583d 29f1 10be 236f 073d 0894 13be
00000280: 3573 88bd 4786 1e3d 393a 7cbd 09b1 e9bd
00000290: 84f3 7d3d 813f 2a3d c5d0 02bd ddd8 eabc
000002a0: 7d96 9d3d b678 f3bd 2551 2dbc b288 ba3d
000002b0: c61e aebd 9862 603d fbb3 86bc 115a 06be
000002c0: 396e a93d cddd 183d 82cd 813d 80a8 a6bd
000002d0: 4cc8 acbd e37b 16be 1d74 d2bd 5fe9 5fbd
000002e0: b69a 4dbd f6d3 b53d fb76 bfbd 97a6 cbbd
000002f0: 5cd8 e0bc fac9 e03c cad6 9c3d 3d90 5c3b
00000300: d61d 09be b816 cf3d 6045 01bc a895 d83d
00000310: 387f 14be 812c 63bd 00b3 febc 0142 063e
00000320: 8e5c 9bbb 251c 82bd 9de8 89bd 3fdb ac3d
00000330: ad63 7ebd a960 563d 52e9 023e 6381 ecbd
00000340: d79d 4bbb 75cb a8bd 5d2f 883b 60c2 04be
00000350: e95e 4abc f3c3 01be 8613 73bd 648c 95bd
00000360: e25c 30bd 7afa 123c 9a26 7dbd 8473 97bc
00000370: 1b15 5e3d 66aa 9f3d b869 6c3b e41d 633d
00000380: 0f04 69bd 4ff7 833c c0e1 d6bd 4191 15bd
00000390: 02bb 49bd 6bc2 723d 2841 113e a091 98bd
000003a0: ccef 523c c8be 04bc 1e73 d6bd 44f2 d33a
000003b0: d533 3d3c c9e3 703d 9dc3 b43c 8c82 bb3d
000003c0: e1f0 ee3c 4c5e 8bbc fba1 f63c 6d6b f7bd
000003d0: 4822 8abd ad99 d93d 4c0d 043d d1bd a03c
000003e0: d732 6fbc 7fcb b13d 9aac 2c3c 0441 363d
000003f0: 4e86 c13d 86aa 3ebc 96c9 babd 24ee a13d
0.0042608557 0.028174631 0.011770899 0.028796319 -0.035355188 0.058967788 -0.043028206 -0.045162596
-0.019566502 -0.11520224 0.07891757 -0.1335291 -0.017375126 0.0357788 0.013993277 0.056885794
0.020973638 0.028270189 -0.03567702 0.06564109 -0.013413778 -0.028870096 -0.013172389 -0.0046210056
0.0053364215 0.07921024 0.009333434 -0.089792125 -0.06079067 0.10516334 -0.06604047 0.03334722
0.02966863 0.13484451 -0.17178522 -0.07970678 -0.00858403 -0.076306686 0.13521814 -0.047324523
0.082037576 -0.045822628 -0.034438923 0.026602138 0.123184055 0.1025977 -0.053515512 -0.027083317
0.04832412 -0.028993241 -0.087686375 -0.018557483 0.11556317 -0.068047605 -0.12537344 0.009101596
-0.1566005 0.11476467 -0.008420181 -0.018391656 0.07004986 0.00807321 -0.028194498 -0.05549327
0.0938184 0.0024480294 -0.024717486 -0.19084021 0.09232058 -0.043818846 -0.02285154 -0.015303858
-0.072134495 -0.008064333 0.033951253 -0.073902026 0.019196473 0.0121771265 0.04402441 -0.07970153
0.14306523 0.09646213 0.05878917 -0.025154995 0.104664035 0.06932127 0.06872982 0.07399801
-0.064241625 -0.07961273 0.18400525 0.0596903 0.12210399 0.11713591 0.120041676 0.08287424
0.091513894 0.04356217 0.100235984 -0.08666138 0.046513375 -0.014470983 0.04336378 0.03928271
0.10147113 -0.08939735 0.011266159 0.035886906 -0.00018729432 -0.06287297 -0.078330114 -0.12038731
0.21880654 -0.08844271 0.0815801 -0.08469982 -0.061129738 0.06233743 -0.01501346 -0.08458594
0.09045791 0.003152438 -0.14078717 0.064301744 -0.0399206 -0.033126272 -0.09039718 0.09682701
-0.0940011 0.0366982 -0.05521344 0.059443984 -0.03735289 0.011535184 -0.10802394 0.014337103
-0.12810412 0.031701546 0.00456026 -0.15999025 -0.109212 -0.05565772 -0.139088 0.036755625
-0.15539171 -0.037887655 -0.11278129 0.03436284 -0.18411142 0.08342977 -0.28399587 -0.030913072
0.028765481 0.06627618 -0.06775323 -0.1146902 0.052935127 -0.14154495 0.033064973 -0.14411938
-0.06662599 0.038702276 -0.061578963 -0.1141072 0.061999813 0.04156447 -0.03193738 -0.028667862
0.07694719 -0.11888258 -0.010578428 0.09108104 -0.08501963 0.054781526 -0.016443243 -0.13120295
0.082729764 0.0373209 0.06338026 -0.081376076 -0.08436641 -0.14695697 -0.10276053 -0.05466592
-0.050196372 0.08878319 -0.093488656 -0.09943884 -0.027446918 0.02744006 0.07658155 0.0033655309
-0.13390288 0.10111755 -0.007890075 0.1057542 -0.14501655 -0.055462364 -0.031091213 0.13111116
-0.004741258 -0.063530244 -0.067338206 0.084402554 -0.062106777 0.052338276 0.12784317 -0.11548116
-0.0031069422 -0.08241931 0.004156037 -0.12964773 -0.01235173 -0.12672405 -0.05934479 -0.07302168
-0.04305733 0.008970851 -0.06180439 -0.0184877 0.054219346 0.07796173 0.0036073755 0.055448428
-0.056888636 0.016109137 -0.10492277 -0.036515478 -0.04925061 0.059267443 0.14185011 -0.07449651
0.012874555 -0.008102126 -0.104711756 0.0016170223 0.011548002 0.058810983 0.022065932 0.09155759
0.029167594 -0.017012738 0.030106535 -0.12081037 -0.0674482 0.106250145 0.032239243 0.019621762
-0.0145995235 0.08681392 0.010539198 0.044495597 0.09449445 -0.011637336 -0.09120481 0.0790675

fc2.bias f4 [128]
00000000: f0c5 2abe 1e5c 38bd 5c59 2abc 6987 4ebe
00000010: 4e4b 9bbd 2a93 15bb e8d8 ef3c 18dc 253c
00000020: c50c 26be 7b58 4fbd 99e0 3f3d c62d 9bbc
00000030: a561 b63d eb3c 7cbc 54c4 1fbe fc7a 4abe
00000040: bf39 80bd d797 c6bc 4270 b9bd e653 1ebe
00000050: 7aaa 2bbe f0a4 993d 5638 e63c 7cf1 72bd
00000060: 334e 2dbe 370c 23bd 0cdf bbbd 196a 06be
00000070: 0c03 b6bd d090 4cbd 6909 f7bd ea2a 87bb
00000080: 9443 4bbc 8c24 803c 94b4 a23d 420c b5bd
00000090: 8af2 cebd 5e88 e63c a0b7 2dbd ad66 9bbc
000000a0: f3d2 cdbd 7add 1bbd aa2c e8bc 7629 17bd
000000b0: 7176 dfbb a6f7 cbbd ef77 5ebc 1df9 40bc
000000c0: d1ef 8d3d 3f8e a83d 4e70 733c f425 8bbd
000000d0: e085 ffbd 7885 b0bc 4ea1 8abc 1dd9 fcbd
000000e0: bd5b a3bd a14a 803d e86c 503d 1b6f 9abd
000000f0: 8b44 fd3c 218a 9cbc b884 59bd e87c 83bd
00000100: 2d5c 2c3d 2789 543d 4693 12be 4136 05be
00000110: b89a 78bd 3250 c2bc b333 a9bc a13a 043d
00000120: b625 30bd 4ebe 61bd 4448 10be 6d2a 84bc
00000130: 763f 8b3d f2d0 023d 9c12 803d 9e1a 8abd
00000140: 0367 00be 3c04 fe3c d5bd e3bd 7d63 5c3d
00000150: 4ec1 a7bc 5278 08bb 5a94 a7bd 9287 9fbc
00000160: c14e f0bd 610b 01be 1ae8 00bd e06f 99bd
00000170: ff3b 74bd c823 76bd 5fa2 2ebe 6302 d13c
00000180: fdba 6cbd 0803 983d c996 b63c ce56 dd3c
00000190: a236 b4bd 3b7e 8bbd a92d b53c 6753 dbbd
000001a0: cc28 74bd 582c abbd 8ecc 95bd 1182 f53c
000001b0: 0cea 19bd 3435 99bd 41aa 13be 84fd 13bd
000001c0: e194 19be 45f9 893d bdb0 b53c f08f 09be
000001d0: 9198 9fbc f444 5cbd fc86 1cbd cb27 fbbd
000001e0: dfb9 6dbd b3c2 ccbd ee63 97bc 22d5 75bd
000001f0: c512 323d 0223 2cbe 2bc1 1dbc 0f4a ae3b
-0.1667707 -0.045009725 -0.0103972815 -0.20168842 -0.075827226 -0.0022823312 0.029278234 0.010123275
-0.16215809 -0.05062149 0.046845052 -0.018942725 0.08905343 -0.015395383 -0.15602237 -0.19773477
-0.06261014 -0.024242325 -0.090546146 -0.15461692 -0.1676425 0.075021625 0.028103035 -0.05931233
-0.16924362 -0.03980657 -0.09173402 -0.1312641 -0.088873 -0.04994279 -0.12062342 -0.004124989
-0.012406249 0.015642427 0.07944599 -0.088402286 -0.101048544 0.028141197 -0.042411447 -0.018969858
-0.10050001 -0.038053013 -0.02834161 -0.036904775 -0.0068195392 -0.099593446 -0.013578399 -0.011778143
0.06930507 0.08230256 0.0148583185 -0.06794348 -0.124767065 -0.021548018 -0.01692262 -0.123460986
-0.07976482 0.06264234 0.05088511 -0.07540723 0.030916473 -0.019108834 -0.053105086 -0.06420308
0.042080093 0.05188861 -0.14313993 -0.13008977 -0.060694426 -0.02371988 -0.020654535 0.032282475
-0.043004714 -0.05511313 -0.14090067 -0.016133511 0.067992136 0.031937547 0.062535495 -0.06743358
-0.12539296 0.031007878 -0.11120192 0.053805817 -0.020477917 -0.002082367 -0.08182593 -0.019473825
-0.11733771 -0.12601997 -0.03147135 -0.074920416 -0.05962753 -0.060092717 -0.17054127 0.025513833
-0.057795513 0.07422453 0.022288697 0.02701893 -0.08799483 -0.06811186 0.022116499 -0.10709267
-0.05960922 -0.08358067 -0.07314406 0.029969247 -0.03757672 -0.07480851 -0.14420415 -0.036130443
-0.14998199 0.067369975 0.022179002 -0.13433814 -0.019481929 -0.053776696 -0.03821467 -0.12263449
-0.05803859 -0.099980734 -0.018480267 -0.060017712 0.04347493 -0.1681023 -0.009628574 0.005318887

fc3.weight f4 [256, 128]
00000000: 16ea 1bbd 591b c83d 6faa 6c3d ab90 693b
00000010: 488c f03d 24e0 d5ba 20fa 38bd 8160 03bd
00000020: d258 803d 979c f13d 06d0 213d 4f84 d33d
00000030: 3a56 9dbd 2706 283e f991 d93d 3f9e e73d
00000040: 60fd 853d 1044 be3d 00f8 ab3d 6315 013d
00000050: 8981 01bd 89aa a93d 2647 89bd abf5 37bd
00000060: b745 1fbc 18d7 893d 1ee5 d13d 3e7b 2dba
00000070: 9afb 383d e6d5 02bd fe73 cb3d fa41 a33d
00000080: bf74 cebc 3aa1 22bd 8835 353d 8872 133c
00000090: 8a7f 983d 469d d93d 29d9 0a3d 4ab7 e73c
000000a0: 7ff9 e23d 1ad4 9c3d a69a 7e3d 6400 2f3d
000000b0: e4a7 c63d fea2 c53d 70d0 13bb e690 af3d
000000c0: 0c76 b53c bd8f 8abd a268 823c 7b72 c73d
000000d0: 0a88 013e 132e f03d ab65 c33d 7ed1 523d
000000e0: c86e 123e d5fe 26bd c7c8 023d 8c67 e2ba
000000f0: 5c86 1c3d 811e 573d 9c4f 3e3d 3c36 d93b
00000100: 1d46 d93c aa35 bf3d d335 d63d 9d0f f83d
00000110: d889 f53c 7ee4 f23d c931 9b3c 57a8 c63d
00000120: daad 503d 8867 e03d 4e7f 643d f208 54bc
00000130: 4b20 da3b ca6a f4b9 90da c03d 901a f93d
00000140: b665 dd3d 1e8d b73d def6 6b3d 75ec 893d
00000150: fec7 013e 106e c93d e926 f1bc 0330 d83d
00000160: 9c59 923d b0c9 db3d f0c7 b83d 62c2 7d3d
00000170: a05f af3d 1cdf d43d b267 8f3b 761f df3d
00000180: 37ae 643d be08 a4bc 6855 f63d 0564 d83d
00000190: 6a60 883b 01dc 9fbc 7f03 34bb a9aa 34bb
000001a0: c911 0c3e 0d3f df3d ce7c c63c 8ee3 cc3a
000001b0: b030 ff3d 4568 993d 3b3a 093d 2bbd c73d
000001c0: 95bd 713b f4dc a23d 9be4 143d efef 14bd
000001d0: 5fdb 5a3d 43ba 663d 8c2e 933c de0a d53d
000001e0: 7b0a 0a3e b31a 843d 6313 373c 2417 c13d
000001f0: 8499 533d c980 a6bb 32c6 183e edc6 abbc
00000200: 3be0 5ebd 3f84 93bc 1bfd 88bd b6e6 4e3d
00000210: 3be2 733d a325 9abd 4a1c 9bbc ce0d 883d
00000220: 46d4 fcbd 141a 833d 321b 053d 1eef 5abd
00000230: 541a 01bc ae5a ba3d 68df 413c 3ef4 65bc
00000240: 7908 163b 85a2 08be 60f3 6a3d 14e0 72bd
00000250: a355 b3bd e8b0 163d 7cff 17bd 62e8 7dbd
00000260: 5808 db3d 921a 91bc a0fd c5ba 0b20 03bc
00000270: 4b53 19bd 3a21 babd c9da 0bbd e055 d53c
00000280: 328c 04bc c02b de3c e886 063d 1a53 d4bd
00000290: d8df 18bd 1eb8 0e3e 4bdb 9bbd bfd0 ac3d
000002a0: e8d7 e9bc 1920 db3c 0933 89ba f800 9bbd
000002b0: c0db d6bd 2026 4b3d 8060 99bd fc2c b8bd
000002c0: 8300 3f3d 6e99 c23c c08e 063d 2830 63bd
000002d0: 149f c63d 567c 2e3c 1caa eb3b 49dd 31bc
000002e0: 82f3 99bd 7882 14bc bcdb 9e3d 646b 273d
000002f0: f869 1cbd dacb fc3c aa62 86bd 1206 28bd
00000300: da03 733b 8785 fbbb f63a 5a3b 325a 643c
00000310: 2317 073c 4948 85bc ef34 c13c 00d4 8cbd
00000320: 67ec 3c3d 5ad3 ac3d 4932 c23d 566f 4ebd
00000330: dd74 c0bd 2e91 4e3d 3ed7 77bc 6e08 813d
00000340: 4444 af3b a77b babd 30d1 85bd d46a 82bd
00000350: d3f9 f83b e93b d93d f0fe 0bbc 8497 95bd
00000360: fc52 91bd 8320 05bd ac34 df3c 384e 04be
00000370: 982a 0b3d aa6f 06be 5520 78bd df58 80bc
00000380: bef0 9bbd 38c3 9bbd cc58 8ebd fd98 babd
00000390: 291a f23c 3954 1ebd 79a6 0b3c 5b8d d5bd
000003a0: 5ef3 8b3c 1962 a3bd b9e5 d4bb b97a 9d3d
000003b0: cfc2 3dbb 9d7d 20bc ed3b a6bd 5bfb 353d
000003c0: 3482 503d 33f8 9fbc 8b1e 73bc 8676 64bd
000003d0: 5e92 d2bc 0dc8 883d 803e a63d d8f6 183e
000003e0: 2c06 9abd bf83 903b b136 c4bc 0481 c43c
000003f0: 9738 683d 1fe8 35bd 1c3f a7bc e628 e9bd
-0.03806504 0.09770841 0.057779726 0.0035639207 0.117455065 -0.001631741 -0.045160413 -0.032074455
0.06266941 0.11797445 0.039505027 0.1032797 -0.07682462 0.16408597 0.10623545 0.1130948
0.06542468 0.09290326 0.083969116 0.031514537 -0.031617675 0.0828448 -0.067030236 -0.04491202
-0.009721211 0.06730479 0.10248779 -0.0006617791 0.04516182 -0.03194227 0.09934233 0.079715684
-0.025202153 -0.03970454 0.044240505 0.008999474 0.07446201 0.10625701 0.033898506 0.028285641
0.11082744 0.07657643 0.062159203 0.042724982 0.09699991 0.09650229 -0.0022554658 0.08572559
0.022151016 -0.06765697 0.015919033 0.09738632 0.12649551 0.11727538 0.09540876 0.05146932
0.14300072 -0.04077037 0.031929757 -0.0017273291 0.038214073 0.052519325 0.04646264 0.0066287797
0.02652269 0.093364075 0.10459485 0.12112353 0.029972956 0.11859988 0.018944638 0.09700077
0.050947048 0.10957247 0.05578547 -0.012941586 0.0066566817 -0.0004661887 0.094166875 0.121632695
0.108104154 0.08962463 0.057608478 0.06734554 0.12673947 0.09835446 -0.0294375 0.105560325
0.07145998 0.10731828 0.0902251 0.061952956 0.08563161 0.10394117 0.004376375 0.108946726
0.055830207 -0.0200237 0.12028009 0.10565952 0.004161884 -0.019514086 -0.0027467904 -0.0027567542
0.1367866 0.10900698 0.024229433 0.0015631781 0.12460458 0.07490591 0.0335028 0.09752878
0.0036886681 0.079523 0.036350828 -0.03636163 0.053431865 0.056329977 0.017966531 0.104024634
0.1348056 0.06450405 0.011174056 0.09428242 0.051660076 -0.0050812704 0.14919356 -0.020968879
-0.05441306 -0.018007396 -0.06688901 0.05051299 0.059541922 -0.0752671 -0.018934388 0.06643258
-0.123451754 0.064014584 0.03249664 -0.053450696 -0.007879812 0.09099327 0.011833049 -0.014035283
0.0022893234 -0.13343246 0.057361007 -0.05929573 -0.08756568 0.036789805 -0.037108883 -0.061989196
0.10694951 -0.017712865 -0.0015105493 -0.008003245 -0.03743295 -0.09088369 -0.034144197 0.026041925
-0.008090066 0.027120471 0.0328435 -0.10367413 -0.03732285 0.13937423 -0.07610186 0.08438253
-0.028545335 0.026748704 -0.001046748 -0.07568544 -0.10491133 0.049596906 -0.07489109 -0.08992955
0.046631347 0.023754802 0.03285098 -0.055465847 0.096983105 0.010649761 0.0071919095 -0.010855981
-0.075171486 -0.009064309 0.07756755 0.0408739 -0.038186997 0.030858923 -0.065617874 -0.041021414
0.0037081153 -0.00767583 0.0033299304 0.01393752 0.008245262 -0.01626982 0.023584811 -0.06876373
0.04612389 0.084387496 0.094822474 -0.050399147 -0.0939729 0.050431423 -0.015127001 0.06300436
0.005348714 -0.09105616 -0.0653404 -0.06368032 0.0075981407 0.1060713 -0.008544669 -0.0730429
-0.07095906 -0.03250171 0.027246796 -0.12920463 0.033976167 -0.13128534 -0.06057771 -0.015667377
-0.07614277 -0.076055944 -0.069505304 -0.091112114 0.02955349 -0.03865454 0.008523577 -0.10427352
0.01708382 -0.07977695 -0.0064971116 0.07689423 -0.0028955226 -0.009795574 -0.08116899 0.044429164
0.05090542 -0.01952753 -0.014838825 -0.055777095 -0.025704559 0.06678782 0.0811739 0.14937913
-0.075207084 0.0044102366 -0.02395186 0.0239873 0.056694593 -0.04441082 -0.020415835 -0.11384754

fc3.bias f4 [256]
00000000: 3558 8d3c 3f6c 49bd 75ef cfbd ed1e e23d
00000010: a5cc 193d 3667 cabc d33c 55bd 2152 96bd
00000020: acdc aebd d141 ab3d e182 de3d 446d 2bbd
00000030: b4bd 8c3d 6057 9bbd 06d6 263d d1bf dd3d
00000040: 3c2d a1bc 5e5f de3d 0acc 5a3d 01b0 ddbc
00000050: 20ff c43d ec1b 603d 3afc b8bd 08b3 bd3d
00000060: f3af d1bd 17ef 89bc 0a2d c7bc a1c5 2abd
00000070: 3dbc 6bbc 9b72 1dbd 5a3d 033e 4034 9bbd
00000080: 079a 70bd 49e6 b3bd da10 d83d 9ffc 8bbd
00000090: 1f4a 9f3c 657c ff3c d441 e7bd 7825 34bd
000000a0: d8ab 64bb e880 90bd e04a 80bd aadc dc3d
000000b0: 0562 96bd 3abe dd3d 551c 0dbd 4987 d03d
000000c0: dc97 4b3d b2c6 ce3d 3447 dabc fb97 37bd
000000d0: fe72 733d f4f0 fdbd b57f 4b3d ac5c b0bd
000000e0: 46c4 f73d e90c f9bd 8274 acbd 6f98 103d
000000f0: 992b b53d 9eed 193e 4262 303d 633c bf3d
00000100: 2035 8abd baf7 c73c 120a 0dbe 6502 b9bd
00000110: 59e0 ddbd 458a 27bd dfd5 76bd a3ea 313e
00000120: dee9 693c 1c53 003e 55c4 90bd f4f4 f83d
00000130: 0858 033e f905 b3bc b0b9 e63d 42af d93b
00000140: c64e 143e 64e4 d93b 4478 b53d 7e34 77bd
00000150: 91e5 78bd f2e4 c9bd d933 15bd bdfe 013e
00000160: 5fa9 4bbd 4601 12bd 6d98 233d 51c8 18bc
00000170: 3eee ae3d 261e 03bd 7c63 a5bd 23bc 513d
00000180: 48c4 87ba 9db4 aebc b89c 84bc 8640 c9bd
00000190: 7e90 78bd b034 903d f1c2 e4bc f944 1b3d
000001a0: 6b1e 97bd e3b3 7e3d 6230 c4bb 7594 59bd
000001b0: 7adc 053e 1b7e 143e 1864 e6bd f273 fa3d
000001c0: 429d 323e 219e ab3d 4dbc 093e 38a9 74bb
000001d0: 698f 263e 4926 4dbc 47bd e9bd df80 253e
000001e0: 8b17 33bd ffd9 d4bd 8f60 60bd 98f8 273e
000001f0: 3027 eb3d c258 adbd 13e8 073e 96b4 25bd
00000200: d1ba e5bd 3f6b 893d 827d 363d ec02 0e3e
00000210: b364 d83d 2ead a2bd 4623 2f3d 08c2 763d
00000220: aac6 5f3d 96cb 4e3d a122 07bc 7493 003e
00000230: f792 89bd 03da c9bc 99ce 28bd 0234 2cbd
00000240: 9f83 3ebd 4b31 fb3d 26f1 bfbd 80a2 d7bd
00000250: 3cc5 993d 3c31 ac3d e2b1 c33d 8ff2 82bd
00000260: 3b5a a43b bb33 c0bc 71ea 0bbd 897a b6bc
00000270: 048b 72bc 3ffc d53d 90b7 d4bc c2a2 79bd
00000280: a754 623e d004 80bd b42b e73c 9ca4 8b3d
00000290: c051 88bd bb00 5abd 7169 edbc ebfd c0bc
000002a0: d4b9 5fbd c6cb 52bd 35ab a5bd f0a6 f1bd
000002b0: c489 5cbd 7fec 7c3d c454 1d3c da3d f9bd
000002c0: d664 04be c881 f73d e0d1 ba3c 6665 58bc
000002d0: 2484 f13d 80be 8cbd e330 41bd 1683 03bd
000002e0: 6b27 21bd e928 a33d 77a0 1b3d 502f 553e
000002f0: d69a 8b3d 80d9 133e 8057 c3b8 9033 d3bc
00000300: 28e0 74bd d890 18bd 22ec 2c3e a976 cd3d
00000310: 1db4 423d e376 20bd 5910 0abe b816 5f3d
00000320: 2ad0 a4bd 2cf9 afbd 5c0d 203d 60d7 dd3c
00000330: 0d5c dd3d d90b b83d 8a8e e03d 0211 833d
00000340: 799c 43bd d2ba e03d ff30 803d f8c4 81bd
00000350: 6419 99bd 0638 193e fe1e 1fbd a778 e1bd
00000360: dce0 8c3d 828c 0d3c 39a0 afbd 1120 dc3d
00000370: 34da bf3d 181c dd3d 44cc abbd 4e2e 66bd
00000380: 9047 ddbd de73 053e dbf4 453e 8749 113e
00000390: 5e84 963d a9f4 4bbd de74 a1bd 9cfb d5bd
000003a0: 4640 de3c 6f20 bbbc c822 dfbd b3a8 213c
000003b0: cdbb 21bd 22d1 64bd 6e07 ca3c 389e 1ebd
000003c0: c71d c5bd 0028 4e3d de41 0e3d b9ad b2bd
000003d0: f9e6 88bd 30f8 ed3d a372 4abd 7091 703d
000003e0: 183b f03d fa9b 08bd 9a38 60bc f4a0 81bd
000003f0: 1f8f 8f3d 7e78 d9bc cf84 e93d 38c1 3c3e
0.017253974 -0.049175497 -0.10153095 0.11041055 0.03754868 -0.024707418 -0.05205996 -0.073398836
-0.085381836 0.08362163 0.10864807 -0.04185225 0.068721205 -0.07585025 0.040731452 0.10827602
-0.01967489 0.108580336 0.053417243 -0.027061464 0.09618974 0.05471413 -0.090324834 0.09262663
-0.10238638 -0.01683764 -0.024313468 -0.04169238 -0.014388141 -0.038439374 0.12816373 -0.07578325
-0.058740642 -0.08784158 0.10550089 -0.06835293 0.019444523 0.031187246 -0.112918526 -0.043981045
-0.0034892466 -0.07055837 -0.06264281 0.10784276 -0.073429145 0.108272985 -0.034450848 0.101820536
0.04970537 0.10096492 -0.02664528 -0.044822674 0.059435837 -0.12399474 0.049682338 -0.08611426
0.12097983 -0.121606655 -0.084206596 0.035301622 0.08846206 0.1503205 0.043062456 0.0933769
-0.06748414 0.024410117 -0.13773373 -0.0903366 -0.108338065 -0.04090335 -0.060262557 0.17374663
0.01427695 0.12531704 -0.07068697 0.12156096 0.1282655 -0.021853434 0.11265886 0.006643207
0.14483175 0.0066495407 0.088608295 -0.060352795 -0.060765807 -0.09858121 -0.0364264 0.12694831
-0.04972207 -0.035645746 0.039940286 -0.009325103 0.08541535 -0.032011174 -0.08075616 0.05120481
-0.0010358179 -0.021326357 -0.01618801 -0.0982676 -0.060684673 0.07041299 -0.027924987 0.037907574
-0.07378849 0.062183272 -0.005987213 -0.053120095 0.13072386 0.1450123 -0.1124956 0.12229146
0.17442802 0.0837977 0.13450737 -0.0037332308 0.16265644 -0.012521335 -0.11413055 0.16162442
-0.043723624 -0.10393142 -0.054779585 0.16403425 0.11482084 -0.08464195 0.13272123 -0.040455423
-0.11217273 0.06709909 0.044553287 0.13868302 0.10566082 -0.07943188 0.04275825 0.060243636
0.05463282 0.050487123 -0.008248002 0.12556249 -0.067174844 -0.024640089 -0.041212652 -0.042041786
-0.046512242 0.12265261 -0.09372167 -0.10529041 0.075083226 0.08407828 0.09555413 -0.06393921
0.005015639 -0.023462167 -0.034159128 -0.022275226 -0.014803652 0.10448503 -0.025966436 -0.060946234
0.22102605 -0.06250918 0.028219081 0.06818506 -0.066562176 -0.053223353 -0.028980942 -0.023558578
-0.05462058 -0.051463865 -0.08089296 -0.11799419 -0.05384232 0.061748978 0.009602729 -0.121700004
-0.12929091 0.12085301 0.022805154 -0.013207769 0.11792782 -0.068722725 -0.047165763 -0.032107435
-0.039344233 0.07966787 0.037994828 0.2081883 0.06816642 0.14438438 -9.314623e-05 -0.025781423
-0.059784085 -0.03724751 0.16886953 0.10032398 0.04753505 -0.03917588 -0.13482799 0.054465026
-0.08047517 -0.08592448 0.03907524 0.027080238 0.10808573 0.08986635 0.10964687 0.06399728
-0.047756646 0.10973133 0.06259345 -0.06336397 -0.07475546 0.14962777 -0.038847916 -0.11009341
0.06878826 0.008639457 -0.08575482 0.10748304 0.09367791 0.10796374 -0.0838857 -0.056196503
-0.10804665 0.13032481 0.19331686 0.14188205 0.07349466 -0.049793873 -0.07883619 -0.10448381
0.027130257 -0.022842614 -0.10895306 0.009866881 -0.03948574 -0.055863507 0.024661746 -0.038725108
-0.0962482 0.050331116 0.034730785 -0.08724541 -0.066846795 0.11619604 -0.049425732 0.05873245
0.11730021 -0.033351876 -0.01368537 -0.063295275 0.0700972 -0.026546713 0.11402284 0.18433082

fc_policy.weight f4 [9, 256]
00000000: 1ce4 e43e b228 55bc 3a78 f93c f3c6 ea3e
00000010: 4689 e83e a34f 083e 8faa 743d ae89 86bc
00000020: dd4f 86bc 0e72 d93e 115c dc3e febe d0bc
00000030: 480d c93e 286c 773e 320f ee3e 4f70 b83e
00000040: 7973 d03e a104 683e 2953 ed3e c295 163c
00000050: 660c d83e 8868 da3e 1267 93bb bd62 dd3e
00000060: cd14 bd3d b522 d23d ec0b f13e ec91 35bc
00000070: 4f12 5d3e 3f72 8c3e 468a e93e c2d0 0ebc
00000080: 5c70 d63d b541 b23d da99 b83e df18 953e
00000090: 2650 eb3e f39a d53e 25bd 803d 05af eb3c
000000a0: 955e e33e 6f3b b23e 9844 ae3d ad32 c13e
000000b0: c0bf 94b8 03ea cd3e dae4 a13d 10d4 ec3e
000000c0: 8e07 e03e f212 9a3e 1c47 373c 338a 903e
000000d0: c396 d53e 570c cdbc 16d2 e73e 941c ba3e
000000e0: d1bb d13e 4145 aabc 9a41 4a3d ed75 e83e
000000f0: daa6 bb3e 7e9e e73e c34a 9d3e 0aab e43e
00000100: 35a7 3d3e e004 fd3d 8358 103e 1b05 f33d
00000110: 6724 a83d c6e3 6e3b 0a97 e43d e749 ec3e
00000120: b76d b83e 1d63 ef3e 2d11 923e 60ab eb3e
00000130: 5a70 db3e c9cb 113e ddfb d13e 3d38 6a3d
00000140: 6f6c e13e e7ae b03d 1430 a83e d508 9b3d
00000150: e6bc 22bc 16df 6dbc cbef 343e 78da d63e
00000160: 9fd4 a33e 5670 92bc 0592 cd3e f3cd d23e
00000170: fc8b e93e c11e cb3e ad64 8b3c ee34 ee3e
00000180: 1d0f b73e 2c9f 983e 723b c73c eac0 5c3c
00000190: 6416 0c3d 0b5e a43e 6418 d03c d2bc ec3e
000001a0: e7af 5f3d 5eae ed3e 8560 b63e 684b 383c
000001b0: d78b b23e 385c c03e dd2e 0e3e 80e8 db3e
000001c0: cef2 e53e 207d cd3e 5cb6 e03e 8037 9d3e
000001d0: 8839 ed3e ad3a 243e c7f3 a7ba 9631 d93e
000001e0: dbb4 173e 98fd 0bbc e248 8d3d 07f7 e23e
000001f0: 0405 ea3e 9731 db3c c368 c33e 257c 9c3d
00000200: 5fbf 993c ea1e e03e 6604 d93e 8f79 b93e
00000210: 41f8 e63e 4417 a13d 1394 ee3e 5036 e03e
00000220: b19b e33e 68a3 a13e 8460 9b3e 8efb e43e
00000230: b43a 823e 562e d03e fac7 5c3b 01ca 4dbc
00000240: 68e9 e03e 876c e13e e854 4d3e e087 f3b9
00000250: e173 ee3e 9a98 e73e 0941 aa3e 0edb d63d
00000260: e5ea 2e3d 6ab0 b53e 67df 893e ebf7 413e
00000270: e931 893e 8a2d d33e fbd2 9dbc e04c e33b
00000280: fbf6 ec3e e4f1 933e ef60 e03e 755b e73e
00000290: d87b a0bc 91b9 a53e ec53 ab3d dc56 733d
000002a0: 5e8f 1a3d 84f1 8b3c 2033 993d ae74 0d3d
000002b0: 3b52 983e 603f e83e 5e31 eb3e fd8e 2d3c
000002c0: 5910 6f3e d0c8 bd3e 8969 cd3e 6a25 a53c
000002d0: 6578 d63e f66b d2bc 3e11 d7bb 97a1 eb3e
000002e0: a130 d53e e96c ec3e 3c39 e93e 04cf ed3e
000002f0: 52b3 e63e 38a8 d13e f750 9d3e f60a 943e
00000300: e670 9bbc b756 823e 6572 ed3e cfbc da3e
00000310: 77ff da3e c4fb df3c 8faa ee3d f382 e13e
00000320: 6ae4 273e 6d64 2e3e 21dd dc3e 5ec8 df3e
00000330: dcd1 d63e ab4a e73e dbf1 e23e f8ca e93e
00000340: 1b78 f53d e20e e33e 8735 d33e 961e 453d
00000350: 5290 673d ac63 d23e ac0f 323e 3603 45bc
00000360: d176 c63e 9bf9 e43e 077c bb3d 5c34 de3e
00000370: 40fa 9b3e fb34 e23e 6606 e2bc 61d6 f63b
00000380: 20b5 b33c a074 e33e 96f6 e93e 0d9b b13e
00000390: 98a8 e43e 16ab 333d 71cb cbbc 1f4b 0f3e
000003a0: fbc2 ed3e 009b 3a3d 3280 a93d 9450 df3e
000003b0: 4a76 19bc 9c9f 0f3a 3ce3 e63e 541f a83e
000003c0: 9532 6a3c 68fe c73e 0e91 eb3e 2077 7cbb
000003d0: 02c9 a63d 2cd4 cb3e 43ef 383b 35cd d83e
000003e0: e99f cc3e b30d 063c 8d4c 6d3d d633 41bc
000003f0: e3a7 c93e bfd0 6c3d 96ff e83e 960b ea3e
0.44705284 -0.013010191 0.030452836 0.4585491 0.4541723 0.13311629 0.05973297 -0.016423073
-0.016395504 0.4246983 0.4303899 -0.025481697 0.39267945 0.24162352 0.46495968 0.36023185
0.407131 0.22658016 0.4635251 0.0091909785 0.4219696 0.42657876 -0.004498371 0.43239394
0.09232483 0.10260526 0.47079408 -0.011082154 0.21589015 0.27430913 0.45613307 -0.008716764
0.104706496 0.08703939 0.3605488 0.29120538 0.45959586 0.4171978 0.062860765 0.02876998
0.44408098 0.3481097 0.08509177 0.37733975 -7.092906e-05 0.402176 0.07904978 0.4625554
0.43755764 0.3009258 0.011186387 0.28230438 0.41716585 -0.025030298 0.4527747 0.36349928
0.40963605 -0.020784976 0.04937897 0.4540247 0.36650735 0.45238107 0.307211 0.44661742
0.18520816 0.123544455 0.14096265 0.11866208 0.08210068 0.0036451682 0.11161621 0.46150133
0.36021206 0.46755305 0.2852873 0.46029186 0.42859155 0.14237894 0.4101247 0.05718254
0.4402804 0.0862711 0.3284918 0.07570044 -0.009932732 -0.01451852 0.17669599 0.41963553
0.31998155 -0.017875832 0.40150467 0.41172752 0.45614612 0.396719 0.01701578 0.46524757
0.35753718 0.29808939 0.024320338 0.013473729 0.03420104 0.32103 0.025402255 0.46237808
0.054611113 0.46422094 0.35620514 0.011248447 0.34872314 0.37570357 0.13885064 0.4295082
0.44911808 0.40134525 0.4388913 0.30706406 0.46332955 0.16038008 -0.001281374 0.42420644
0.14815085 -0.008544348 0.06898667 0.44329092 0.45706952 0.026757045 0.38165864 0.07640866
0.01876801 0.43773586 0.42386168 0.36225554 0.45111278 0.07865766 0.46597347 0.43791437
0.4445472 0.31569982 0.30347073 0.4472317 0.25435412 0.40660352 0.0033688531 -0.0125603685
0.43928075 0.44028112 0.2005192 -0.00046449807 0.46572784 0.45233613 0.33252743 0.10491
0.04270448 0.35486156 0.26928255 0.1894223 0.2679589 0.4124568 -0.019265642 0.0069366544
0.4628218 0.28895485 0.43823954 0.45186964 -0.019590303 0.32368138 0.08365616 0.059409007
0.03773438 0.017082937 0.074804544 0.034535103 0.29750237 0.4536085 0.45936102 0.010593173
0.2334608 0.3706727 0.4011958 0.020159442 0.4188873 -0.025686245 -0.0065633347 0.4602172
0.41638663 0.46176842 0.4555148 0.46447003 0.45058686 0.40948653 0.30725834 0.28914613
-0.018974733 0.25456783 0.4637634 0.42722175 0.4277303 0.02734173 0.11653625 0.4404522
0.16395727 0.17030497 0.43137458 0.43707556 0.41956985 0.45174155 0.44325146 0.45662665
0.11985799 0.44347292 0.41251776 0.048124872 0.05653412 0.4109167 0.17388791 -0.012024691
0.38762525 0.44721684 0.09154516 0.43399322 0.30464363 0.44181046 -0.027590942 0.00753288
0.021936953 0.44424915 0.45695943 0.34688607 0.44659877 0.043864332 -0.024877282 0.139935
0.4643782 0.045557976 0.082764044 0.43616164 -0.009366581 0.0005478801 0.4509524 0.328364
0.014294286 0.39061284 0.46009105 -0.0038523152 0.08143808 0.39810312 0.0028218783 0.4234406
0.39965752 0.008181977 0.057934333 -0.011792144 0.393859 0.057816263 0.45507497 0.45711964

fc_policy.bias f4 [9]
00000000: ade5 cb3e 745b e8be c795 d6be 59c5 bcbe
00000010: 7ed7 bfbe 2aa9 d6be e3bd ccbe 25a1 b2be
00000020: 7ff6 afbe
0.39823666 -0.45382273 -0.41911146 -0.36869314 -0.37469095 -0.41925937 -0.39988622 -0.3488857
-0.3436775

fc_value.weight f4 [1, 256]
00000000: 919f b03c 17c3 e83d daf0 8dbb 9ac3 3cbd
00000010: f10a b3bb 5ec2 0c3d 0dfe b43b e6c2 20bc
00000020: 2e88 db3a 82bc 59bb 9587 10bd ed49 243c
00000030: ec7b 7c3c 9ea9 053d 32f0 40bd ee91 64bd
00000040: 0256 2e3c 28df 9fbd d235 c5bc a52a a93c
00000050: a2a3 963c 1827 9ebc b4a1 8a3b 8bf0 45bd
00000060: b050 8b3c a5cf 4a3c 3db9 373c 658a b63d
00000070: ae8b f03c 9e78 6f3d 17fe d9bc 55c0 1dbc
00000080: e411 96ba bc6b 033d 2f92 2dbd 4084 723a
00000090: 2a44 c23c 3c9d e43c 90e6 4fbc 594c 5e3d
000000a0: f28d e0bb 8b4f b7bc c4e5 893c 17ad 2dbd
000000b0: a85d eabb 8a3b 20bd bfe3 abbc 358f 8abd
000000c0: 79c4 e43c 52eb afbd 8e57 d73c c954 953d
000000d0: 8b58 10bd 2b96 163c 5b4c c03b 5093 48bc
000000e0: e6ac 27bd c059 5e3d 1274 c53d 953a 7cbd
000000f0: 1445 3fbc 695c 1fbd a5f5 99bc 04af dabc
00000100: e57e d83d b76c 54bd 51b9 963c 0072 dfb9
00000110: eccf 63bc 8a0d 653d f207 7c3d 5a71 8abd
00000120: 0b24 13bc af4f 8bbc 5eb7 48bc c3b1 67bd
00000130: 0db0 30bd cbcf 9f3c 4333 1abd d0ab 5d3c
00000140: d1dc 3cbd 1d27 a53d f6b1 36bd 8945 8a3c
00000150: b381 53bb fdd1 86bc fef8 05bd a04a 98bc
00000160: ce9b ec39 82dd 843b 3fcb 3cbd f076 9e3c
00000170: 8914 503d 6a60 3c3d 3c1a 1c3b 3d50 51bd
00000180: b352 6e3b d3c2 913d dabd 8f3d 44bd 2e3a
00000190: a8a1 293b 437a 66bd 0d66 6d3b e438 8abc
000001a0: c85c 7b3c bbc4 04bd 0dff 903c caaa ab3d
000001b0: 8892 66bd 5db1 63bd 70b4 053c d444 21bd
000001c0: cfce 3bbd cc49 d73b 7fc1 8ebc b6ef 263b
000001d0: c354 45bd f639 533c 4f05 5a3d 13b4 1bbd
000001e0: 4d14 243d 043d 893c 7824 afbc 7d2c 10bd
000001f0: 867b f4bc 49ac e0bc e3ed 37bd 95ed 793d
00000200: e32d 693c eb41 f6bc b71b 09bb 6b30 2ebd
00000210: 6d34 4fbd 84e2 953b bdab 8bbc 1a34 fe3c
00000220: 4c26 dfbc ec7c 22bd 0d40 353d 6492 01bd
00000230: b610 e5bb acd1 523c 8003 ab3c 14ae 3dbc
00000240: 523e 803b 9333 afba 2aa5 a33b f0e9 9abb
00000250: 1281 aabc dd7b 2b3d 964a 7bbd d7c7 78bc
00000260: 7a93 2c3c 9587 743d 8d3c 4d3d 4b6b 573a
00000270: 6bcd 2f3d 3bf2 0c3d 59bf 8e3d 4653 19bc
00000280: ee82 46bd 990e 02bc 8eb2 2f3d 0dd9 b3bc
00000290: 4f04 6c3d 86ad a73c 80da 3c3c f0bd 3bbb
000002a0: 3053 67bc 5776 6c3c b0d2 d1bc 620d 4b3c
000002b0: 9e03 393d e52f 9ebc f0ae 3e3c 501c 08bb
000002c0: ffc7 24bc f0dd 55bd 962b cfbb 4fe6 90bc
000002d0: 60fc 00bd 21e0 993d b30f 683c e5e9 963c
000002e0: 2ae3 5d3c 45f2 8abd ea2a 6dbb 7e45 08bd
000002f0: 62a1 133c 21f1 8fbd 59fd 4c3d 9293 343b
00000300: 88fd 6c3d 4ff7 293c ff2c 1dbd 6c0e a7bd
00000310: f8cb 45bb 49c9 d43c 5988 e43c b054 2f3c
00000320: 9e80 9c3d b5a6 6f3c 0449 b03b 6a44 afbc
00000330: 7f18 a03b 808d 023d 2c17 1fbd d6f7 c83c
00000340: d02c 763a 15ca 34bd e8cc 923c 2b0e ac3b
00000350: f198 b0bb 79fb 7bbc 2b2f 533d 806f 063d
00000360: 631e 343b ee41 0a3c 30ea a53a 7bfc c6bc
00000370: c970 77bc afe5 36bd eee3 263d b178 e73c
00000380: 190c 4d3c 9fd8 12bd a4e2 6cbd 0bd9 65bd
00000390: 9b11 0dbd d09c 473c b643 fbbc 246e 20bb
000003a0: 1446 283b b0db 963c a16b a6bb 2a28 233b
000003b0: e4a2 933d d553 4abc d5f4 c3ba 62d3 a4bc
000003c0: d2fe 03bd 3336 6cbc f93e 27bd 6ac8 0ebb
000003d0: 07ef 5b3d d90e 2ebc 8954 a7ba e797 c93b
000003e0: 642d 8eba 8bae 673d 68d0 0e3c 5c1c 883d
000003f0: efb8 f4bc 444b 2f3a cad1 68bd 0d48 52bd
0.021560462 0.113653354 -0.0043316903 -0.046084978 -0.005463951 0.03436505 0.0055234493 -0.009812092
0.0016748959 -0.0033223932 -0.03528555 0.010027391 0.015410405 0.032632463 -0.047104068 -0.055803232
0.010640623 -0.078062356 -0.024073515 0.020650217 0.018388573 -0.01930575 0.0042307023 -0.048325103
0.017006248 0.012378608 0.011213598 0.089131154 0.02936348 0.05846464 -0.026610417 -0.009628375
-0.0011449424 0.032085165 -0.04237574 0.0009251274 0.023714144 0.027907006 -0.012689248 0.05427203
-0.0068528587 -0.022376796 0.016833194 -0.0424014 -0.007152278 -0.03911928 -0.020982621 -0.06765596
0.027925717 -0.08589806 0.026286867 0.07291562 -0.03524069 0.009191076 0.0058684773 -0.012242153
-0.040936373 0.05428481 0.09641279 -0.061579306 -0.011674184 -0.03890649 -0.01879389 -0.026694782
0.10571078 -0.05186149 0.018398913 -0.0004261881 -0.013904553 0.055921115 0.061531015 -0.06759901
-0.008980761 -0.01700577 -0.012250749 -0.05656601 -0.043136645 0.019508263 -0.037646543 0.013529733
-0.046109024 0.08064101 -0.04460331 0.01687886 -0.0032273352 -0.016457552 -0.03270816 -0.018590271
0.0004512951 0.004054726 -0.046092268 0.019343823 0.050800834 0.045990385 0.0023819348 -0.05110191
0.003636521 0.07117238 0.07018633 0.0006665776 0.0025883708 -0.05626894 0.0036224157 -0.01687283
0.015341945 -0.03241418 0.017699743 0.08382185 -0.056292087 -0.05558907 0.008160695 -0.03937228
-0.045851525 0.0065700766 -0.01742625 0.0025472469 -0.04817654 0.012892237 0.05322772 -0.03801353
0.040058423 0.016752727 -0.021379694 -0.035198677 -0.029844057 -0.027425902 -0.0449046 0.06101759
0.014232132 -0.030060729 -0.002092106 -0.042526644 -0.050587106 0.004574122 -0.017049665 0.031030703
-0.027239941 -0.039669916 0.044250537 -0.03163375 -0.0069905175 0.0128673725 0.020875692 -0.011577148
0.003913679 -0.0013366811 0.0049940543 -0.0047275946 -0.020813499 0.041866172 -0.061350428 -0.015184364
0.010533208 0.059699614 0.050106574 0.0008217587 0.04292051 0.034410696 0.069700904 -0.009358233
-0.048464708 -0.007938051 0.042894892 -0.021954084 0.057621296 0.020468485 0.011526704 -0.0028647147
-0.014118955 0.014432511 -0.025613159 0.012393327 0.045169465 -0.019309947 0.011638388 -0.0020768829
-0.010057448 -0.05221361 -0.0063223345 -0.017687945 -0.031490684 0.07513452 0.014163899 0.018422076
0.01354293 -0.067844905 -0.003618891 -0.033269398 0.009010645 -0.070284136 0.0500463 0.002755378
0.057858974 0.010373904 -0.03837299 -0.08157048 -0.003018139 0.025974886 0.027897047 0.010701343
0.07641719 0.014627148 0.005379798 -0.021394927 0.0048857327 0.031873226 -0.038840458 0.02453224
0.0009390833 -0.044138033 0.017919973 0.0052507124 -0.005389326 -0.01537978 0.051558655 0.03282118
0.0027483932 0.00843857 0.0012658294 -0.024290314 -0.015102574 -0.044652637 0.040744714 0.028255792
0.012515091 -0.035851117 -0.05783333 -0.05611519 -0.034440618 0.012183383 -0.030671936 -0.0024479711
0.0025676535 0.018415302 -0.0050787483 0.0024895766 0.07208803 -0.012349089 -0.0014950285 -0.020120326
-0.032225437 -0.014417219 -0.04083154 -0.0021786937 0.05369475 -0.010623657 -0.0012766282 0.0061521414
-0.0010847268 0.05656294 0.00871668 0.06646034 -0.02987334 0.00066869357 -0.056840695 -0.051338244
