Models/dual_nn_model_new.pth (torch, 254925 bytes, 11 tensors)

conv.weight f4 [32, 1, 3, 3]
000000 64 7a 8d 3e 5b ff bf 3e ff f9 bc 3d 02 74 10 be
       0.2763244 0.37499508 0.092273705 -0.14106753
000010 9a 56 81 3e 7a 2e bf 3e ea db da 3b cb 21 ad 3e
       0.25261384 0.37340146 0.006679048 0.33814844
000020 ce 6f 9f bc 8b 0c 57 3e ba 23 b6 be a7 3d 68 be
       -0.019462492 0.21000879 -0.35574132 -0.22679769
000030 88 21 f0 bd d5 35 13 be d3 f4 a9 3e f3 2c 19 3e
       -0.117251456 -0.14376004 0.331946 0.14958553
000040 c8 20 89 be 19 80 b1 bd 21 2a 85 3e 1d 97 cf bc
       -0.26782823 -0.08667011 0.26008704 -0.025340611
000050 d0 cc f8 bd b3 8a c1 3e cf 97 64 3e 1b 3e 83 bd
       -0.1214844 0.37801132 0.22323535 -0.0640833
000060 d6 5e 4f be cc 3a 00 3e 0b be 1b be 94 af 36 bd
       -0.20251021 0.12522429 -0.15209214 -0.044601038
000070 08 64 c9 3d a5 e5 d1 3d ce 31 cb 3c e1 23 97 be
       0.098335326 0.10248879 0.024804022 -0.2951956
000080 3c 57 2c 3d 83 a2 78 be b7 5f 85 be 2a c2 64 3e
       0.04207538 -0.24280743 -0.26049587 0.22339693
000090 72 45 30 3e c5 22 1e 3e 8f 3c 19 3e e4 e7 10 3e
       0.17213991 0.15442951 0.14964508 0.14150959
0000a0 10 ea 6c 3e 6b cc a9 bd 36 1f fa 3d 54 cd c9 bd
       0.23136163 -0.08290943 0.12212984 -0.09853616
0000b0 8c 1e 98 3d 68 eb 15 3e 30 2d 94 3e 2d 60 09 be
       0.07427701 0.14640582 0.28940725 -0.13415594
0000c0 f6 d6 1b bb d4 95 0a 3d 7d 0e 4d bd e3 4d 27 be
       -0.002377925 0.033834293 -0.050062645 -0.16338305
0000d0 3a 31 81 3e a4 49 cc 3d 7d cf dd bd 8e 0f 5d bd
       0.2523287 0.09974983 -0.10830591 -0.053969912
0000e0 87 9f 40 3d 43 83 91 3e 2e 28 33 3d 1e e2 0d 3e
       0.047027137 0.28420457 0.04373949 0.13855788
0000f0 bd d1 53 3e 3f 5e 53 be 60 18 07 3e d8 eb 87 be
       0.20685478 -0.20641421 0.13192892 -0.26547122
000100 e6 36 e3 bd 7a 26 70 be 07 46 3c be 4c 1b 7a be
       -0.110944554 -0.23452178 -0.18386088 -0.24424475
000110 60 bb 7d be 14 1b 81 be 62 bd 60 be 8f ed bd 3c
       -0.24778509 -0.2521597 -0.21947244 0.023184566
000120 55 18 44 3e 13 4d ad 3e b8 8b 17 bd 20 bf 9f 3d
       0.19149907 0.33847865 -0.03699848 0.07800126
000130 73 c8 9d bd d5 fd 7c be 93 ec a6 bd bb ac ac 3e
       -0.07704248 -0.24706204 -0.08150592 0.33725533
000140 0f b9 9f bd e5 ae a3 3e 5f 9e 85 3e c4 7c a3 3e
       -0.07798969 0.3196937 0.2609739 0.31931126
000150 86 4d 98 3e 13 2b 84 bd 8e 61 65 3e a4 64 8a 3e
       0.29746646 -0.06453528 0.22400495 0.27029908
000160 72 26 3d 3e 6a f6 53 3d 2d 5a c5 3e 65 8a a4 3e
       0.18471697 0.05174867 0.3854536 0.32136837
000170 f4 b9 9e 3e 01 8a a6 3e bf 93 4b 3e 5e 62 67 3e
       0.31001246 0.32527164 0.1988058 0.22596118
000180 78 7f 72 bd 83 ca 94 3e a0 00 c5 3e 83 33 7d be
       -0.059203595 0.29060754 0.3847704 -0.24726681
000190 34 d7 9f be 4d 6f 60 be 6b 4c 9f be a3 ba 1a 3e
       -0.31218874 -0.21917458 -0.3111299 0.15110259
0001a0 2b d0 8b be 6d 63 60 be bc 53 9c be d4 0b 7a be
       -0.27307257 -0.21912928 -0.30532634 -0.24418575
0001b0 50 22 cd 3e bf 4c 5a 3e 00 55 93 3e b2 2f aa 3e
       0.4006524 0.21318339 0.28775787 0.33239514
0001c0 6d 4b ae 3e e7 b9 80 3e 40 80 97 3e 8a aa be 3e
       0.3404192 0.25141832 0.29590034 0.37239486
0001d0 be e9 60 3e 43 dc 12 3e 1d 27 1e 3e 53 46 92 bc
       0.21964166 0.14341836 0.15444608 -0.017855799
0001e0 3b 4c 5e be ca 8f 45 be ea c2 37 be 94 00 83 3d
       -0.21708767 -0.19293132 -0.17945448 0.06396595
0001f0 4d 24 34 3e 61 99 3b 3e 71 0e 82 bd 8f d1 85 be
       0.17591973 0.18320228 -0.06350411 -0.26136443
000200 18 b0 68 be e3 8b 13 bd 35 65 83 be ff 73 51 3d
       -0.22723424 -0.03602208 -0.25663152 0.051136013
000210 0a 9e bb 3d f5 13 a2 be a3 cc ee 3c 27 a0 69 be
       0.09161003 -0.3165585 0.029150313 -0.22815
000220 80 62 55 3e 6a 09 db 3d 37 92 8f bc 1e 02 78 3e
       0.20838356 0.10695155 -0.017525775 0.24219558
000230 6d e6 cb 3d ff 62 5f 3e 0f 5f a3 3e e9 b9 bb bd
       0.099560596 0.21815108 0.3190846 -0.09166319
000240 75 74 a1 bd 19 70 fd bb 60 dd 1d 3e 7d 2f b7 3e
       -0.078835405 -0.0077343103 0.15416479 0.35778418
000250 e2 95 b1 3e 8e 83 8c 3e 0b 5b 38 be b5 b2 5f 3e
       0.34684664 0.27444118 -0.1800348 0.21845515
000260 14 7c 5e 3e a2 df 94 be 1e 53 df 3d 29 e4 b5 be
       0.2172702 -0.29076868 0.10904525 -0.35525635
000270 0b 08 55 be bc 42 d1 be ae 7f 45 3e 00 8f 8c be
       -0.2080385 -0.40871227 0.19286987 -0.2745285
000280 3f ad d4 be 5d 88 bf be b8 dd 35 3c 0b 23 b2 3e
       -0.41538426 -0.37408724 0.011100225 0.3479236
000290 4d ac 57 3e 76 6b ab 3e cc f7 19 3b a8 2c 9d bd
       0.21061821 0.33480424 0.0023493646 -0.07674533
0002a0 3d 4a 31 3e ce 26 a0 3e dd 82 6a 3e d3 08 1c 3d
       0.17313476 0.31279606 0.22901483 0.038094353
0002b0 67 93 c4 3d 1e 2d 07 be 1f f7 82 be dc 7e a3 3b
       0.09598427 -0.13200805 -0.25579163 0.004989488
0002c0 bb d1 01 be 54 92 bf bd b1 f0 8f be 63 08 8c be
       -0.12677662 -0.09354082 -0.2811332 -0.2735015
0002d0 48 7a 13 3e 44 fb c5 3d 10 f7 72 3e 77 8f b2 3d
       0.14402115 0.09667066 0.2372706 0.0871877
0002e0 f2 f1 2d 3e 75 db ed 3d ea 98 c2 3d 55 f0 f7 3d
       0.16986826 0.11614124 0.09501822 0.121063866
0002f0 96 ab 54 3e 66 84 c8 3d 75 56 4e bc b0 79 e9 bd
       0.2076858 0.09790878 -0.012593855 -0.11400163
000300 f8 9e 63 3e 9b fe e1 3d 01 fd 67 bd 59 17 79 3e
       0.2222861 0.1103489 -0.056637768 0.24325313
000310 2c ad 22 bc 0f d2 80 3d 26 70 b0 3e 74 80 8b 3e
       -0.009928983 0.062900655 0.34460562 0.2724644
000320 69 81 ba bd 30 b6 24 3e 1f 1b 60 bd 7d db 04 be
       -0.09106714 0.16085124 -0.054713365 -0.12974353
000330 dc 8e 01 3e 99 22 85 3e 05 37 76 3e 4d 70 6e 3c
       0.12652153 0.26002958 0.24044426 0.014553142
000340 12 08 88 3e 00 6f a2 bd db 6c 8a 3e 9b bd b6 3e
       0.26568657 -0.07931328 0.27036175 0.35691532
000350 38 2c 68 3e e6 47 f4 3d 50 4d 60 3e 3e ff 8b 3e
       0.22673118 0.11927776 0.21904492 0.27343172
000360 e1 ad 31 3e 03 d7 52 3e 51 d2 97 bd 84 6a b3 3d
       0.17351486 0.20589833 -0.074131615 0.087605506
000370 0c ba 54 be f3 2d f8 bd 24 7f 89 bd b3 21 8e 3e
       -0.20774096 -0.12118139 -0.06713703 0.27760085
000380 d1 ed dc bc ab 4b 8d be 70 f0 95 be 70 b6 a9 bd
       -0.026968868 -0.27596793 -0.29285002 -0.0828675
000390 3e d9 93 3d 67 09 5d be d0 b0 b3 3e 93 1c 9c 3e
       0.0721917 -0.21585618 0.35095835 0.3049055
0003a0 4c 0e c3 3c 8a 08 ed bd 32 8e 59 bd 34 a5 86 3e
       0.023810528 -0.11573894 -0.053114124 0.26297915
0003b0 48 9d 06 3e 06 eb 20 3e ca 70 cb 3c f1 74 fe bd
       0.13145936 0.15714654 0.024834055 -0.124246486
0003c0 a7 f3 9f 3c 46 ea 48 3e d0 58 2b 3d 83 8f 20 3e
       0.019525362 0.19620618 0.041832745 0.15679745
0003d0 ea 5c 78 3e e8 dc 4a 3e 2b 95 84 3e f9 aa 19 bd
       0.24254194 0.19810832 0.25895056 -0.037516568
0003e0 70 f0 9f 3c 7a bd f1 3d dc 34 ac 3e 57 47 fd 3c
       0.01952383 0.11803718 0.33634079 0.030917807
0003f0 78 bb b2 bd 05 b7 d3 bd 9a 97 3e bc 3a 0e ce be
       -0.08727163 -0.103376426 -0.011632824 -0.4024523

conv.bias f4 [32]
000000 f6 19 17 be 90 4a 5b be 54 5d 99 be f2 2e ff 3d
       -0.14755997 -0.21415162 -0.29954016 0.12460126
000010 72 e4 de bc e7 0f 06 be 80 d0 78 be 8b 2e 08 3e
       -0.02720854 -0.13092004 -0.24298286 0.13299005
000020 03 5e 80 be 8f c5 5c bd f0 dc ef 3d fd 76 d6 bd
       -0.25071725 -0.053899344 0.11712062 -0.10471914
000030 d4 83 5e 3e ce c0 dc 3d 5a d0 04 bd f6 c3 b3 be
       0.21729976 0.10778962 -0.032425262 -0.35110444
000040 d0 8a 9d be 0e f8 5e be 69 7d 55 bd ca 80 ec 3d
       -0.30769968 -0.21774313 -0.052121554 0.11548002
000050 d9 91 03 bd 76 23 61 bd 46 ea 28 be 5f 49 53 3d
       -0.032121513 -0.05496546 -0.16495618 0.051583644
000060 94 3f 17 3e f2 fa 35 be 2a 25 29 3c ec 92 e6 3d
       0.14770347 -0.1777151 0.010323802 0.11258492
000070 52 d1 21 be 9b 6d 1f 3e 4c 72 3b be 20 7c c2 bd
       -0.15802506 0.15569155 -0.1830532 -0.09496331

fc1.weight f4 [64, 288]
000000 d5 7f ef 3c de b7 11 3c 21 7d 18 bd 2c ce 44 bd
       0.02923576 0.008893935 -0.037228707 -0.048048183
000010 f0 c0 bd bc a2 26 7e bd e8 3e a2 bc b5 70 35 bd
       -0.023163289 -0.062048562 -0.019805387 -0.04429694
000020 d4 07 64 bc f2 15 32 bd 0c 62 94 bd 49 f9 ad 3c
       -0.013917882 -0.04347796 -0.072452635 0.021237032
000030 55 ee c0 3c b0 7e a3 bc db bf 2c 3d d5 5d 63 bd
       0.023551146 -0.01995787 0.042175155 -0.055509407
000040 8c 82 82 bd e0 fd f9 3c 61 cc d5 3c ae 94 90 bc
       -0.06372556 0.030516565 0.026098432 -0.017649021
000050 ce 8f 43 bc af b0 8f 3c 28 a8 93 bd e6 ca 48 bd
       -0.011936141 0.017540304 -0.07209808 -0.049021624
000060 5e 30 8d bc eb 4f 97 3c d7 42 2a 3d 57 e8 76 bd
       -0.017234977 0.018470725 0.04156765 -0.06028017
000070 7d 28 e3 bc ca 7d 27 3d 2d 39 81 bd ea 4f 7a bd
       -0.027729267 0.040891446 -0.063097335 -0.06111137
000080 eb 43 60 bd e5 d2 8c bd ed 52 38 bd 0b 64 7e bd
       -0.05475227 -0.068761624 -0.04500096 -0.062107127
000090 c6 0b 80 bd ba 3d de bc 3f e8 91 bd 41 c1 c9 3c
       -0.062522456 -0.027129043 -0.071243756 0.024628283
0000a0 ef d7 76 bc 3d 96 85 bd e6 50 8e 3c 3c 0d 96 bd
       -0.015066131 -0.06522796 0.01737256 -0.07326743
0000b0 ba 0f 31 3b 54 46 87 bb ba 10 a1 bc 18 be 41 bc
       0.002701743 -0.004128257 -0.019661296 -0.011825107
0000c0 21 18 92 bd d6 7b a8 3c b9 6d 4a 3c 56 0b 1e 3d
       -0.071335085 0.020566862 0.0123552615 0.03858503
0000d0 d2 ff 63 bd ee 67 1b 3d ad d5 30 bc e7 eb e2 bc
       -0.05566389 0.037940912 -0.010793132 -0.027700378
0000e0 13 0a f7 3b 91 e7 67 3c 43 6d 28 3c 23 2b 07 bd
       0.0075390427 0.014154331 0.010279956 -0.033000123
0000f0 16 24 4e bd 39 31 6d bd d7 1c 1c bc 5c 16 40 bd
       -0.050327383 -0.05790827 -0.00952836 -0.046896324
000100 3d fa 3e bd a9 9f 1d bd dc 39 88 bd 1b 75 12 bd
       -0.046625365 -0.038482342 -0.06651661 -0.03575621
000110 e5 cf fd bc 1c 0b 6b bd 4a 36 af 3c 24 12 4e bd
       -0.03098292 -0.05738364 0.021388192 -0.05031027
000120 3d d0 0a bd 75 d3 00 bd 6a 14 29 bc 10 66 db bc
       -0.033889998 -0.03145166 -0.0103198085 -0.026782066
000130 39 7e d4 bc 24 54 13 bc 6a 4c 2f bd f8 22 1f 3c
       -0.025939094 -0.008992229 -0.042797484 0.009712927
000140 04 5d 03 3c 4c 6f b0 bc 02 8f b4 bc 24 e7 5a bd
       0.008017782 -0.021537445 -0.022040848 -0.05344309
000150 6d 94 c8 bc 7e cd 07 3b a4 bb 15 3d c3 81 29 3b
       -0.024484837 0.0020721848 0.0365559 0.0025864698
000160 d0 e5 90 3c 31 61 cd bc f4 9a 03 3d 7a 72 e7 bc
       0.017687708 -0.025070759 0.032130197 -0.028252829
000170 2a e2 0a bd 66 36 8b 3c 45 eb e1 bc bd e6 fa bc
       -0.033907093 0.016993713 -0.027578006 -0.030627603
000180 4b 0e e1 3a 10 91 6e bd 7a b0 53 3c 35 46 f5 bc
       0.0017170397 -0.05824381 0.012920493 -0.029940704
000190 a6 f5 5d bd fc a0 5d 3c 6a b1 46 3c ea 32 f3 bc
       -0.054189347 0.013527151 0.01212726 -0.029687364
0001a0 65 7d 80 bd aa ee cd 3c da 15 0f bd c8 cc b2 bd
       -0.06273917 0.025138218 -0.03493295 -0.08730465
0001b0 d9 7e dc bc 4f 3f d8 3b 0d 64 bc bc cc b8 98 bd
       -0.026915954 0.006599344 -0.022996927 -0.07457122
0001c0 3b 36 82 bd fd bd c8 bc 0f 16 9a bd e0 e4 30 bd
       -0.06358 -0.024504656 -0.075237386 -0.043187022
0001d0 98 0d 87 bd 82 e8 93 bd 6b 9b 45 3c d2 6a dd bc
       -0.0659439 -0.07222082 0.01206098 -0.027028475
0001e0 d8 83 10 bd 35 33 8f bd 8c 1e f5 bc 3a 5c f4 ba
       -0.035281986 -0.06992189 -0.029921792 -0.0018643208
0001f0 b7 30 cc bc 50 7b 9c 3b cb e5 8c bd ff 08 21 bd
       -0.024925573 0.004775442 -0.06879767 -0.03931522
000200 11 32 96 3b cc 42 57 bd f9 87 bd bc b0 70 3e 3c
       0.004583605 -0.052553937 -0.023136126 0.0116235465
000210 18 4d 9b bc d3 82 b1 bc 4a 66 f5 3b a9 5f 06 3d
       -0.01895766 -0.021668827 0.0074890004 0.032806072
000220 82 ae 82 bb ab eb 08 3d b0 dd 0c 3d a0 bc b5 bb
       -0.003988088 0.033427875 0.034391105 -0.0055461675
000230 ea 63 0e bc 8c a5 c1 bc 30 f6 a6 b8 17 25 14 3d
       -0.008690814 -0.02363851 -7.961353e-05 0.036168184
000240 b3 29 94 bd ea 58 b7 3b 33 23 6e bd da 8a 03 3d
       -0.07234516 0.005595316 -0.058139037 0.03211484
000250 4a 11 89 bc 99 57 82 bd e6 55 83 bd 0c fc ba 3c
       -0.016731877 -0.06364364 -0.06412868 0.022825263
000260 2b ef 6f bd 6e ce 04 3d c0 63 89 bd 10 22 92 3d
       -0.058577698 0.03242343 -0.06708479 0.07135403
000270 1d 40 48 bd 07 72 4c 3c d6 68 08 3b 84 a4 ba 3c
       -0.04888927 0.012478358 0.002081444 0.022783525
000280 a5 45 55 bd 42 2b 99 3c ce ca 7d bd 25 b3 56 bd
       -0.05206837 0.018697385 -0.061960988 -0.05241694
000290 46 12 94 bd ea ba 54 bc 54 dd c6 3c f6 a3 a4 bd
       -0.07230048 -0.012984017 0.02427546 -0.080390856
0002a0 1e d9 83 bc 1b 88 37 bc 20 d3 96 3c 51 10 c5 bc
       -0.01609474 -0.011201884 0.01841122 -0.024055632
0002b0 65 40 2d bd 2c e5 76 bd bc cd e5 ba 0d fc df 3c
       -0.04229774 -0.06027715 -0.0017532627 0.027341867
0002c0 9d a4 00 3d 3b 2e 58 bd fc 0f 90 bd 38 b6 8f bb
       0.031406987 -0.052778464 -0.07034299 -0.004385736
0002d0 6f 8c a4 3c cc 18 2d bd ca a7 ef bc 9d 43 94 bd
       0.020086495 -0.042259976 -0.029254813 -0.07239459
0002e0 75 4c 19 3c 76 e1 01 bb 4d 5e 7f bd 0a 8a 33 bc
       0.009356608 -0.0019818223 -0.06234579 -0.010958204
0002f0 c4 79 a1 bb 22 58 1b 3d 1f 8f 08 3d 6b 80 de bc
       -0.0049278457 0.037925847 0.033339616 -0.027160844
000300 94 78 aa bc 6e e9 03 bd d0 b0 53 bd 15 29 53 bb
       -0.02080945 -0.032205038 -0.051682293 -0.0032220532
000310 1a 7b 19 bc a0 26 ce bc 81 ef 00 3d 10 ef 0f 3d
       -0.009367729 -0.025164902 0.03147841 0.035140097
000320 9f 8c b6 3c 5d 0a 89 bd 84 0f 4b 3b e3 aa 7d bd
       0.02228385 -0.0669143 0.003098459 -0.06193055
000330 98 c8 8f bd 02 17 ee bc bc 7b 55 bd 2d e1 94 bc
       -0.07020682 -0.029063705 -0.052119955 -0.018173778
000340 32 32 38 3c cf 10 15 3d ce fe 99 bd 3a 92 27 3c
       0.011242436 0.036392983 -0.07519303 0.010227734
000350 ae 18 9d bb 5b b4 87 bc 6e 64 07 bd 82 7b 8b 3c
       -0.004794202 -0.016565492 -0.03305476 0.017026667
000360 31 96 35 bd 69 ba 9c 3c c2 98 0e bd b1 f1 32 3d
       -0.044332687 0.019131856 -0.03481365 0.043687526
000370 fd ad 70 bd de 34 84 bb 24 78 91 3c ae 5e 12 3d
       -0.05875968 -0.0040346226 0.017757483 0.035734825
000380 41 32 82 bd 6b 74 b8 3c f6 da 47 bc 00 5e 16 3d
       -0.063572414 0.02251645 -0.0121982 0.03671074
000390 ff d6 86 3c 1e a3 00 3c e6 da 65 bd a8 0c 88 bd
       0.01645994 0.00785139 -0.05611696 -0.06643039
0003a0 48 32 de bb 39 5d d1 3c 10 73 3b bd 33 c2 66 bd
       -0.0067808963 0.025557147 -0.04576403 -0.056337547
0003b0 37 23 7b bd 7a 7b 40 bd fa 14 b2 bd 94 23 0d 3d
       -0.06131288 -0.046992756 -0.08695407 0.034457758
0003c0 11 3e 55 3c 9c a4 f6 bc 2a 38 93 bc e4 4f 89 bd
       0.013015286 -0.030107789 -0.017971117 -0.06704691
0003d0 62 b0 86 bc 94 e6 c3 bc 0a 35 19 ba 98 1d f6 bc
       -0.016441528 -0.02391366 -0.000584439 -0.030043408
0003e0 67 fc 5c bd 66 be 4a bd 3e cc 07 bd af 56 28 bd
       -0.053951647 -0.049497984 -0.033153765 -0.041098293
0003f0 a0 0f ba 38 c3 52 f4 3c 73 67 90 bc 2d 14 d6 3c
       8.8720815e-05 0.02982462 -0.017627453 0.026132667

fc1.bias f4 [64]
000000 a4 a4 1e bd 17 f9 25 bc 24 19 e1 bc 7e 16 7e bd
       -0.038731232 -0.010130188 -0.027477808 -0.06203317
000010 a9 fa 2c bc e5 fa 8c bd af 8e c2 bd 9f 7d ad bc
       -0.010557809 -0.06883792 -0.09499871 -0.021178065
000020 cd 42 94 bd 95 ba 3e bd 4a ff a6 bd 95 54 a4 bd
       -0.07239304 -0.046564657 -0.08154161 -0.08023945
000030 fd 9e 52 bd 2c cd 67 bd f0 e1 ff 3b 1b 3f 6a bd
       -0.051421154 -0.05659215 0.0078089163 -0.05718909
000040 e0 a0 8e bc 09 ba 0a bc 98 fe 8a bd 08 3e 82 bc
       -0.017410696 -0.008467206 -0.06786841 -0.01589872
000050 aa 37 54 bd 3d 00 a0 bd 71 a9 43 bd e5 5c 2a bd
       -0.051810898 -0.078125454 -0.047769014 -0.041592497
000060 c6 25 09 bd 34 bd 45 3b 5c c1 80 3c d1 a8 d8 bc
       -0.03348329 0.0030172588 0.015717201 -0.026447685
000070 77 58 02 bd 92 c0 8e 3b 92 df 90 bd 3a e2 78 bc
       -0.031822648 0.0043564523 -0.07073893 -0.015190655
000080 d6 ff 35 bd 8b 90 27 bd c2 bb 1e bc 45 a1 37 bb
       -0.044433437 -0.04090933 -0.00968832 -0.0028019708
000090 d7 6f 93 bd 90 bb 0c 3d 28 2e 41 3c 79 85 b9 bd
       -0.07199066 0.03435856 0.01179079 -0.09058661
0000a0 e1 2b 3e 3c b6 80 93 ba d3 05 c5 bc e9 3c 0f bd
       0.011607141 -0.0011253569 -0.024050629 -0.034970198
0000b0 18 c5 c3 3a 02 aa 4c bd ab d9 04 bb 67 c9 9b bd
       0.0014936058 -0.04996682 -0.0020271342 -0.07606774
0000c0 c0 b3 07 bd 3d 14 8e bc 23 31 6d bd 1b 23 87 bd
       -0.033130407 -0.017343635 -0.05790819 -0.06598493
0000d0 4e 66 8c 3c 97 7a 89 bd 3d 49 90 bd 81 01 57 bd
       0.017138626 -0.06712835 -0.07045219 -0.05249167
0000e0 af 63 3d bd 92 83 7f 3c 26 92 5b 3c aa c8 46 bc
       -0.046237644 0.015595334 0.013401544 -0.012132803
0000f0 ab d1 13 bd d6 4b 85 bd 0c bd a7 bd a6 2e a6 bd
       -0.036088627 -0.06508605 -0.08190355 -0.08114366

fc2.weight f4 [128, 64]
000000 b8 49 d7 bd e6 d6 c9 bd a0 de 1c 3d 41 a9 15 be
       -0.105121076 -0.09855442 0.03829825 -0.14615346
000010 90 fe 19 3d 06 6e 17 be e9 83 b4 bd 27 c0 23 bd
       0.037596285 -0.14788064 -0.08814222 -0.039978173
000020 c0 a3 57 3d 16 d2 cb 3b 5c 55 3d 3b e3 c9 86 bd
       0.0526464 0.0062201126 0.002888999 -0.065814756
000030 0a 14 3c bd d2 df 50 bd 82 7d e3 bd fc f7 bf bb
       -0.04591755 -0.0509947 -0.11107923 -0.0058584195
000040 1f 8c 90 3d 15 a7 e1 bd a6 d3 7b 3d 17 37 18 bd
       0.07057976 -0.110181965 0.06148114 -0.037161913
000050 30 60 fb 3c 34 ac 2a ba f4 93 85 3c 68 72 8d 3c
       0.030685514 -0.00065106456 0.016305901 0.017266467
000060 98 01 ea bd 94 06 bc bd 0e 32 f5 3c 59 c7 b1 bd
       -0.11426085 -0.09180942 0.029931094 -0.08680601
000070 f6 c2 54 3d 97 d9 52 3c 5c 6e 9c bd 28 44 81 bd
       0.05194374 0.01286926 -0.07638237 -0.06311828
000080 b8 44 e6 bd df c6 1b be 42 c9 e0 bd 55 59 01 be
       -0.11243576 -0.15212582 -0.10975887 -0.12631734
000090 b0 35 04 3a 26 ac cf bd 52 a6 10 bd be cd 4d 3d
       0.00050434005 -0.101402566 -0.035314865 0.05024504
0000a0 46 01 1f be 87 15 0e be c7 9f d2 3c 55 8c b3 bd
       -0.1552783 -0.138754 0.025710953 -0.087670006
0000b0 d2 02 e8 bc d0 df b7 3d 3f 36 89 3c 6e 7d 49 3d
       -0.028321657 0.08978236 0.0167495 0.049191885
0000c0 c6 0c ea 3d d9 a3 bd bd 62 e7 ed bd a6 fa a8 3c
       0.114282176 -0.09259767 -0.116163984 0.020627331
0000d0 65 38 4d bd a6 84 03 bd c8 d7 92 3b aa ca 0f be
       -0.05010261 -0.032108925 0.0044812895 -0.14042154
0000e0 1a 19 e7 bd 6e ce 72 3d 81 f2 10 be 31 0f 41 3c
       -0.112840846 0.059278898 -0.14155008 0.011783407
0000f0 01 b2 d6 3d ca 77 e0 3d ad 3e de 3c 27 4d 80 3c
       0.1048317 0.10960348 0.027129496 0.01566179
000100 5d de 9f 3d 41 3c 27 be c3 7e 04 be c0 a9 a3 bd
       0.07806084 -0.16331579 -0.12938981 -0.079913616
000110 25 05 47 be 24 c9 21 be 62 9f 0d 3d a0 7a 1a bd
       -0.19435556 -0.15799385 0.034575827 -0.0377146
000120 f7 46 84 3d b2 da fe bd 1e ae ce bd 86 f6 a8 bc
       0.06458848 -0.124440566 -0.10091804 -0.020625364
000130 62 9a a6 3b 0e bb b9 bc 2d 58 ea 3d 5c 83 e4 3c
       0.005084322 -0.022672202 0.114425994 0.027894668
000140 63 15 be bd 1f 50 5a bd fc b7 ff bc c3 3e ff 3a
       -0.09281423 -0.053299066 -0.03121566 0.001947366
000150 3e 9c e6 bd 00 28 3f 3d ce 13 06 bb b9 bf 54 bd
       -0.112602696 0.046669006 -0.0020458582 -0.051940653
000160 80 98 11 bb 45 d1 1b 3d 8a 05 de 3b c3 1c 85 bd
       -0.0022216141 0.03804137 0.0067755627 -0.064996265
000170 90 3c d6 bd 3c be c5 3b b8 d4 bd bd 4a 14 05 be
       -0.1046077 0.0060346406 -0.092690885 -0.12996021
000180 ff bb cd 3d a2 2f f0 3b df 0d 71 bd 39 d8 3f bd
       0.10045623 0.007329897 -0.05885112 -0.046837065
000190 3a c1 40 3c ca 5c 5a bd 08 37 86 3c 47 64 82 3c
       0.011764819 -0.053311147 0.016383663 0.015916957
0001a0 df a8 99 bc 91 cf b2 bd d9 2c 68 3d af 65 96 bc
       -0.018757282 -0.087309964 0.056683395 -0.018359033
0001b0 28 30 a5 bd e9 3e 09 be a4 5c be bd a0 8e 21 3c
       -0.08065826 -0.13402905 -0.092950135 0.009860665
0001c0 e2 8c 35 3d cc cb 11 be bd 64 2b bc 7a 95 bd bc
       0.04432381 -0.14237899 -0.01046103 -0.023142565
0001d0 c5 44 b7 bc 71 65 89 bd 47 21 a2 3d 63 e8 a4 bd
       -0.022371659 -0.067088015 0.079165034 -0.08052137
0001e0 9d 3e 99 3a f0 7d 51 bd bc e4 6f bd d5 92 51 bd
       0.0011691634 -0.051145494 -0.058567747 -0.05116542
0001f0 57 be ad bd a9 51 a8 3d b2 79 f8 bd 8b 76 a2 bd
       -0.0848357 0.082187004 -0.121325865 -0.079327665
000200 83 97 72 3d b6 fd 15 3d e2 5f 1b be e2 54 01 3e
       0.059226524 0.03661891 -0.15173295 0.12630036
000210 30 53 fa bc ac 32 91 bd ec 90 a3 bb c5 23 c7 bc
       -0.030557245 -0.07089743 -0.0049916413 -0.024309048
000220 f8 73 a6 3d db b6 a2 3d 02 48 63 3c 6b 98 5d be
       0.08127588 0.07945033 0.0138721485 -0.21640174
000230 53 95 ef bd 85 26 0e be 64 6b 00 be 8b 58 42 3d
       -0.11698403 -0.13881882 -0.12540966 0.047447722
000240 08 1b 2e bd 17 33 7c bd de 7c c7 3d dc 5d 12 bd
       -0.042506248 -0.06157216 0.097406134 -0.035734043
000250 d1 09 2d be c4 e7 cd bd f8 53 a2 bd bc 13 d3 3d
       -0.16898276 -0.100539714 -0.07926172 0.103064984
000260 f4 94 9d bd 6a 6c 8c 3d 8b 3b 07 be 2f 27 0c be
       -0.07694426 0.06856616 -0.13206308 -0.13686822
000270 f2 7f 2a bc c0 91 b8 bc f4 2f 1e be 58 df 66 bc
       -0.010406481 -0.022530437 -0.1544798 -0.014091335
000280 32 9b f8 3c 7b 3b 31 bc 20 8e 03 be de fc 67 3c
       0.03034744 -0.010817404 -0.12847185 0.014159409
000290 36 c0 cc bc 76 8c 8a 3c 74 8e 11 bd 7c f7 96 3c
       -0.024993997 0.01691268 -0.035536245 0.018428557
0002a0 31 0c f5 bd c8 87 fd b9 ec ba c3 bd c0 dd 0b be
       -0.11965216 -0.00048357085 -0.09557137 -0.1365881
0002b0 44 21 1a be e8 8b 9f bc cf db 00 3d 08 91 91 3d
       -0.15051752 -0.019475892 0.031459626 0.07107741
0002c0 8b 9c 09 3d d4 a6 89 bd 30 38 5d bc c5 74 15 3c
       0.033596557 -0.06721273 -0.013502166 0.009122078
0002d0 69 3e 1f be 7b cf a3 bd de 93 83 bc b6 32 be bc
       -0.15551151 -0.07998558 -0.01606172 -0.02321754
0002e0 48 94 61 3d 68 24 41 3d 2d b3 27 be e3 d4 38 bd
       0.055073053 0.04715386 -0.16376944 -0.0451249
0002f0 22 38 13 bb ba 9c 06 be ab db 4d bc 4d ab e8 bd
       -0.0022463878 -0.13145724 -0.01256458 -0.11360798
000300 48 84 9c 3d 50 49 bd 3d 2f 49 9d bd 17 37 9d bd
       0.07642418 0.09242499 -0.07679974 -0.07676523
000310 b3 99 65 3d 05 77 3f bd 58 1f ab 3d 30 b6 31 3e
       0.056054782 -0.046744365 0.08355588 0.17354655
000320 8f 67 f8 bd a7 16 6e bd 57 94 10 bd 74 0d bb 3d
       -0.12129127 -0.05812707 -0.035297718 0.09133425
000330 36 53 8a 3d 56 10 9e 3d 58 b0 fe bc 6b 26 7d 3d
       0.067541525 0.077179596 -0.031089947 0.061804216
000340 b8 d5 10 be 76 5f 84 3a 5c c8 b4 3c 1e 9d 3e bd
       -0.14144027 0.001009925 0.022068195 -0.046536557
000350 9a 6b 75 3d 0d c6 13 3d cb 9b 27 3d a9 e1 ed bd
       0.05991707 0.036077548 0.04092006 -0.11615307
000360 74 bd 30 bd 1e 55 e4 bd ab 78 01 3d 93 fa 62 3d
       -0.043149427 -0.11149047 0.03160922 0.055414747
000370 38 d6 d4 bc 03 d0 22 3e 24 eb fc bd 45 0a 88 3d
       -0.025981054 0.15899663 -0.12349537 0.06642584
000380 01 56 e6 3d df 76 8b bd 95 4d ec bd 24 06 1a 3d
       0.11246873 -0.06809782 -0.11538235 0.037603512
000390 3d c3 c9 bd 7d 66 da 3c 50 66 2a 3d c1 4c c9 3d
       -0.09851692 0.026660198 0.04160148 0.09829093
0003a0 73 ca 0a 3d f3 82 9d 3b ac ff c9 bd 89 2b c2 3c
       0.033884477 0.00480687 -0.09863219 0.0237024
0003b0 c8 6e d3 ba dd 2d 76 bd d9 dc d0 3d ee d3 17 3d
       -0.0016131038 -0.060102332 0.10198373 0.037067346
0003c0 2b 12 eb 3a 66 47 86 3d be 1a ef 3d 5c 14 09 be
       0.0017934492 0.06556587 0.116750225 -0.13386673
0003d0 f8 f6 cb 3d 60 18 c4 bc 06 e7 93 bc 18 9d b5 3c
       0.09959215 -0.023937404 -0.018054496 0.022169635
0003e0 45 7f 8a 3d 43 37 d9 3d 94 17 25 be 53 b9 e9 bd
       0.06762556 0.106062435 -0.16122276 -0.11412301
0003f0 a1 ac 0a be f9 ea c1 bd 7d 64 1c be d5 96 14 bd
       -0.13542415 -0.094686456 -0.15272708 -0.036276657

fc2.bias f4 [128]
000000 df fe 3c be 37 2c d7 3d 8f ff ad bc ab 48 33 bd
       -0.184566 0.1050648 -0.021240024 -0.043770473
000010 0a 5f f8 bd 76 01 bb 3d 8c 20 19 be 56 d3 05 3d
       -0.12127502 0.09131138 -0.14953822 0.03267225
000020 76 79 f3 bc 4a 1f 1d bd 01 b6 88 3d 20 33 a3 bc
       -0.029721003 -0.038359918 0.066753395 -0.01992184
000030 57 4b 2d 3d a8 1f fe bc 5c e6 f3 bd 55 2c 92 bc
       0.042308178 -0.031020954 -0.11909172 -0.017843405
000040 19 89 a2 3d ea ca ed bd 20 39 1d bd 55 ad cd bd
       0.079363056 -0.116109684 -0.038384557 -0.10042826
000050 3d 4c 33 bd 8c ad c6 3d 34 d1 09 be e0 82 d8 3c
       -0.04377388 0.0970107 -0.13458711 0.026429594
000060 aa c7 60 3d 03 71 37 bd 5b ae bf 3d 6a 58 85 bc
       0.054877914 -0.04478551 0.093594275 -0.01627751
000070 da 1c 30 be 8e df 8f 3d 14 66 0c bd 37 b3 07 be
       -0.17198506 0.070250615 -0.034277037 -0.13251959
000080 97 ba 64 bd 6e d2 77 3d f2 dc a4 3d 4e 4f 12 bd
       -0.05584201 0.060503416 0.080499545 -0.035720162
000090 68 76 70 3d 60 60 fd 3c 7d c6 c6 3d 9c 4c b3 bd
       0.05870667 0.030929744 0.097058274 -0.087548465
0000a0 8e 18 bd 3d 39 8c a2 bd 09 c8 d2 3d b1 e1 12 bd
       0.09233199 -0.079369016 0.1029206 -0.035859767
0000b0 fa 16 a2 3d 12 87 6b bd 07 93 77 3d fe f7 ac bd
       0.07914539 -0.05750186 0.06044295 -0.08445738
0000c0 20 27 a1 3c e3 47 89 3d 42 d9 54 bd e6 24 3c bd
       0.019671977 0.067031644 -0.051965006 -0.045933627
0000d0 b1 6e 2f bd f2 2d 42 3d 46 6f 57 bd f9 3f 04 3e
       -0.042830173 0.047407098 -0.052596353 0.12915029
0000e0 b7 52 5a be 63 46 2b bd 9f 61 d9 3d f9 dc 43 be
       -0.21320616 -0.041815173 0.10614323 -0.19127263
0000f0 3c 5a 15 3e 32 f5 09 be 7d c9 86 bd cc c7 36 3d
       0.14585203 -0.13472441 -0.065813996 0.044624135
000100 02 04 0d bc c4 25 a4 3b 8e f1 80 bd 2a f6 cf 3d
       -0.008606913 0.005009385 -0.06296073 0.10154374
000110 98 47 01 3e e8 56 f4 3d 39 6a a5 3d 10 80 b4 bc
       0.12624967 0.119306386 0.08076901 -0.022033721
000120 07 d8 d7 3d 38 05 93 bd 67 6e a4 3d d4 d2 9e bd
       0.10539251 -0.0717873 0.0802887 -0.07755056
000130 b4 75 5d 3b b5 a6 b1 bd 55 87 82 bc 99 3e 5d bd
       0.003379208 -0.08674375 -0.015933672 -0.054014776
000140 8b db 85 3b fa db ee bc 30 cc 79 bc ac 33 82 bd
       0.0040850095 -0.029157627 -0.015246436 -0.06357512
000150 11 64 e9 3c 8a e9 8c bd a1 2d f3 3c 47 8c 87 bc
       0.028490098 -0.068804815 0.029684843 -0.016546382
000160 21 ca 81 3d 94 ab 32 be 32 49 08 3e 54 81 f3 bc
       0.06337381 -0.17448264 0.13309172 -0.029724754
000170 48 44 7f 3d 14 e4 ec bc 91 63 df bc 5c 38 22 bd
       0.062320977 -0.02891735 -0.027269157 -0.03960453
000180 a4 a0 20 bd f2 63 03 bd 0f 01 7c bd d2 ce b9 bd
       -0.0392157 -0.032077737 -0.061524447 -0.09072651
000190 1c b9 bf bc 40 de 91 3d 8c ff 8e bd 59 19 65 3d
       -0.023403697 0.07122469 -0.069823354 0.055932377
0001a0 33 d4 6e bd 8d 8f 00 be 75 ea e8 bc 66 4b 2b be
       -0.058307838 -0.1255476 -0.02843211 -0.16727981
0001b0 6c bf de bd 25 6f 36 be 2a 0c d5 3d 86 6e 1d be
       -0.108763546 -0.17815836 0.10402711 -0.15374193
0001c0 3f e1 e5 bd fc cc 23 3d 1c e6 71 3d c2 15 6e bd
       -0.11224603 0.03999041 0.05905734 -0.05812622
0001d0 0e 0b c4 bd 22 ab c1 3d 42 ee da 3c 4b 7b 9a 3d
       -0.09572421 0.09456469 0.026724938 0.075430475
0001e0 94 92 7d 3b d7 45 2f bd 8b f6 9e bd e1 66 2c bd
       0.0038692104 -0.042791214 -0.07761868 -0.0420903
0001f0 06 61 a0 3d 29 18 89 3c d4 d5 2d 3c 8e 12 b0 bd
       0.07831006 0.016735153 0.010610063 -0.08597289

fc3.weight f4 [256, 128]
000000 5b d4 36 3d 7c 5d 9f bd 05 b1 af 3d 22 34 cb 3d
       0.04463611 -0.077815026 0.08578686 0.09922053
000010 f4 0f 61 bd 5a 37 01 3d de b6 2e bd af ba 84 3d
       -0.054946855 0.031546928 -0.042654864 0.064809196
000020 25 5f 1e 3d a6 8b 98 3d 69 05 3b bd 9d a4 e2 3d
       0.038664956 0.07448511 -0.045659456 0.11066554
000030 99 e2 9a 3c 7d 1c 41 3e b5 76 5b 3d c1 6f ef 3d
       0.018906878 0.18858524 0.053580005 0.11691237
000040 47 6f 9b bd 1b ec 19 3d 70 56 21 bb 0b 8c ba 3d
       -0.07589584 0.037578683 -0.002461817 0.09108742
000050 b9 20 95 3d 25 06 2b 3d 6e 98 4e 3b b9 ed 63 3d
       0.07281632 0.041753907 0.003152396 0.055646632
000060 e3 40 e9 3c 8d 44 03 3e 56 05 5f 3d bc b2 05 3e
       0.028473323 0.12819119 0.054448448 0.13056463
000070 b6 e8 7a bd ba 4a bd bd 93 f6 c1 ba d9 13 fd bc
       -0.061257087 -0.092427686 -0.0014798216 -0.030893253
000080 6b 40 90 3d 85 a5 0d bc 49 f2 b7 3b 12 33 b3 3c
       0.07043537 -0.00864542 0.0056135994 0.021874938
000090 72 b5 ff 3c 4f ee a8 bc c3 32 02 3d 3f b5 fe bc
       0.03121445 -0.020621447 0.03178669 -0.031092284
0000a0 b9 66 30 bd af e6 0c bc a0 c7 90 3d 71 d0 cb 3d
       -0.043066714 -0.008599921 0.070693254 0.099518664
0000b0 a2 45 67 3d 32 12 18 3e 2d 90 13 bc f5 3a 8f bc
       0.05646289 0.14850691 -0.009006542 -0.017484168
0000c0 2c 88 cd 3d 50 6d cc b9 06 50 30 3e c9 b9 f2 3d
       0.10035738 -0.00038991356 0.17218027 0.11851842
0000d0 7e b9 b3 3d af 54 10 bd 9e a5 5f 3e 32 77 37 3d
       0.08775614 -0.03523701 0.21840522 0.044791408
0000e0 77 22 28 bd 9d c9 d8 3d f2 25 f6 3d 24 82 bc 3d
       -0.041048493 0.1058533 0.12018956 0.0920451
0000f0 93 39 ee bd f3 af 6d bd de b1 cc 3d 10 1e f0 3a
       -0.11632075 -0.058029126 0.09994863 0.0018319506
000100 db 68 b5 3d 9a 01 ae 3c 28 b2 59 bd 29 d0 e0 3d
       0.0885789 0.021240998 -0.05314842 0.109772034
000110 6b 49 10 bb 12 9e a3 bd d0 40 8c 3d 29 36 92 3d
       -0.0022016417 -0.07989134 0.068482995 0.071392365
000120 19 ad 7d bc 08 04 80 3d 2d 07 b1 bc df 3d 89 3d
       -0.015483164 0.06250769 -0.021609867 0.06701254
000130 f4 9a cd 3d c6 7a 1e 3d 07 c1 43 bd 65 1a 8a 3d
       0.100393206 0.038691305 -0.047791507 0.067433156
000140 50 f3 6d 3c dc 32 10 bd 19 ee 27 3d b5 b6 40 3d
       0.014523342 -0.035204753 0.040998552 0.047049243
000150 9b e1 64 3d 74 38 55 3b bd d7 c4 bd ba ae ea 3d
       0.055879217 0.003253487 -0.09611461 0.11459108
000160 b5 0a 7a bc be 04 d9 3a 5d aa aa 3c 46 75 81 3d
       -0.015261342 0.0016557199 0.020833189 0.06321196
000170 09 47 a2 3b bd c4 94 3d e1 05 1b 3e 89 2d 16 3e
       0.0049523157 0.07264087 0.15138961 0.14665808
000180 aa 27 ff 3d 16 14 80 3d 26 40 bf 3d 38 40 9e bb
       0.12458737 0.06253831 0.09338407 -0.004829433
000190 ca 64 a1 3d 67 bf 99 bd fd e9 c3 bc bc c1 92 3c
       0.07880552 -0.0750721 -0.023915285 0.017914645
0001a0 ed 6a 0a 3e b4 6a 2f 3d 35 50 5e bd 09 e4 1c bd
       0.13517351 0.04282637 -0.05427571 -0.03830341
0001b0 c0 20 e4 3d 9e 7a d3 3b 38 f6 b3 bc 9d 01 1c bd
       0.11139059 0.006453826 -0.021967992 -0.038087476
0001c0 ab e2 45 3d 59 3e 12 3d 4a f9 01 3c f3 96 c0 3d
       0.04831187 0.03570399 0.00793297 0.09403791
0001d0 04 c9 af bd 22 55 15 3c e6 ea a0 3d 22 e2 50 bd
       -0.085832626 0.0091145355 0.07857303 -0.050996907
0001e0 aa f5 3c 3c 08 5a 09 3e 8a 29 42 3d d2 df a6 3d
       0.01153318 0.1341325 0.047402896 0.08148159
0001f0 9f e3 cc 3c 64 1d 14 bc a2 ef d5 3c 97 c5 4d 3e
       0.025010882 -0.00904021 0.026115242 0.20094906
000200 bd 10 68 3c 98 8e b1 3d 7a cd 84 3d dc 24 3e bd
       0.014164147 0.08669776 0.06484504 -0.04642187
000210 f1 80 b9 3d fa dc db 3d 76 3a a5 3d a9 ca b7 bd
       0.09057797 0.10735507 0.08067791 -0.08974201
000220 17 31 e1 3d 62 7c a0 3d 1a 6c fb 3d 03 68 b8 3d
       0.10995691 0.07836224 0.12276478 0.09004214
000230 3f 16 2b 3d 28 b5 79 bb 67 dc f1 3d 2a 39 28 3d
       0.041769262 -0.0038102362 0.118096165 0.04107014
000240 fa 80 87 3d 6f 2d 3b 3d cb b3 ce 3c 92 62 85 3d
       0.06616397 0.045697626 0.025232216 0.065129414
000250 52 17 0a 3c b8 8d 4b 3c 0e ed 76 bd 3a ba 2c 3d
       0.008428412 0.012423925 -0.060284667 0.042169787
000260 1d 09 09 3d ea 1f 80 3d 1d dd 88 3c c0 c3 95 bd
       0.033455957 0.06256087 0.016706998 -0.07312727
000270 c1 68 99 3d 19 89 0e 3e c4 ab 19 bd b0 06 bd 3d
       0.07490683 0.13919486 -0.037517324 0.09229791
000280 0a 25 9e bd f2 55 a3 3d 49 70 97 3d 6c d1 01 3e
       -0.077219084 0.07975377 0.073944636 0.12677544
000290 79 89 39 bd 34 7c b7 3d 44 55 ce 3d 84 ac 76 3d
       -0.04529712 0.08959237 0.10074857 0.060223117
0002a0 d0 fd 8d 3d ff 70 a6 3d 66 84 91 bd d4 d7 53 3b
       0.069331765 0.08127021 -0.07105331 0.0032324689
0002b0 3c fc 3b 3d 8f da 8a 3d 2c 1a 14 bd c0 a2 55 b8
       0.045894846 0.06779968 -0.036157772 -5.093473e-05
0002c0 a3 da 99 bd d5 a5 13 3e e9 3d dc bd 11 94 0e bd
       -0.07512405 0.14418729 -0.10753996 -0.034809176
0002d0 70 3d a7 bc cc d6 8c 3d 67 11 a6 bd 5d 22 34 3e
       -0.020415038 0.06876907 -0.08108788 0.17591234
0002e0 4e 25 a2 bc 39 51 99 bd 5a 36 d6 3b 6c 04 5c bd
       -0.019793179 -0.07486195 0.006537241 -0.053715155
0002f0 12 c6 26 3e ce 0a 89 3d 20 27 b3 bd d8 66 03 3e
       0.16286495 0.06691514 -0.08747697 0.128322
000300 37 2c 0f 3e 17 af 58 bd e7 a9 55 bd 13 bf 44 3c
       0.1398171 -0.052901354 -0.052163985 0.012008446
000310 17 b0 27 3e 0c 77 19 3e 2a 77 f2 3b 1e 27 69 bb
       0.16375767 0.14986819 0.0073994594 -0.0035576294
000320 86 0a 83 3d b3 c4 98 3d 47 71 44 bd 21 ee 98 bd
       0.063984916 0.074593924 -0.047959592 -0.074672945
000330 13 94 b3 bd 36 f5 91 3d f4 61 a9 3d fb 04 bf bd
       -0.08768477 0.071268484 0.08270636 -0.09327122
000340 46 f5 c0 3d eb 45 f5 3d 0f 5c 19 bd f8 62 a8 3d
       0.09421782 0.119762264 -0.03744131 0.08222002
000350 dd ef 18 3d 8f a0 5a 3d 9e ac 72 bc 90 fe 27 3c
       0.037338126 0.053375777 -0.014811663 0.0102535635
000360 56 63 81 bd 87 32 66 bd 77 a6 2a 3e 78 d8 6d 3c
       -0.06317775 -0.05620053 0.16665064 0.014516942
000370 ef e4 0e 3d a1 bf d2 3c 26 a3 ff bd 5e da 84 bd
       0.034886297 0.025726141 -0.1248229 -0.06486963
000380 c9 fa 93 3d e9 03 5c bd 03 e2 e7 bd be 21 77 3d
       0.07225568 -0.053714667 -0.11322405 0.060334913
000390 cc ec 97 bd cb 69 24 3d 04 42 cc bc dd 12 b6 bd
       -0.07418212 0.040139955 -0.024933822 -0.08890317
0003a0 4e 10 d5 bd af 9f 9d 3d a1 07 ef 3c 2e 00 7d 3d
       -0.104035005 0.07696473 0.029178442 0.06176775
0003b0 d5 66 d1 3d 49 39 66 3d 70 e1 02 3e ea fd e3 3d
       0.10224692 0.056206975 0.1278131 0.11132415
0003c0 0e d1 07 3c a2 6f dd 3d 49 32 06 3e 93 7c 9f 3d
       0.008289589 0.10812308 0.1310512 0.077874325
0003d0 29 04 e2 3c 81 db ca 3d f8 62 ac bb 68 07 f2 3c
       0.027589874 0.09905148 -0.0052608214 0.029544547
0003e0 10 69 11 3d ed b8 17 3b 82 30 e5 3c f5 ce b7 bd
       0.035500586 0.0023150996 0.027977232 -0.08975021
0003f0 b5 5e d2 3d 8c a7 ba ba a1 f4 b9 3d 74 77 81 bd
       0.1027197 -0.0014240607 0.090798624 -0.06321612

fc3.bias f4 [256]
000000 c5 ed 56 bc 7e b3 ae 3d 39 3a 85 3d d4 68 d8 bb
       -0.013118212 0.08530329 0.06505246 -0.0066042934
000010 72 38 05 3e 67 55 83 3d 63 17 af bd ae e2 e8 3c
       0.13009813 0.064127736 -0.085493825 0.028428402
000020 b8 2c 9a 3d ba ac 80 bc b2 c1 0b 3e 7c 64 40 bd
       0.07528061 -0.015707362 0.13648108 -0.04697083
000030 ae cc 82 bd 4d 0c 5c 3d 10 e9 28 bd 85 a9 a9 bc
       -0.06386696 0.05372267 -0.04123789 -0.020710716
000040 80 9e b5 3d 71 85 60 bd 01 fd 6a 3c 5e 3d b7 3d
       0.08868122 -0.05481476 0.014342547 0.08947252
000050 85 9f 9a 3d 85 d8 59 3d 79 4c de bd 8a eb d5 3d
       0.07549957 0.053185005 -0.1085443 0.10445316
000060 82 c0 0b be 82 b1 06 3d 1e 17 db bd 7c 87 87 3d
       -0.13647655 0.03288413 -0.10697769 0.066176385
000070 19 c3 05 be 00 cf d7 3d f2 36 e4 bd ad fa a5 bd
       -0.13062705 0.10537529 -0.111432925 -0.08104453
000080 1a 3c 51 3c 02 05 6b bd a5 46 aa 3d 92 76 0c 3e
       0.012770677 -0.057377823 0.083142556 0.13717106
000090 da 3d 79 3d fb b9 73 bc c4 a2 cb 3d 5b b8 d0 3d
       0.060850002 -0.014875884 0.099431545 0.10191413
0000a0 63 6b 9a bd 11 fd c2 bd 7c b6 5d 3d 46 ce 21 3d
       -0.07540014 -0.09520925 0.05412911 0.03950336
0000b0 25 9f 1e 3c 37 80 5e 3d 79 05 fb 3c 68 24 41 bd
       0.009681498 0.054321494 0.030642258 -0.04715386
0000c0 50 af d8 3d a0 c7 26 3c 2e ce aa 3d 78 dc 76 3c
       0.10580313 0.01017943 0.08340107 0.015067212
0000d0 72 6a 6a 3d c9 05 af 3d 87 21 c9 3d 8b dd f1 3c
       0.05723042 0.08546025 0.09820848 0.029524585
0000e0 22 19 7f 3c bb 92 ae 3d a5 1f 85 3d f2 dc d6 3d
       0.015569957 0.0852408 0.06500176 0.10491361
0000f0 d8 ea 2c bd a8 7c db 3d 07 c8 d8 3c 70 a0 06 39
       -0.042216152 0.10717136 0.026462568 0.00012839003
000100 75 89 11 3d c2 0c 0a 3d 39 8b cc 3d 80 e1 da 3b
       0.03553148 0.033703573 0.09987492 0.0066797137
000110 88 a5 aa bd 10 76 0c 39 49 78 b8 bd 95 a3 dd bc
       -0.08332354 0.00013395422 -0.090073176 -0.027055541
000120 8d 6e cd 3d 00 4d 70 bd ba eb 2a bd fa f9 e5 bd
       0.100308515 -0.058667183 -0.041728713 -0.1122932
000130 50 13 2f bd cb 48 06 3e 44 45 07 be 6c 99 9b 3c
       -0.042743027 0.13113706 -0.13210016 0.018994056
000140 6d 14 3b bc 16 f7 ad bc 54 84 8c bc 47 23 2e bd
       -0.011418444 -0.021235984 -0.017152943 -0.04251411
000150 04 e6 47 bd 04 48 c7 bd 72 83 ce bc 28 43 14 bd
       -0.048803344 -0.09730533 -0.025209162 -0.036196858
000160 82 ea 83 3d 8e cf 58 3b 57 8e 72 bc cd b5 ef bc
       0.06441213 0.0033082697 -0.014804444 -0.029261494
000170 05 6d 87 3d da 71 1e be 6d 4c 1b 3d a7 be 9f 3c
       0.06612591 -0.15473118 0.037914682 0.01950009
000180 e1 4c e3 3d 7f 0b 85 bd c8 c8 e6 bd 5a a3 0a be
       0.11098648 -0.06496333 -0.11268765 -0.13538876
000190 ef 0e 58 3d 24 7b af bd 4d 81 6b 3c 40 7f 96 3d
       0.052748617 -0.08568409 0.014374089 0.0734849
0001a0 a9 e3 29 bd 5a e9 05 3e 4b df 2a bd c1 01 f3 bc
       -0.04147688 0.13077298 -0.041716855 -0.029663922
0001b0 ff 7c 94 3d 26 95 d9 3d cd cf 0a 3e bc 51 bd bd
       0.072504036 0.10624151 0.13555832 -0.09244105
0001c0 1d aa 8d 3d c7 02 c4 bd 55 e5 e7 bd 80 15 54 3d
       0.06917212 -0.09570842 -0.113230385 0.051778316
0001d0 66 ca 46 3d c4 d6 aa 3d d0 99 06 bb 5d 45 ad bd
       0.048532866 0.083417445 -0.0020538457 -0.084604956
0001e0 64 bf e5 bd 29 56 9e 3c f9 d9 c8 3d c6 dc 96 bc
       -0.112181455 0.019328194 0.098072 -0.01841582
0001f0 cf 1c f6 3d 97 1c 25 bc 69 6b ad 3d e2 84 5a bd
       0.120172136 -0.010077617 0.084677525 -0.053349383
000200 f8 5a 1b bd 10 2e 76 3d 37 ce f7 3b fc cd 8b 3c
       -0.03792855 0.060102522 0.0075624245 0.017065994
000210 c3 9f 8e bd 52 89 ba 3d 17 87 da bb 8d 98 21 3d
       -0.06964066 0.09108223 -0.006668936 0.039452124
000220 cf 7f fb bd c2 4f 74 3d 8e 1c ac 3d 9a 3c 9d 3d
       -0.12280237 0.059646375 0.08403884 0.076775745
000230 61 ad 0d 3e ff 49 1b bd a0 c7 8d bd 61 5d 52 bc
       0.1383567 -0.037912365 -0.06922841 -0.012839646
000240 f5 65 94 3d a7 9f b3 3d 0b 48 99 bb 36 ab 08 3e
       0.07246009 0.08770686 -0.0046777776 0.13346562
000250 49 69 53 bd d9 ab 23 3d 48 90 15 bd 85 40 e3 bd
       -0.05161408 0.03995881 -0.03651455 -0.110962905
000260 4d a6 04 be 6f ed 89 3d 68 9c 71 bd d6 67 58 bd
       -0.12954064 0.0673474 -0.05898705 -0.0528334
000270 db d4 8c bd 88 7e f8 3c b2 ee 94 3d 8b 8e 06 3e
       -0.068765365 0.030333772 0.0727209 0.13140313
000280 e6 86 72 3d eb 9d 27 3d 02 8c 0b 3e 68 7f e7 bc
       0.05921068 0.040922087 0.13627627 -0.028258994
000290 98 e2 26 be 70 3e 4b bc 3a 92 8d bd 75 ff 42 bd
       -0.16297376 -0.012405023 -0.06912656 -0.047606904
0002a0 c2 4e d7 3d a4 aa 08 3c da a8 b0 bd 40 c2 76 3d
       0.10513069 0.008341465 -0.08625956 0.060243845
0002b0 7e 10 10 be 7c 7a e7 bd 4f 43 90 3d 54 dd dd bc
       -0.14068791 -0.11302659 0.07044088 -0.027083077
0002c0 5d 99 9f bd 5e 53 f1 bd 50 6e 02 be 09 e2 20 bd
       -0.077929236 -0.11783479 -0.12737393 -0.039278064
0002d0 b0 79 50 3c 8b 1f 2f bd d4 33 a5 3d 67 8c 02 be
       0.012724325 -0.04275469 0.08066526 -0.12748872
0002e0 4f 30 f9 3d a9 91 cd 3d 13 f0 96 3d 93 88 a5 3d
       0.12167417 0.10037548 0.07370009 0.0808269
0002f0 21 38 37 bd b2 96 1e 3e 18 a8 5d 3d 0c 0d 1c bd
       -0.044731263 0.15487173 0.054115385 -0.03809838
000300 22 b6 68 3d 70 c6 e3 bd 9c df 6c bc 07 bb 3b bd
       0.05681432 -0.11121833 -0.0144576095 -0.04583266
000310 ba f8 ef bd 65 d2 11 be ed 46 5e 3d 0d bd 26 3d
       -0.11717363 -0.14240415 0.05426686 0.040707637
000320 d1 bb 0b 3e 5a b9 82 bd c1 c1 24 bb 41 5f 23 bd
       0.13645865 -0.06383009 -0.00251399 -0.039885763
000330 80 36 68 3d d5 b8 96 3c 54 36 3f bd 85 b6 79 3d
       0.0566926 0.018398682 -0.04668267 0.06096508
000340 12 5f ba bd 38 da e1 3b 8b e3 b4 3d b8 1f 53 3d
       -0.091001645 0.006892469 0.08832463 0.05154392
000350 c4 f8 ad bd 6c fb 32 bb ff d5 20 bd 82 b7 b8 3c
       -0.08494714 -0.0027310504 -0.039266583 0.02254844
000360 d2 e1 56 bd 1e 93 00 3d 03 ff eb 3d 69 1d ff bc
       -0.052461453 0.031390302 0.11523249 -0.031141954
000370 a4 ef 87 3d 93 1c 36 3d aa c3 02 3e ce 3e 39 3d
       0.06637505 0.044460844 0.12769952 0.04522591
000380 54 60 6b 3d 82 10 bc bd f6 22 d3 bb 26 34 02 be
       0.057464913 -0.09182836 -0.0064433767 -0.12715206
000390 a9 17 c1 3c af f2 a2 bd 00 02 ee bd c1 40 ff bc
       0.023570852 -0.079564445 -0.11621475 -0.031158807
0003a0 79 45 0e be 80 d4 6f 3c 4a 04 77 3d 98 34 ba 3d
       -0.13893689 0.014638066 0.060306825 0.09092063
0003b0 2b 76 b2 bc 28 82 04 3e 37 01 cf bd f3 6d 8d bd
       -0.021784863 0.12940276 -0.101076536 -0.06905737
0003c0 5a 05 8a 3d d1 45 0e 3d f6 ba e1 bc f8 07 d2 bd
       0.06739302 0.03473455 -0.02755497 -0.10255426
0003d0 c8 ea f0 bd 56 eb 09 3e 11 4c 09 3e 3c 68 7d 3d
       -0.11763531 0.1346868 0.13407923 0.061866984
0003e0 81 4a f8 bc df 65 0d be 71 03 bc 3d c4 81 6f 3d
       -0.030308964 -0.13808392 0.09180344 0.058473364
0003f0 a2 92 99 bd 7c be 11 be b3 3f 6d bd ae 77 a4 3c
       -0.07498671 -0.1423282 -0.057922076 0.020076599

fc_policy.weight f4 [9, 256]
000000 9c ec b0 3e 8e 53 c2 3e aa 97 aa 3e ed a8 61 3e
       0.3455552 0.37954372 0.33318835 0.22037096
000010 c3 9a 86 3e 11 8b ac 3e 0e 81 42 3d d9 6a bf 3e
       0.2628995 0.3369985 0.047486357 0.37386206
000020 1b 04 b0 3e c0 ac 96 3e 71 0c ce 3e 91 f3 8b 3d
       0.34378132 0.29428673 0.40243867 0.06833566
000030 2e 09 ac 3c 2c 5c 8b 3e 4d 6b c0 3e 1c 3d ae 3e
       0.021000471 0.2721876 0.37581864 0.34030998
000040 ce 43 c6 3e 89 0b fd 3d 69 a7 c7 3e c3 13 aa 3e
       0.38723606 0.12355716 0.3899491 0.33218202
000050 b6 6f a8 3e b5 74 85 3e f1 b4 34 3d 42 66 c8 3e
       0.3289773 0.26065603 0.04411787 0.39140517
000060 e8 84 b0 bc 7b f6 8d 3e 87 c1 ec 3c 2f 53 b8 3e
       -0.02154775 0.27727112 0.028900875 0.36000964
000070 63 02 13 3e 83 69 a8 3e 67 c3 98 3d 46 96 36 3e
       0.14356379 0.32893 0.07459145 0.17830762
000080 39 9b b5 3e bd a3 b6 3e 4f 0d c9 3e ac f3 bf 3e
       0.35469988 0.35671797 0.39267966 0.37490594
000090 96 b7 c4 3e 5a ba b8 3e a0 6f b5 3e 72 35 ca 3e
       0.38421315 0.36079675 0.35436726 0.394939
0000a0 aa db aa bc 51 29 0d 3e 3a 34 b1 3e d8 70 c9 3e
       -0.020856697 0.13785292 0.34610158 0.39343905
0000b0 32 84 54 3e 40 53 ba 3e c8 9f 97 3e 7f 28 4a 3e
       0.20753554 0.3639164 0.2961409 0.1974201
0000c0 79 63 ae 3e 98 61 c5 3e 11 e8 ab 3e a6 15 b4 3e
       0.34060267 0.3855102 0.3357549 0.35172766
0000d0 4a a8 bc 3e 85 4a ae 3e 27 0a c6 3e 2c 0b a7 3e
       0.36847144 0.3404123 0.3867962 0.3262571
0000e0 02 11 b8 3e ec a9 8f 3e e6 fc a8 3e a6 c1 8c 3e
       0.35950476 0.28059328 0.33005446 0.27491492
0000f0 f8 0f af 3e ca 16 b3 3e b9 8e bc 3e 4c 2d c6 3d
       0.3419187 0.34978324 0.3682764 0.096766084
000100 aa 9a 97 3e 8c 83 bb 3e 5e b6 c5 3e b1 8e 89 3e
       0.29610187 0.366238 0.38615698 0.26866677
000110 53 d4 ee 3d 77 71 c5 3e e1 9d 4a 3e 8f a3 6d 3e
       0.116615914 0.3856313 0.19786789 0.23206924
000120 e4 2b b9 3e b2 27 a2 3e d0 3e 5b 3d 07 89 83 3e
       0.36166298 0.3167091 0.0535267 0.2569048
000130 5b cc 4b 3e 2b e3 aa 3e 35 fa 7a 3e 31 35 5b 3e
       0.19902174 0.3337644 0.24509509 0.2140701
000140 a9 e5 c1 3e 64 57 c1 3e b8 bf cd 3e 10 fd b0 3e
       0.3787053 0.37761986 0.40185332 0.3456807
000150 55 89 b8 3e 16 2b ca 3c ca 0b bc 3e 49 c1 b7 3e
       0.36042276 0.024678748 0.36727744 0.35889652
000160 b0 3f c5 3e 15 56 6a 3e 9a ee a8 3b 3c 31 98 3d
       0.38525152 0.228844 0.0051553966 0.07431266
000170 5a 24 8d 3e e5 0a 4a 3e 83 f9 bf 3e c2 5d 7b 3e
       0.27566797 0.19730718 0.3749505 0.24547485
000180 ed 73 cd 3e d6 34 03 3d 78 be 17 bd a8 a9 dc 3d
       0.40127507 0.03203281 -0.03704688 0.10774547
000190 3e 8a b4 3e dd aa 90 3e 53 5c 9b 3e 48 78 89 3e
       0.3526172 0.28255358 0.30343875 0.2684958
0001a0 87 f5 0f 3e c5 29 c7 3e 5a c0 c3 3d 34 a6 82 3e
       0.14058505 0.38899055 0.095581725 0.25517428
0001b0 87 84 cb 3e 45 d5 c2 3e f9 50 c7 3e e5 99 00 3e
       0.39749548 0.38053337 0.38928965 0.12558706
0001c0 2d 9c b9 3e e6 83 d4 3c d5 43 31 3e 8f ac a9 3e
       0.36251965 0.0259418 0.17311032 0.33139464
0001d0 de 28 ae 3e 4a 15 87 3e 86 59 c9 3e 1e a8 01 bc
       0.34015554 0.2638343 0.39326113 -0.007913617
0001e0 d0 87 62 39 82 20 94 3e fb 07 97 3e 68 c6 7e 3e
       0.00021603634 0.28931051 0.29498276 0.24880373
0001f0 b3 d1 c2 3e 41 71 98 3e 92 d2 b0 3e af 7e 8e 3d
       0.38050613 0.29773906 0.34535652 0.06957757
000200 be 80 aa 3e f6 e5 b9 3e 01 dc bc 3e 2c 58 5a 3e
       0.33301347 0.3630826 0.368866 0.21322697
000210 91 2d b7 3e e2 3d bc 3e 34 88 9e 3d 0a cd 89 3e
       0.35776952 0.36765963 0.077408224 0.26914245
000220 4b c9 76 3c 1c aa 86 3e 79 8f 96 3e 12 0a b5 3e
       0.01506264 0.26301658 0.29406336 0.35359246
000230 73 2d cb 3e c6 9e a2 3e 02 8b a2 3e 7e d3 c8 3e
       0.39683113 0.3176176 0.3174668 0.39223856
000240 68 5b c2 3e af 9c 96 3e 3f 81 52 3e 4c ad cc 3e
       0.37960362 0.29416415 0.20557116 0.39975965
000250 4d 3c 0c 3e bc d7 cb 3e 45 61 d2 3d 0c b1 b9 3c
       0.13694878 0.3981303 0.10272459 0.02266743
000260 ac 1d 53 3d 9c 9f 91 3e 4b 64 2c 3e 14 27 b3 3e
       0.05154197 0.28442085 0.16835134 0.34990752
000270 96 97 f5 3d 43 bd ad 3e 52 d3 ae 3e ca 6c ac 3e
       0.11991803 0.33933458 0.341456 0.3367675
000280 19 22 a8 3e 0a 03 8d 3e 26 8a c6 3e 72 06 97 3e
       0.32838514 0.2754138 0.38777274 0.29497105
000290 cb 2b d6 3d f7 1a b9 3c 0a d5 c8 3e 45 7b c9 3d
       0.104575716 0.022595866 0.39225036 0.09837965
0002a0 a1 23 ad 3e ff 2d 9d 3e 5a 00 7e 3d c7 85 89 3e
       0.33816245 0.30699155 0.062012054 0.26859877
0002b0 64 0d ce 3c 43 74 de 3c e7 59 b2 3e 82 de b2 3d
       0.02515287 0.027155047 0.34834215 0.08733846
0002c0 7b 58 7b 3d 24 1a cc 3d 34 6f 8c 3e 10 be 2a 3e
       0.06136368 0.099659234 0.2742859 0.16674066
0002d0 af a9 c0 3e 8a 55 4c 3e 04 f8 86 3e e5 b8 3d 3e
       0.37629458 0.19954506 0.26361096 0.18527563
0002e0 4c d6 b8 3e 62 6e 66 3e 79 7f b2 3e d8 3e 99 3e
       0.36100996 0.22503045 0.3486288 0.29930758
0002f0 c7 2b b7 3e d3 70 a3 3e 06 8d be 3e 83 63 91 3e
       0.35775587 0.31922016 0.37216967 0.28396234
000300 92 f2 a9 3e 57 3c 62 3e 26 56 b7 3e b4 ef ab 3e
       0.3319288 0.2209333 0.35807914 0.33581316
000310 12 24 91 3d da 97 5a 3e cd f4 8f 3e c5 de b1 3e
       0.07086958 0.2134699 0.28116456 0.34740272
000320 a0 e3 c3 3e 85 bd 13 3e a0 c4 cb 3e 2d cf 4f 3e
       0.38259602 0.14427765 0.3979845 0.20293875
000330 8c 7c c5 3e a6 04 bb 3e 2e 6f c3 bc 40 19 b9 3e
       0.38571584 0.36526984 -0.023856726 0.36152077
000340 9f fe 8e 3c 3a 40 b4 3e 48 0a b6 3e 6a fc ba 3e
       0.017455397 0.3520525 0.3555472 0.36520702
000350 f4 37 b0 3d 83 f0 05 3e 2f 3a fe 3d e6 70 bb 3e
       0.08604422 0.13080029 0.124134414 0.36609572
000360 f8 30 98 3e f3 46 33 3e 0b 05 cb 3e b1 e8 83 3e
       0.2972486 0.17507534 0.39652285 0.25763467
000370 84 29 b1 3e f0 cf 98 3e af bb c8 3e a7 52 b7 3e
       0.34601986 0.29846144 0.3920569 0.35805246
000380 32 32 a5 3e 7a 14 ea 3c 2b 18 1b 3e 98 74 ac 3c
       0.32264858 0.028574217 0.15145938 0.02105169
000390 e0 3c 5c 3e 24 bb be 3e eb 2a 5a 3e 36 32 a9 3e
       0.21507597 0.37252152 0.21305434 0.3304612
0003a0 67 dc b8 3d 44 25 21 3e 3a be c1 3e 78 e5 c1 3e
       0.090264134 0.15736872 0.37840444 0.37870383
0003b0 3a a0 71 3e 02 9d b0 3e 35 d3 6e 3e 82 7b 00 bd
       0.23596278 0.34494787 0.23322757 -0.031367786
0003c0 bd 3d bb 3e 24 42 be 3e 0f 30 32 3e dd b5 4d 3e
       0.3657054 0.37159836 0.17401145 0.20088907
0003d0 bb 80 56 bb 2d cb ac 3e e0 7a b1 3e 4a 3f c4 3e
       -0.0032730538 0.3374876 0.3466406 0.38329536
0003e0 9d 87 b6 3e 02 6e f3 3d 6d 8a bd 3e 34 f9 ad 3e
       0.3565034 0.11886217 0.37019673 0.3397919
0003f0 f0 35 48 3e b2 a1 f1 3c 32 d6 64 3c d7 34 c9 3e
       0.19551826 0.029496048 0.013967084 0.39298126

fc_policy.bias f4 [9]
000000 21 61 c9 3e f6 41 8e be 38 c5 c6 be a7 11 ac be
       0.39331916 -0.277847 -0.3882234 -0.33607218
000010 5f 5d a1 be 17 ab a4 be fa 22 b1 be 88 ce a9 be
       -0.3151655 -0.3216178 -0.34596997 -0.33165383
000020 8c 61 bf be
       -0.3737911
