Models/dual_nn_model_saved.pth (torch, 254953 bytes, 11 tensors)

conv.weight f4 [32, 1, 3, 3]
-0.08250646 -0.071520984 0.024026586 0.028572306 -0.061555818 0.009991938 -0.058216304 0.014450513
-0.15701541 0.010087483 0.108931795 0.15705107 0.056267794 -0.12861226 -0.10523154 -0.012469545
0.05249655 -0.13482559 0.3055595 0.2414016 0.63753825 -0.5358731 -0.3185976 0.29295352
0.07760102 0.2349594 -0.26344988 0.3145922 -0.40449637 0.11026993 -0.55253327 0.13861851
-0.4313189 -0.4855423 -0.24101204 0.2046062 -0.014931072 -0.079551175 -0.025605243 -0.15367633
-0.026532793 0.014132418 -0.0043718657 -0.06265774 -0.15115783 0.15243964 -0.46686974 0.0766576
-0.053295575 -0.5439605 -0.30941632 0.40034348 0.04141091 0.030455401 0.06621313 0.22236264
0.09777398 -0.3862526 0.06997869 -0.6466228 0.22326821 0.33572033 -0.4501875 0.7277993
0.7389738 0.5135822 0.08125331 -0.09533876 0.041009206 0.45578134 0.17493014 0.3766131
-0.002747696 -0.114374995 0.0035982206 0.08552371 -0.03058118 0.039248247 0.037633035 -0.07263079
-0.08398363 -0.2701001 -0.17520463 -0.27742964 0.18657693 0.21729645 -0.04341779 -0.3276946
0.07923005 0.16589758 -0.08566315 -0.007930559 0.035859246 0.09680457 0.022890255 -0.046023376
0.2024076 -0.014525924 -0.0070891576 -0.1169779 0.020439422 -0.2667457 -0.122510664 0.015145531
0.048841104 -0.07145667 0.037284546 0.24004437 -0.6112363 -0.44691762 -0.031856272 -0.18666463
0.3232421 -0.09456996 -0.3448063 -0.04253952 -0.02122528 0.02227991 0.016204266 -0.012636727
-0.121645585 0.034801707 -0.040675856 0.055551562 0.10269019 0.011753488 0.0817904 0.06307223
0.18784586 0.090300396 0.041967165 -0.06404531 0.08171317 -0.002488181 0.043638613 0.13353375
-0.2898391 0.31281483 -0.30081916 -0.41610914 0.11739068 -0.32114342 -0.24322306 -0.3150841
-0.00710331 0.05457377 -0.11429809 -0.024339385 -0.09488938 -0.16589789 0.15793654 0.12868741
0.067169115 0.028257443 -0.40025547 -0.22271788 0.24990287 0.39865437 -0.024526192 -0.15751225
-0.16683996 0.21863301 -0.0134269325 -0.09833084 -0.15011251 -0.0780925 -0.07578419 -0.043458667
-0.21050674 0.05477103 0.11174836 0.47213978 0.04582985 -0.058478 0.020730717 0.34163302
0.3738037 -0.3421125 0.21667784 0.00672509 -0.11287404 -0.059494168 0.23239425 0.011356534
0.05707264 0.24650387 0.050851442 -0.14561161 0.10609943 -0.17240608 -0.012708133 -0.047855727
0.055628393 -0.19182032 0.14707994 -0.22086684 -0.024137959 -0.12945133 0.45146704 0.17451222
0.088609315 -0.04701662 0.6307945 0.44840565 0.52062273 0.42560375 0.50044775 0.35089523
0.55899155 -0.34941188 0.50452435 0.55633366 0.7710427 0.8199523 0.69772255 0.3146082
-0.017827637 0.14120914 0.14458421 -0.109966554 0.12560545 -0.06312321 0.13189606 -0.21372877
0.59508646 -0.18979543 -0.059645507 0.072742015 0.16235675 -0.04460066 -0.77492017 -0.6360276
-0.18896611 0.21378686 0.230861 -0.4035994 -0.19444029 0.092740595 0.039656367 -0.49266744
-0.37250358 -0.09625128 -0.33952618 -0.4014701 -0.14855999 0.085899085 -0.35254714 -0.40418184
0.17602673 -0.4808869 0.090218864 0.16927782 0.23330043 -0.061184548 -0.1017495 -0.07160472
00000000: 26f9 a8bd 9879 92bd 67d3 c43c 7810 ea3c
00000010: f421 7cbd 3ab5 233c 3874 6ebd d8c1 6c3c
00000020: a6c8 20be f845 253c a217 df3d ffd1 203e
00000030: 0f79 663d efb2 03be a283 d7bd 104d 4cbc
00000040: 9f06 573d b80f 0abe 4b72 9c3e fb31 773e
00000050: b535 233f fb2e 09bf 3a1f a3be 01fe 953e
00000060: 49ed 9e3d 3299 703e e7e2 86be 3b12 a13e
00000070: 261a cfbe 33d5 e13d d272 0dbf 03f2 0d3e
00000080: d5d5 dcbe 0099 f8be dccb 76be 4a84 513e
00000090: 74a1 74bc baeb a2bd 16c2 d1bc 545d 1dbe
000000a0: 4d5b d9bc a88b 673c de41 8fbb b452 80bd
000000b0: 1ec9 1abe 2319 1c3e 8d09 efbe a9fe 9c3d
000000c0: 764c 5abd ff40 0bbf d16b 9ebe d2f9 cc3e
000000d0: 7d9e 293d 9b7d f93c c09a 873d 08b3 633e
000000e0: b93d c83d e7c2 c5be fd50 8f3d 1289 25bf
000000f0: 6ca0 643e 89e3 ab3e fa7e e6be 0e51 3a3f
00000100: 632d 3d3f 207a 033f 2368 a63d f840 c3bd
00000110: 45f9 273d 2c5c e93e e320 333e 6fd3 c03e
00000120: b012 34bb 703d eabd 20d0 6b3b 0e27 af3d
00000130: 6285 fabc c5c2 203d 1925 1a3d 74bf 94bd
00000140: 9cff abbd 8f4a 8abe d868 33be 420b 8ebe
00000150: 060e 3f3e f682 5e3e dad6 31bd 96c7 a7be
00000160: 5d43 a23d 0ee1 293e 2970 afbd 2def 01bc
00000170: 25e1 123d 7941 c63d 5884 bb3c 0283 3cbd
00000180: f043 4f3e 24fe 6dbc 2a4c e8bb 1c92 efbd
00000190: 9370 a73c e492 88be dfe6 fabd f624 783c
000001a0: 9c0d 483d e057 92bd aeb7 183d 31ce 753e
000001b0: fb79 1cbf 63d2 e4be b97b 02bd 0325 3fbe
000001c0: fd7f a53e e5ad c1bd 748a b0be eb3d 2ebd
000001d0: a3e0 adbc 5c84 b63c cfbe 843c 460a 4fbc
000001e0: 5221 f9bd 3c8c 0e3d ba9b 26bd 098a 633d
000001f0: 3c4f d23d b491 403c ba81 a73d 032c 813d
00000200: aa5a 403e 6aef b83d c3e5 2b3d 302a 83bd
00000210: 3c59 a73d c010 23bb 67be 323d 12bd 083e
00000220: ca65 94be 4429 a03e f804 9abe 420c d5be
00000230: 866a f03d e96c a4be 770f 79be b452 a1be
00000240: e2c2 e8bb bf88 5f3d 1e15 eabd 6463 c7bc
00000250: 5d55 c2bd 23e1 29be 1eba 213e a2c6 033e
00000260: f68f 893d 277c e73c 49ee ccbe 2810 64be
00000270: 8ae6 7f3e 6d1c cc3e 27eb c8bc e44a 21be
00000280: 18d8 2abe 55e1 5f3e a3fc 5bbc ae61 c9bd
00000290: 18b7 19be f6ee 9fbd be34 9bbd b701 32bd
000002a0: 148f 57be 9657 603d 53dc e43d 4ebc f13e
000002b0: 15b8 3b3d a186 6fbd 77d3 a93c 86ea ae3e
000002c0: 3363 bf3e 5f29 afbe cce0 5d3e 255e dc3b
000002d0: 812a e7bd 28b0 73bd c2f8 6d3e c210 3a3c
000002e0: 00c5 693d 836b 7c3e 9a49 503d 361b 15be
000002f0: a84a d93d 388b 30be c635 50bc 5e04 44bd
00000300: 99da 633d 8c6c 44be 209c 163e eb2a 62be
00000310: f8bc c5bc e48e 04be b026 e73e 55b3 323e
00000320: cd78 b53d 8094 40bd c07b 213f 6d95 e53e
00000330: 8847 053f bce8 d93e 581d 003f 8aa8 b33e
00000340: 121a 0f3f 1de6 b2be 8228 013f e26b 0e3f
00000350: 0e63 453f 65e8 513f f29d 323f 5314 a13e
00000360: 440b 92bc 2199 103e e20d 143e 2536 e1bd
00000370: b79e 003e be46 81bd c30f 073e b7db 5abe
00000380: 9657 183f bc59 42be d94e 74bd c4f9 943d
00000390: d940 263e 2faf 36bd 2b61 46bf b4d2 22bf
000003a0: 5580 41be f1ea 5a3e d366 6c3e 95a4 cebe
000003b0: 5b1b 47be c8ee bd3d b76e 223d e83e fcbe
000003c0: cab8 bebe 641f c5bd 60d6 adbe 7d8d cdbe
000003d0: 1c20 18be dceb af3d 0f81 b4be ecf0 cebe
000003e0: 5a40 343e cf36 f6be abc4 b83d 2a57 2d3e
000003f0: 4fe6 6e3e a69c 7abd 0b62 d0bd 7fa5 92bd

conv.bias f4 [32]
-0.55592453 -0.7607082 -0.33689824 -0.30528104 -0.6801137 -0.0869515 -0.32532665 -0.47155994
-0.700868 -0.75201553 -0.5422637 -0.76070774 -0.29521185 -0.4976647 -1.0011235 -0.31346723
-0.7212653 -0.63290966 -0.7371412 -0.4716205 -0.40088734 -0.82386476 -0.098570585 -0.007331128
-0.37912044 -0.4399914 -0.07975512 -0.24201547 -0.42367563 -0.29032585 -0.8358709 -0.48581967
00000000: 1251 0ebf c6bd 42bf ed7d acbe cc4d 9cbe
00000010: ee1b 2ebf a113 b2bd 3791 a6be 4e70 f1be
00000020: 166c 33bf 1784 40bf cbd1 0abf bebd 42bf
00000030: 0226 97be e8cd febe d124 80bf c77e a0be
00000040: d8a4 38bf 5e06 22bf 49b5 3cbf 3e78 f1be
00000050: 1b41 cdbe cde8 52bf 60df c9bd f639 f0bb
00000060: 131c c2be 8e46 e1be a756 a3bd e7d2 77be
00000070: 03ec d8be 97a5 94be a3fb 55bf 5bbd f8be

fc1.weight f4 [64, 288]
-0.23883924 -0.21839291 -0.25114805 -0.2027606 -0.19559294 -0.27896917 -0.2533557 -0.28572506
-0.22562996 -0.25278497 -0.25301704 -0.2922373 -0.20111407 -0.28934377 -0.23668414 -0.25711957
-0.30716646 -0.3029235 -0.30636847 -0.27030948 -0.23572646 -0.24080244 -0.29635856 -0.29172584
-0.25172156 -0.24795407 -0.2140609 -0.23072322 -0.20726742 -0.27850917 -0.21957947 -0.21326116
-0.2926895 -0.28729826 -0.2765662 -0.24956211 -0.25891018 -0.22974889 -0.2691781 -0.23970917
-0.20903371 -0.21546993 -0.20659326 -0.26657903 -0.2873016 -0.24968 -0.24326491 -0.20479055
-0.24376172 -0.27113456 -0.24908008 -0.24649718 -0.25091836 -0.20289987 -0.26094055 -0.22678158
-0.2598963 -0.29805362 -0.29002893 -0.27687827 -0.27603346 -0.24108535 -0.30225557 -0.29500708
-0.25992873 -0.2521059 -0.19021447 -0.20800285 -0.2609268 -0.2407 -0.28421685 -0.22731572
-0.23212954 -0.20780145 -0.2170218 -0.24022526 -0.18871613 -0.26187584 -0.29593283 -0.26140505
-0.25148654 -0.30644408 -0.23741011 -0.24688134 -0.2802329 -0.25456 -0.26291507 -0.27398038
-0.27406353 -0.20734324 -0.21786793 -0.21678367 -0.21262345 -0.24701764 -0.2732541 -0.30041796
-0.2481737 -0.277675 -0.21266651 -0.2302742 -0.20179603 -0.27784482 -0.194968 -0.24158528
-0.19975397 -0.26522115 -0.2563068 -0.19851242 -0.26488316 -0.21795288 -0.21312794 -0.23758411
-0.29330352 -0.29663938 -0.23467085 -0.20089799 -0.27279353 -0.2830214 -0.2984152 -0.2445307
-0.26517752 -0.27864027 -0.23985001 -0.28549564 -0.21880443 -0.23151088 -0.21822838 -0.21451832
-0.20059894 -0.2975974 -0.31672633 -0.2605229 -0.20194863 -0.3075944 -0.27648488 -0.20335503
-0.22443262 -0.20243853 -0.225349 -0.25944394 -0.25448862 -0.24047562 -0.29605174 -0.23314443
-0.23058477 -0.23433924 -0.29187295 -0.19352433 -0.2568655 -0.21808127 -0.22525361 -0.24432957
-0.19365633 -0.2782437 -0.2669833 -0.24138589 -0.25128135 -0.23855874 -0.21428335 -0.2222555
-0.21736503 -0.2245448 -0.0430609 -0.30306232 -0.2663942 -0.2821766 -0.1941181 -0.2465899
-0.28397435 -0.19506915 -0.24020672 -0.26789 -0.19057505 -0.26581386 -0.24763441 -0.25052792
-0.24470752 -0.27086437 -0.24642815 -0.26393634 -0.20370153 -0.25165257 -0.2674826 -0.18998098
-0.21931234 -0.2545307 -0.26983684 -0.19068998 -0.20403747 -0.2738779 -0.28623062 -0.24423255
-0.26917788 -0.30345497 -0.21569434 -0.26482373 -0.21307528 -0.27693233 -0.1938867 -0.29698247
-0.20660594 -0.22432068 -0.20875803 -0.30920213 -0.22195402 -0.23449817 -0.24910158 -0.23423566
-0.20469202 -0.23050685 -0.2838427 -0.2977108 -0.23255415 -0.19191162 -0.2143188 -0.22590794
-0.20962465 -0.29802322 -0.243754 -0.29830417 -0.2641808 -0.28874487 -0.2349089 -0.2796398
-0.20918119 -0.19811319 -0.24627051 -0.29644343 -0.23967026 -0.20869479 -0.21966371 -0.18621626
-0.2896017 -0.21972758 -0.25095084 -0.27713954 -0.28111252 -0.1988394 -0.22305508 -0.23715001
-0.22069342 -0.3043944 -0.2638333 -0.20990601 -0.2840138 -0.2917846 -0.2387323 -0.24662127
-0.22244933 -0.22910157 -0.2523365 -0.26696166 -0.23793876 -0.2357477 -0.21650302 -0.25644144
00000000: 4692 74be 64a2 5fbe 7a96 80be 7aa0 4fbe
00000010: 8449 48be 0cd5 8ebe d7b7 81be 8e4a 92be
00000020: 8a0b 67be 086d 81be 738b 81be 21a0 95be
00000030: d9f0 4dbe de24 94be 545d 72be 2da5 83be
00000040: ec44 9dbe ca18 9bbe 54dc 9cbe 0166 8abe
00000050: 4762 71be ea94 76be 4fbc 97be 175d 95be
00000060: a6e1 80be ace7 7dbe c832 5bbe b542 6cbe
00000070: e93d 54be c198 8ebe 71d9 60be 2261 5abe
00000080: 66db 95be c218 93be 169a 8dbe 368d 7fbe
00000090: e08f 84be 4b43 6bbe b6d1 89be 5276 75be
000000a0: ef0c 56be 26a4 5cbe 2f8d 53be 0c7d 88be
000000b0: 3219 93be 1dac 7fbe 701a 79be 9db4 51be
000000c0: ac9c 79be 26d2 8abe d90e 7fbe c269 7cbe
000000d0: 5f78 80be fcc4 4fbe 009a 85be 6e39 68be
000000e0: 2111 85be 7c9a 98be ac7e 94be fdc2 8dbe
000000f0: 4254 8dbe 14df 76be 3ec1 9abe 2b0b 97be
00000100: 6115 85be 0614 81be 95c7 42be b3fe 54be
00000110: 3398 85be 107a 76be df84 91be 74c5 68be
00000120: 5eb3 6dbe e7c9 54be f63a 5ebe 9cfd 75be
00000130: cd3e 41be 9714 86be 8284 97be e2d6 85be
00000140: d8c2 80be 3de6 9cbe a31b 73be 76ce 7cbe
00000150: b07a 8fbe b055 82be ce9c 86be 2847 8cbe
00000160: 0e52 8cbe c951 54be c518 5fbe 8afc 5dbe
00000170: f6b9 59be 31f2 7cbe f6e7 8bbe 62d0 99be
00000180: 3f21 7ebe 6b2b 8ebe 40c5 59be 00cd 6bbe
00000190: 9ea3 4ebe ad41 8ebe b1a5 47be 2262 77be
000001a0: 4e8c 4cbe 11cb 87be a53a 83be d746 4bbe
000001b0: c49e 87be 0a2f 5fbe 363e 5abe 4049 73be
000001c0: e12b 96be 1ee1 97be 8e4d 70be 34b8 4dbe
000001d0: 98ab 8bbe 2ee8 90be e1c9 98be 4166 7abe
000001e0: 59c5 87be f0a9 8ebe 3e9b 75be 7c2c 92be
000001f0: 450e 60be 3011 6dbe 4377 5fbe b1aa 5bbe
00000200: cf69 4dbe b05e 98be f429 a2be 4263 85be
00000210: 9fcb 4ebe 037d 9dbe 6d8f 8dbe 4d3c 50be
00000220: aad1 65be 0c4c 4fbe e3c1 66be d6d5 84be
00000230: 554c 82be 3e3f 76be 1894 97be 6abd 6ebe
00000240: 6a1e 6cbe a0f6 6fbe 5f70 95be 3e2b 46be
00000250: e083 83be b250 5fbe e2a8 66be 8831 7abe
00000260: d84d 46be f575 8ebe 09b2 88be dd2d 77be
00000270: f3a7 80be be48 74be 186d 5bbe f296 63be
00000280: f094 5ebe 12ef 65be a060 30bd fc2a 9bbe
00000290: d264 88be 7479 90be e5c6 46be 1082 7cbe
000002a0: 1665 91be 35c0 47be c0f8 75be e128 89be
000002b0: 1b26 43be c118 88be e093 7dbe 3245 80be
000002c0: 9c94 7abe bcae 8abe a957 7cbe aa22 87be
000002d0: 2297 50be 9bd8 80be 7bf3 88be 608a 42be
000002e0: 6a93 60be d951 82be 0e28 8abe 3c44 43be
000002f0: 33ef 50be b939 8cbe d28c 92be 1918 7abe
00000300: afd1 89be 735e 9bbe fade 5cbe fa96 87be
00000310: 6830 5abe 13ca 8dbe 3c8a 46be 160e 98be
00000320: 8290 53be 52b4 65be aac4 55be be4f 9ebe
00000330: ea47 63be 4a20 70be 7c14 7fbe 79db 6fbe
00000340: c99a 51be fd09 6cbe d553 91be 8d6d 98be
00000350: ad22 6ebe 7b84 44be 6376 5bbe 6954 67be
00000360: d8a7 56be 8096 98be a69a 79be 53bb 98be
00000370: b542 87be 5ed6 93be f58b 70be f32c 8fbe
00000380: 9833 56be 2fde 4abe 562e 7cbe 6fc7 97be
00000390: 1f6c 75be 16b4 55be 86ef 60be 7aaf 3ebe
000003a0: ad46 94be 4400 61be a17c 80be 3ce5 8dbe
000003b0: fbed 8fbe 8e9c 4bbe 8d68 64be 74d7 72be
000003c0: 75fd 61be 95d9 9bbe 2915 87be 9af1 56be
000003d0: 426a 91be cb64 95be 3d76 74be 498a 7cbe
000003e0: c2c9 63be 9a99 6abe 4032 81be 33af 88be
000003f0: 38a6 73be d867 71be f8b2 5dbe 4b4c 83be

fc1.bias f4 [64]
-0.23473176 -0.28693724 -0.18011545 -0.2257564 -0.3095414 -0.27469066 -0.1878383 -0.2435791
-0.2841409 -0.2392135 -0.25802028 -0.21049291 -0.27121952 -0.24945158 -0.27993202 -0.2728876
-0.22758333 -0.5132448 -0.30381575 -0.20838007 -0.31494048 -0.45127085 0.38732725 -0.22331548
-0.18749726 -0.26658392 -0.24616222 -0.2237731 -0.22507422 -0.23664983 -0.29022732 -0.24081758
-0.18954766 -0.26022947 -0.27413243 -0.2712585 -0.29760158 -0.3443553 -0.18872732 -0.26985055
-0.2715119 -0.13331541 -0.22826873 -0.15759954 -0.23665851 -0.051525887 0.0032168222 -0.25631112
-0.15188591 -0.30801013 -0.209618 -0.21436332 -0.26531032 -0.28768453 -0.21567626 -0.28892374
-0.1888237 0.01236789 -0.26041803 -0.22981906 -0.21577144 -0.27218625 -0.22965428 -0.18409032
00000000: 865d 70be 70e9 92be 2f70 38be b02c 67be
00000010: 367c 9ebe 41a4 8cbe af58 40be cd6c 79be
00000020: eb7a 91be 62f4 74be 3c1b 84be 748b 57be
00000030: 49dd 8abe 3c70 7fbe 4053 8fbe ecb7 8bbe
00000040: 9b0b 69be 0364 03bf bd8d 9bbe 9661 55be
00000050: e13f a1be f90c e7be c24f c63e d0ac 64be
00000060: 48ff 3fbe b07d 88be f311 7cbe c724 65be
00000070: db79 66be 5554 72be ad98 94be e298 76be
00000080: c818 42be cc3c 85be 165b 8cbe 65e2 8abe
00000090: 3c5f 98be 564f b0be bc41 41be da29 8abe
000000a0: 9c03 8bbe d683 08be 47bf 69be c661 21be
000000b0: 9c56 72be cf0c 53bd 52d1 523b 363b 83be
000000c0: fb87 1bbe 81b3 9dbe 1aa6 56be 0f82 5bbe
000000d0: c1d6 87be 634b 93be 3dda 5cbe d0ed 93be
000000e0: 005b 41be b1a2 4a3c 8355 85be b055 6bbe
000000f0: 30f3 5cbe ff5b 8bbe 7e2a 6bbe 2c82 3cbe

fc2.weight f4 [128, 64]
-0.3706138 -0.35691687 0.0698655 -0.22310454 0.024806477 -0.37068316 -0.09409756 -0.13874695
-0.25197232 -0.22389537 -0.13905874 -0.1330166 -0.124738455 -0.3114874 -0.13239421 -0.34069303
-0.26437658 -0.2561053 0.06012903 -0.2945849 -0.26948816 -0.33505547 -0.024803938 -0.15620732
-0.35274795 -0.27774203 -0.13193257 -0.048910864 -0.15539633 0.10680286 -0.31329745 -0.13723102
-0.16827936 -0.26738852 -0.14634171 -0.12545724 -0.28893784 -0.26337543 -0.20575695 -0.16287592
-0.32695267 -0.14807726 -0.2430757 -0.032366354 -0.23895395 -0.33374622 -0.024165526 -0.17299515
-0.028600298 -0.35714146 -0.3126727 -0.24443698 -0.18504405 -0.1330815 -0.30765602 -0.36904597
-0.19925585 0.12326631 0.01034381 -0.17640336 -0.13151121 -0.17724743 -0.25616908 -0.06921015
-0.22830749 -0.16471764 0.04333576 -0.29780868 0.08753392 -0.1329862 -0.13150764 -0.17875472
-0.3669037 -0.26386973 -0.3461526 -0.20560029 -0.16497944 -0.20731288 -0.15050821 -0.1665143
-0.36066058 0.06403215 -0.083916076 -0.29272574 -0.19125584 -0.14523816 -0.07085081 -0.35712674
-0.13661456 -0.35544932 -0.26281345 -0.24282302 -0.23504443 -0.058474556 -0.18865353 -0.19941549
-0.13607876 -0.276712 -0.22044112 -0.29615292 -0.17145675 -0.18673635 -0.24812356 -0.31459877
-0.3506426 0.017280433 -0.21807787 -0.21704765 -0.19119373 -0.2623835 -0.081679225 -0.16337307
-0.23762448 -0.14143823 -0.18942074 -0.25564146 -0.34905362 -0.16099915 -0.3152488 -0.24039334
-0.20710227 -0.053878516 0.020278085 -0.14077492 -0.36609966 -0.34957567 -0.30388921 0.05809304
-0.2504792 -0.25961635 0.012947221 -0.2796306 -0.0921106 -0.21580808 -0.14406173 -0.041648652
-0.2888893 -0.22364181 -0.29330346 0.03191539 -0.36878648 -0.2350984 -0.3178861 -0.20248342
-0.36215886 -0.10341196 -0.028040214 -0.26998535 -0.34066972 -0.0018100712 -0.14615329 -0.3185359
-0.2913102 -0.27919203 -0.30880862 0.040660735 0.10683108 -0.13324396 -0.29787132 -0.20198922
-0.22424954 -0.26602718 -0.18603852 -0.33978873 -0.24297863 -0.016293012 -0.2756787 -0.35783923
-0.12432594 -0.08525249 -0.23315892 0.104394965 -0.34464294 -0.27774173 0.05596871 -0.28502023
-0.13435587 -0.12151453 -0.31257054 -0.1019541 0.025630193 -0.365363 -0.19668144 -0.32188463
-0.17127407 -0.042230204 -0.08491149 -0.25193563 -0.07767333 -0.172884 -0.2583505 -0.06879327
-0.34019366 -0.14589256 -0.029677052 -0.1800812 -0.08061776 -0.21812642 -0.014517618 -0.23949334
-0.14882608 -0.20949806 -0.36961502 -0.24679793 -0.25577697 -0.21866551 -0.15965982 -0.26850715
-0.25767043 -0.23567495 0.11839736 -0.3311305 -0.13643381 -0.1391134 -0.2070867 -0.30180144
-0.21572475 -0.28127924 -0.26998526 -0.06381671 -0.21351027 -0.066891424 -0.21954137 -0.3286583
-0.3597731 -0.14955091 -0.26588145 -0.17764023 -0.3388179 -0.19204217 -0.16331866 -0.18434563
-0.2735455 -0.14322367 -0.122025095 -0.06868242 -0.3043506 -0.14019425 0.027832115 -0.1866548
-0.081181906 -0.34414715 -0.20780171 -0.31692952 -0.17782988 -0.12132642 -0.33900955 -0.13419752
-0.31026465 0.08907595 0.106306456 -0.2841252 -0.18878266 -0.14685068 -0.30623412 0.0027163196
00000000: 18c1 bdbe cfbd b6be a515 8f3d 8475 64be
00000010: f436 cb3c 2fca bdbe 39b6 c0bd ae13 0ebe
00000020: 8402 81be d444 65be 6a65 0ebe 8135 08be
00000030: e076 ffbd 477b 9fbe 5992 07be 516f aebe
00000040: 5e5c 87be 3c20 83be dc49 763d d5d3 96be
00000050: 5afa 89be 648c abbe a131 cbbc d0f4 1fbe
00000060: 619b b4be 3434 8ebe 5519 07be c256 48bd
00000070: 3720 1fbe 75bb da3d 8668 a0be 4a86 0cbe
00000080: 6d51 2cbe 26e7 88be 9ada 15be dd77 00be
00000090: a9ef 93be 25d9 86be f3b1 52be f2c8 26be
000000a0: 5766 a7be 91a1 17be d6e8 78be 9592 04bd
000000b0: 58b0 74be c9e0 aabe c8f6 c5bc a425 31be
000000c0: 2c4b eabc 3fdb b6be a316 a0be b04d 7abe
000000d0: 307c 3dbe 8446 08be 1785 9dbe 98f3 bcbe
000000e0: ba09 4cbe 0c73 fc3d 1579 293c 15a3 34be
000000f0: e0aa 06be 5a80 35be 9828 83be 0dbe 8dbd
00000100: 70c9 69be beab 28be d680 313d 617a 98be
00000110: fc44 b33d 892d 08be f0a9 06be 7a0b 37be
00000120: cdda bbbe ef19 87be ea3a b1be e288 52be
00000130: 5ff0 28be d449 54be d31e 1abe ba82 2abe
00000140: 81a8 b8be 4a23 833d 31dc abbd 26e0 95be
00000150: 92d8 43be 50b9 14be 3b1a 91bd 51d9 b6be
00000160: b0e4 0bbe 74fd b5be 7c8f 86be 99a6 78be
00000170: 7daf 70be 0483 6fbd 642e 41be 9333 4cbe
00000180: 3b58 0bbe 32ad 8dbe 51bb 61be 5ba1 97be
00000190: 5c92 2fbe d037 3fbe 1a14 7ebe 1713 a1be
000001a0: 6d87 b3be b28f 8d3c ce4f 5fbe bd41 5ebe
000001b0: 4ac8 43be 2157 86be 7047 a7bd 454b 27be
000001c0: d553 73be 2fd5 10be 83f7 41be 70e3 82be
000001d0: 28b7 b2be f6dc 24be 4a68 a1be ac29 76be
000001e0: 9e12 54be b8af 5cbd 3a1e a63c 4d27 10be
000001f0: 6a71 bbbe 95fb b2be 5e97 9bbe f8f2 6d3d
00000200: cf3e 80be 6fec 84be 9520 543c be2b 8fbe
00000210: 7ba4 bcbd cbfc 5cbe eb84 13be c797 2abd
00000220: 4ce9 93be 5c02 65be df2b 96be b6b9 023d
00000230: 95d1 bcbe a3bd 70be f8c1 a2be d057 4fbe
00000240: e36c b9be a6c9 d3bd 97b4 e5bc 853b 8abe
00000250: 436c aebe e93f edba 35a9 15be 2317 a3be
00000260: 9c26 95be 42f2 8ebe 2a1c 9ebe df8b 263d
00000270: 41ca da3d 1b71 08be 9782 98be 43d6 4ebe
00000280: aca1 65be b734 88be e280 3ebe caf8 adbe
00000290: 64cf 78be ec78 85bc c225 8dbe b436 b7be
000002a0: 999e febd dc98 aebd 36c1 6ebe 07cd d53d
000002b0: 0a75 b0be 2a34 8ebe 723f 653d 2cee 91be
000002c0: 9694 09be 9cdc f8bd 3f09 a0be 50cd d0bd
000002d0: 69f6 d13c dc10 bbbe dc66 49be 10ce a4be
000002e0: 7862 2fbe 94f9 2cbd 13e6 adbd b5fd 80be
000002f0: 3213 9fbd 8108 31be 8446 84be 7ce3 8cbd
00000300: dd2d aebe dc64 15be 4a1d f3bc 3567 38be
00000310: ed1a a5bd 885c 5fbe 4edb 6dbc be3d 75be
00000320: dd65 18be a986 56be 2e3e bdbe 99b8 7cbe
00000330: 33f5 82be dae9 5fbe dd7d 23be c579 89be
00000340: 61ed 83be c654 71be 517a f23d f089 a9be
00000350: 4eb5 0bbe be73 0ebe 890e 54be b885 9abe
00000360: f3e6 5cbe d503 90be 823b 8abe 56b2 82bd
00000370: 70a2 5abe 5ffe 88bd 74cf 60be e745 a8be
00000380: 2e34 b8be e023 19be 9d21 88be 52e7 35be
00000390: 8a79 adbe b4a6 44be 023d 27be 1ac5 3cbe
000003a0: 280e 8cbe 3aa9 12be 4be8 f9bd 5ea9 8cbd
000003b0: d8d3 9bbe 158f 0fbe 2d00 e43c 7022 3fbe
000003c0: b342 a6bd 0e34 b0be f9c9 54be 9644 a2be
000003d0: 0919 36be fc79 f8bd a992 adbe 136b 09be
000003e0: 02db 9ebe 746d b63d 33b7 d93d dc78 91be
000003f0: 3e50 41be 0660 16be b8ca 9cbe 4804 323b

fc2.bias f4 [128]
-0.5105807 -0.024080023 -0.35576084 -0.4855942 -0.24938665 -0.32898366 -0.2220691 -0.019193754
-0.4566549 -0.4213949 -0.020569343 -0.3767386 -0.059573032 -0.49001127 -0.29727677 -0.12781
-0.5722823 -0.10122926 -0.3331303 -0.32196707 -0.16198172 -0.13495965 -0.24340573 -0.49910808
-0.36200342 -0.36490276 -0.24560511 -0.56694365 -0.2624181 -0.45638123 -0.45527056 -0.34706032
-0.4029746 -0.2716486 -0.21549597 -0.38595212 -0.020433474 -0.34639496 -0.25338063 -0.12757184
-0.36619356 -0.3711098 -0.24122123 -0.33861193 -0.27057672 -0.37101904 -0.19188511 -0.2804323
-0.31787407 -0.052625664 -0.32944176 -0.34490526 -0.36130163 -0.5179072 -0.47497842 -0.23782787
-0.13610749 -0.32427403 -0.18967578 -0.25818363 -0.35953033 -0.3136672 -0.19457427 -0.18145026
-0.38650152 -0.2717501 -0.31763893 -0.2863875 -0.115247466 -0.6335368 -0.43734947 -0.3347312
-0.19234216 -0.38498104 -0.30305243 -0.33781418 -0.56495714 -0.23105845 -0.25879678 -0.31449634
-0.346721 0.0209415 -0.24185717 -0.30621454 -0.34666976 -0.33548382 -0.33884972 -0.19817336
-0.24448441 -0.38630924 -0.2877178 -0.22885208 -0.08628686 -0.3661857 -0.34860072 -0.38257143
-0.4833663 -0.49210665 -0.5836036 -0.49607477 -0.38783908 -0.34905258 -0.052016027 -0.012672943
-0.43254867 -0.4285341 -0.29760614 -0.009315302 -0.24153034 -0.3406572 -0.2055711 -0.552117
-0.23601846 -0.10275776 -0.46193853 -0.23938842 -0.22034286 -0.5018562 -0.32121816 -0.35246068
-0.30408198 -0.35455826 -0.24364553 -0.2079337 -0.34144464 -0.7100643 -0.2882237 -0.6721836
00000000: 6bb5 02bf 7843 c5bc 4926 b6be ce9f f8be
00000010: 375f 7fbe 8c70 a8be 1566 63be 383c 9dbc
00000020: acce e9be 13c1 d7be 0a81 a8bc e2e3 c0be
00000030: da02 74bd c2e2 fabe a934 98be a0e0 02be
00000040: 1881 12bf 4951 cfbd 0e90 aabe ded8 a4be
00000050: 89de 25be dd32 0abe 5a3f 79be 188b ffbe
00000060: 8358 b9be 89d4 babe e87f 7bbe 3823 11bf
00000070: aa5b 86be cdaa e9be 3919 e9be e4b1 b1be
00000080: b052 cebe 8615 8bbe faaa 5cbe 849b c5be
00000090: 1a64 a7bc ae5a b1be 1bbb 81be 31a2 02be
000000a0: b97d bbbe 1b02 bebe b302 77be 8b5e adbe
000000b0: 0889 8abe 35f6 bdbe 887d 44be d394 8fbe
000000c0: 64c0 a2be 028e 57bd 97ac a8be 6c97 b0be
000000d0: 87fc b8be 9195 04bf 5f30 f3be 2689 73be
000000e0: c35f 0bbe 3f07 a6be 5e3a 42be a530 84be
000000f0: 5c14 b8be fd98 a0be 7a3e 47be 19ce 39be
00000100: 87e3 c5be d422 8bbe 92a1 a2be 62a1 92be
00000110: dd06 ecbd 782f 22bf 45ec dfbe e361 abbe
00000120: 58f5 44be 3c1c c5be b029 9bbe fbf5 acbe
00000130: 08a1 10bf 969a 6cbe 0381 84be aa05 a1be
00000140: 6a85 b1be 828d ab3c 68a9 77be 27c8 9cbe
00000150: b37e b1be 89c4 abbe b67d adbe f5ed 4abe
00000160: 1f5a 7abe 53ca c5be bf4f 93be 3358 6abe
00000170: 2ab7 b0bd b17c bbbe cb7b b2be 67e0 c3be
00000180: ca7b f7be 67f5 fbbe 0c67 15bf 83fd fdbe
00000190: d892 c6be 05b7 b2be c20e 55bd 2da2 4fbc
000001a0: 0577 ddbe d268 dbbe d55f 98be 359f 18bc
000001b0: bb53 77be 9f6a aebe 3b81 52be 8a57 0dbf
000001c0: d3ae 71be a972 d2bd 3583 ecbe 3d22 75be
000001d0: 8fa1 61be a679 00bf b576 a4be ba75 b4be
000001e0: a2b0 9bbe a988 b5be 377e 79be 92ec 54be
000001f0: d5d1 aebe c6c6 35bf 0f92 93be 3914 2cbf

fc3.weight f4 [256, 128]
-0.33615685 -0.2086432 -0.09613416 -0.2477553 -0.33237618 0.20326045 -0.28520602 -0.2702673
-0.26530707 -0.19737124 -0.28234187 0.18980359 -0.02463004 -0.2791401 -0.19119246 -0.20170358
-0.2747396 -0.31000972 -0.17049575 -0.23842119 -0.22864291 -0.24241021 -0.2977072 -0.25460204
-0.1887177 -0.24445337 -0.09141805 -0.04417585 -0.31835398 -0.21310529 -0.2676446 -0.0186375
-0.24128368 -0.22070667 -0.22914688 -0.0627867 -0.32856438 -0.29309013 -0.28616604 -0.10053718
0.0736004 -0.2831004 -0.27859995 -0.34435543 -0.010067973 -0.13896744 -0.29712144 -0.03037798
-0.27349427 -0.23461875 0.04163642 -0.28169426 -0.26743278 -0.32109046 -0.3161644 -0.018144773
-0.19015776 -0.29829836 -0.28309104 -0.32430923 -0.3262167 -0.3174097 0.17598496 -0.3200694
0.06234158 -0.2730547 -0.35039636 -0.24999377 0.066905886 -0.22638549 0.0067456746 -0.33526656
-0.21275419 -0.16187827 -0.23105904 -0.14666566 0.080233075 -0.18509078 -0.1866352 -0.27820092
-0.23771964 -0.25683752 0.033078574 -0.3317896 -0.2835948 -0.33404672 -0.28907692 0.24276385
-0.2841716 0.058771454 -0.33671567 0.01971846 -0.26866555 -0.23355193 -0.19927356 -0.3502194
-0.3485786 -0.04091174 -0.21559003 -0.026218336 -0.14723262 0.04960379 -0.24312711 -0.31079632
-0.29651394 -0.30938944 -0.28963798 -0.10184843 0.23257768 -0.18666092 -0.27413714 -0.26798072
-0.28432062 -0.27925965 -0.3378568 -0.251155 -0.25886452 -0.35606354 -0.21643221 0.22377297
-0.013659586 -0.15789524 -0.2791377 0.062401976 -0.31134596 -0.20686296 -0.22150183 -0.3178337
-0.26980713 -0.33935767 0.04552549 -0.23692195 -0.20721364 -0.30405974 -0.33767554 -0.20123576
-0.20436303 -0.2355592 -0.28544742 -0.11200859 -0.25523368 -0.2346062 -0.24398902 -0.19690095
-0.31905794 -0.22439058 -0.16279112 -0.3045829 -0.23000953 -0.24129409 -0.22545834 -0.20161927
-0.24278517 -0.22721933 -0.13688633 -0.23567957 -0.27682266 0.041588448 -0.33700752 -0.14026403
-0.25645804 -0.20171903 -0.2453071 -0.29394764 -0.23518902 -0.25829834 -0.25815722 -0.06888479
0.03828365 -0.33338505 -0.2901645 -0.20106947 -0.012467751 -0.0825252 -0.07146459 -0.042224914
-0.27647367 -0.25559133 -0.0719299 -0.23125684 -0.18935059 -0.18663256 -0.14322384 0.061222438
-0.12627235 -0.20340349 -0.1856375 -0.22472388 -0.3341888 -0.11036575 -0.28586757 -0.27777216
-0.07827643 -0.23302469 -0.29707918 -0.28732243 0.036741044 -0.17478041 0.069319285 -0.26481855
-0.24522856 -0.14382409 -0.25351065 -0.14315735 0.009767504 -0.16337927 -0.18868724 -0.1536932
-0.30595985 -0.2166126 0.024540266 -0.34434932 -0.2992064 -0.3022249 -0.15716238 -0.23384239
-0.16999716 -0.0622109 -0.17491786 0.026242666 -0.22912444 -0.1879427 -0.3063712 -0.22421177
-0.28714645 -0.19943568 -0.18680748 -0.079319805 -0.14175045 -0.3428036 -0.24236976 -0.11981868
-0.14134166 -0.31907552 -0.21463653 0.06649947 -0.04120702 -0.13280252 -0.2080482 -0.15801965
-0.2996339 -0.1761639 -0.31822872 -0.21105942 -0.2646372 -0.017260088 -0.18966478 -0.29205617
0.043406006 -0.015236244 -0.2602939 0.0127372695 -0.18782532 -0.21067691 -0.26624218 -0.3123283
00000000: c01c acbe 90a6 55be fde1 c4bd 91b3 7dbe
00000010: 362d aabe 8223 503e 8606 92be 7a60 8abe
00000020: 54d6 87be b01b 4abe 1d8f 90be df5b 423e
00000030: f0c4 c9bc 74eb 8ebe f5c7 43be 628b 4ebe
00000040: abaa 8cbe 98b9 9ebe 7096 2ebe af24 74be
00000050: 5e21 6abe 623a 78be 146d 98be 335b 82be
00000060: 363f 41be fc51 7abe 6339 bbbd bcf1 34bd
00000070: 4bff a2be 4638 5abe b708 89be acad 98bc
00000080: 1213 77be ee00 62be 7ba5 6abe 5096 80bd
00000090: 9739 a8be e90f 96be 5b84 92be 70e6 cdbd
000000a0: cebb 963d 89f2 90be a7a4 8ebe 5b4f b0be
000000b0: 24f4 24bc 7b4d 0ebe 4d20 98be 3edb f8bc
000000c0: 7107 8cbe e63f 70be f38a 2a3d 3b3a 90be
000000d0: f3ec 88be f865 a4be 4de0 a1be 59a4 94bc
000000e0: b7b8 42be 90ba 98be 4ff1 90be dc0b a6be
000000f0: e005 a7be 8683 a2be 6735 343e 23e0 a3be
00000100: e259 7f3d d3cd 8bbe 2767 b3be 5efe 7fbe
00000110: f405 893d 99d1 67be d20a dd3b 0fa8 abbe
00000120: 3cdc 59be 6bc3 25be be9a 6cbe 862f 16be
00000130: 3d51 a43d 7088 3dbe 4c1d 3fbe 5a70 8ebe
00000140: c76c 73be 3580 83be 667d 073d 54e0 a9be
00000150: 5633 91be 2c08 abbe e401 94be 1697 783e
00000160: f17e 91be 56ba 703d ff65 acbe 9c88 a13c
00000170: 888e 89be 3d28 6fbe 5e0e 4cbe f54f b3be
00000180: e578 b2be 1293 27bd a2c3 5cbe d6c7 d6bc
00000190: 26c4 16be 582d 4b3d 50f6 78be b220 9fbe
000001a0: add0 97be 4b68 9ebe 6e4b 94be e995 d0bd
000001b0: d828 6e3e 0a24 3fbe b45b 8cbe c534 89be
000001c0: 7992 91be 1ffb 8ebe 91fb acbe 6397 80be
000001d0: e489 84be f64d b6be 68a0 5dbe be24 653e
000001e0: 75cc 5fbc 4aaf 21be 23eb 8ebe 3799 7f3d
000001f0: bd68 9fbe e2d3 53be 60d1 62be 19bb a2be
00000200: 2924 8abe 4ac0 adbe f078 3a3d ab9b 72be
00000210: d02f 54be b8ad 9bbe cfe3 acbe bf10 4ebe
00000220: 8b44 51be 6e36 71be 2a26 92be c264 e5bd
00000230: fdad 82be 9c3c 70be 42d8 79be 67a0 49be
00000240: 905b a3be a5c6 65be b7b2 26be 4af2 9bbe
00000250: 9e87 6bbe cc15 77be 8dde 66be 4875 4ebe
00000260: ad9c 78be 2fac 68be ee2b 0cbe fc55 71be
00000270: b3bb 8dbe a658 2a3d 408c acbe 60a1 0fbe
00000280: 784e 83be 6f8f 4ebe c931 7bbe 4e80 96be
00000290: 64d5 70be ae3f 84be 2f2d 84be 7813 8dbd
000002a0: 51cf 1c3d 72b1 aabe 7190 94be 28e5 4dbe
000002b0: 8a45 4cbc f902 a9bd 075c 92bd 08f4 2cbd
000002c0: f58d 8dbe dedc 82be fc4f 93bd 98ce 6cbe
000002d0: 1fe5 41be 9b1c 3fbe 45a9 12be 61c4 7a3d
000002e0: 8a4d 01be 0149 50be c217 3ebe 041e 66be
000002f0: cb1a abbe 7007 e2bd 3c5d 92be 2738 8ebe
00000300: 654f a0bd 069e 6ebe c31a 98be ed1b 93be
00000310: c77d 163d a3f9 32be 45f7 8d3d 4c96 87be
00000320: 321d 7bbe 9f46 13be 26cc 81be d797 12be
00000330: e207 203c e54c 27be 3a37 41be c061 1dbe
00000340: c5a6 9cbe b2cf 5dbe ab08 c93c 8e4e b0be
00000350: 9531 99be 39bd 9abe 2def 20be 6174 6fbe
00000360: bc13 2ebe dbd0 7ebd ab1d 33be dcfa d63c
00000370: 999f 6abe 0d74 40be b0dc 9cbe c597 65be
00000380: dc04 93be de38 4cbe 764a 3fbe 6c72 a2bd
00000390: 0827 11be f483 afbe c72f 78be 7f63 f5bd
000003a0: debb 10be de5d a3be aec9 5bbe e030 883d
000003b0: b1c8 28bd 62fd 07be 960a 55be e7cf 21be
000003c0: 9d69 99be 4f64 34be e0ee a2be f61f 58be
000003d0: 877e 87be 0765 8dbc 7c37 42be 6388 95be
000003e0: 7fca 313d 70a1 79bc 3e45 85be fbaf 503c
000003f0: 4855 40be b0bb 57be e550 88be 7fe9 9fbe

fc3.bias f4 [256]
-0.19620775 -0.29510677 -0.26171112 0.07120377 -0.2686216 -0.29214314 -0.28791168 0.0006470613
-0.12170496 -0.3929377 -0.303198 -0.16200246 -0.13707283 -0.202924 -0.2810177 -0.3360273
-0.22011118 -0.20346904 -0.183853 -0.41801822 -0.21691316 -0.27992603 0.08189747 -0.3184576
-0.10004489 -0.1487746 -0.19852456 -0.26832944 -0.19323295 -0.2610798 -0.2904452 -0.30951354
-0.2307483 -0.0075216186 -0.11108269 -0.20836473 -0.2660561 -0.29632387 -0.26705536 -0.1880196
-0.39617762 -0.22486427 -0.3021039 -0.22965603 -0.41409945 -0.32754064 -0.19310689 -0.30375233
-0.32000524 -0.26204446 -0.23333827 -0.27467427 -0.21232979 -0.43235055 0.12777105 -0.11954969
0.11217278 -0.48347417 -0.19718443 -0.29100722 -0.31901297 -0.2768636 -0.27732846 -0.285225
-0.34127456 -0.25261736 -0.100641854 -0.24271724 -0.29627016 -0.23095618 -0.2916666 0.122649856
-0.36928603 -0.5969685 -0.29482704 -0.20822501 -0.4761148 0.12227012 -0.17282055 0.17963785
-0.26526713 -0.604215 -0.28593355 -0.19668485 -0.20435497 -0.3444009 -0.24903183 -0.20954582
-0.19331129 0.13025814 -0.33702007 -0.028063327 -0.21574578 -0.13295367 -0.2480483 -0.27112642
-0.24534205 -0.24151362 -0.18819356 -0.28459767 -0.09775128 -0.1938918 -0.59829617 0.07357322
-0.28241736 -0.21818985 -0.3212586 -0.033017915 -0.20447634 -0.25903857 -0.33153346 -0.091306895
-0.1917238 -0.05331092 -0.09785835 -0.48061892 -0.24817812 -0.3138629 -0.17617953 0.10821655
-0.24277896 -0.2439681 -0.37704408 -0.21568842 -0.12384337 -0.07690076 -0.5724458 0.09703276
-0.12832026 -0.24926244 -0.19990271 -0.087066926 -0.036550783 -0.36004522 -0.2515395 -0.07852414
-0.23175582 0.15339117 -0.21623825 -0.2713339 -0.19850972 -0.21637997 -0.25143352 -0.2615046
-0.19592214 -0.18216586 -0.07474515 -0.013576265 -0.19007015 -0.26932368 -0.3027825 -0.2594927
-0.31307852 -0.33937442 -0.36850572 0.105833836 -0.23250014 0.1208988 -0.19533964 -0.2429651
-0.2778032 0.24812807 -0.23286441 -0.32171422 -0.20807593 -0.34270307 -0.19096369 -0.11772404
-0.3305505 -0.26697066 -0.07023833 -0.25073078 -0.31670216 -0.37928528 -0.2920689 -0.2086936
-0.2642124 -0.38250175 -0.31595147 -0.16207495 -0.10900827 -0.22884876 -0.21430176 -0.12690207
-0.25914624 -0.18215834 -0.25620794 -0.28284654 -0.27087283 -0.31298697 -0.3750448 -0.06601551
-0.2505473 0.07377309 -0.24792545 -0.22332084 -0.2204055 -0.28684226 -0.23056215 0.09486654
-0.48803413 -0.19114305 -0.3328851 -0.27256334 -0.18850446 -0.14378406 -0.6006434 -0.20630197
0.16722766 -0.1923416 -0.3389107 -0.2103201 -0.33176425 -0.25968996 -0.42484662 -0.26263583
-0.2238749 -0.24649185 -0.22346523 -0.22611982 -0.30351236 -0.2383314 -0.22469407 -0.27439988
-0.27443522 -0.18070468 -0.1461728 -0.27045348 -0.27312788 0.1410767 -0.09366952 -0.2054516
-0.26066253 -0.21641377 -0.26760557 -0.2783042 -0.25155637 0.15081637 -0.32729802 -0.0009907843
0.09099088 -0.17386603 0.006161397 0.112415805 -0.16957863 -0.31217915 -0.31038114 -0.44425517
-0.24126479 -0.29036894 -0.2361896 -0.22045039 -0.044132292 -0.1904469 -0.37172815 -0.2664891
00000000: afea 48be 3c18 97be 00ff 85be 48d3 913d
00000010: c588 89be c993 95be 2969 93be 8c9f 293a
00000020: 7340 f9bd 212f c9be c53c 9bbe f9e3 25be
00000030: d25c 0cbe 4fcb 4fbe 8de1 8fbe c50b acbe
00000040: d364 61be 305a 50be f643 3cbe 7c06 d6be
00000050: 7c1e 5ebe 7752 8fbe dcb9 a73d e00c a3be
00000060: 56e4 ccbd 5e58 18be 064a 4bbe 7a62 89be
00000070: dcde 45be 40ac 85be 3cb5 94be 8f78 9ebe
00000080: 4849 6cbe e977 f6bb 527f e3bd 905d 55be
00000090: 8138 88be c3b7 97be 7bbb 88be 3688 40be
000000a0: cbd7 cabe d242 66be 5dad 9abe f32a 6bbe
000000b0: d804 d4be 68b3 a7be d0bd 45be 6d85 9bbe
000000c0: bad7 a3be b12a 86be 3af0 6ebe 1ba2 8cbe
000000d0: fb6c 59be 0d5d ddbe 6ad6 023e 78d6 f4bd
000000e0: d8ba e53d ed89 f7be b7ea 49be e6fe 94be
000000f0: ab55 a3be 11c1 8dbe fffd 8dbe 0309 92be
00000100: 8abb aebe 1057 81be 511d cebd de8a 78be
00000110: b9b0 97be c77f 6cbe 5355 95be d92f fb3d
00000120: 0f13 bdbe edd2 18bf 92f3 96be f038 55be
00000130: 52c5 f3be c268 fa3d dff7 30be fcf2 373e
00000140: 18d1 87be d6ad 1abf e265 92be c167 49be
00000150: 6e42 51be 5155 b0be 3302 7fbe 2e93 56be
00000160: 65f3 45be 6462 053e e58d acbe 10e5 e5bc
00000170: 76ec 5cbe 0225 08be 6000 7ebe 15d1 8abe
00000180: f23a 7bbe 594f 77be d0b5 40be c9b6 91be
00000190: d331 c8bd 928b 46be f029 19bf 8ead 963d
000001a0: 0299 90be 296d 5fbe 027c a4be cb3d 07bd
000001b0: 3f62 51be b4a0 84be c1be a9be 1cff babd
000001c0: 3e53 44be 8d5c 5abd f569 c8bd af13 f6be
000001d0: 6822 7ebe a3b2 a0be 6868 34be a3a0 dd3d
000001e0: 0c9b 78be c6d2 79be ec0b c1be 6ddd 5cbe
000001f0: 98a1 fdbd 257e 9dbd cf8b 12bf 1db9 c63d
00000200: 6366 03be a73e 7fbe 4cb3 4cbe 2550 b2bd
00000210: 46b6 15bd d957 b8be c9c9 80be 44d1 a0bd
00000220: 6651 6dbe 9312 1d3e 8f6d 5dbe 47ec 8abe
00000230: 2246 4bbe b692 5dbe e5bb 80be eee3 85be
00000240: d09f 48be b089 3abe fc13 99bd fc6e 5ebc
00000250: c0a1 42be cbe4 89be 4f06 9bbe 3adc 84be
00000260: d44b a0be 7cc2 adbe c8ac bcbe 69bf d83d
00000270: 8414 6ebe ca99 f73d 1d07 48be d8cb 78be
00000280: 393c 8ebe 4915 7e3e 0274 6ebe bab7 a4be
00000290: db11 55be c776 afbe fc8b 43be 4d19 f1bd
000002a0: ea3d a9be 61b0 88be 1dd9 8fbd c95f 80be
000002b0: c926 a2be ae31 c2be 0e8a 95be c6b3 55be
000002c0: d946 87be 45d7 c3be 64c4 a1be faf6 25be
000002d0: ba3f dfbd 5457 6abe ec71 5bbe 9ef2 01be
000002e0: d1ae 84be b787 3abe b02d 83be 43d1 90be
000002f0: d8af 8abe d43f a0be df05 c0be 2433 87bd
00000300: bc47 80be 5916 973d 2be0 7dbe 38ae 64be
00000310: fbb1 61be fddc 92be 7c18 6cbe 6349 c23d
00000320: 9cdf f9be 01bb 43be ea6f aabe 6c8d 8bbe
00000330: 5007 41be 213c 13be c4c3 19bf d340 53be
00000340: ba3d 2b3e 32f5 44be b485 adbe 275e 57be
00000350: 01dd a9be 15f6 84be 7f85 d9be 3478 86be
00000360: 763f 65be 5c68 7cbe 12d4 64be f48b 67be
00000370: f965 9bbe 260d 74be 3416 66be 247e 8cbe
00000380: c682 8cbe a60a 39be 53ae 15be e178 8abe
00000390: 6bd7 8bbe 6976 103e ced5 bfbd e761 52be
000003a0: 8f75 85be 929b 5dbe 9903 89be e37d 8ebe
000003b0: ffcb 80be 9b6f 1a3e 9b93 a7be 34dd 81ba
000003c0: 6d59 ba3d f009 32be 8be5 c93b 423a e63d
000003d0: 05a6 2dbe f2d5 9fbe 47ea 9ebe 6a75 e3be
000003e0: 1e0e 77be 3dab 94be b0db 71be bfbd 61be
000003f0: 10c4 34bd 8304 43be 2753 bebe 4271 88be

fc_policy.weight f4 [9, 256]
0.198352 0.21550451 0.54820925 1.5596017 0.3178775 0.33324066 0.31196702 1.2985885
0.25953868 0.27049744 0.25829113 0.9935266 -0.034776624 0.19772558 1.1816018 0.27564016
0.5458831 0.8327537 0.25045627 0.97019386 0.34340638 0.3223906 1.3693763 0.30734318
-0.00894738 1.0436953 0.34515154 0.32414368 0.27502257 0.2418771 0.2694646 0.29732892
0.29693308 0.9345722 1.2388303 0.1987757 -0.003453745 0.28512633 0.28371793 0.2869328
0.9703823 0.27367398 0.30588552 0.22929531 0.7940059 0.2830676 0.29316586 0.01181488
0.32459378 0.3503293 0.29028845 0.20788412 -0.027295057 0.93464035 0.5204167 1.2292005
1.5799996 0.8402274 0.32576996 0.015835814 0.3280387 0.051344458 0.3427959 0.2850209
0.27723178 0.23427513 0.08394815 0.26929513 0.28356728 0.32769874 0.3399866 1.4689848
0.33646166 0.6947279 0.24550061 0.5436289 0.25502315 1.5701442 0.21129829 1.5791053
1.4408643 0.5764928 0.64092517 0.33574235 0.3219977 0.20818865 0.22423771 0.16736387
0.18419795 1.4906567 0.17996623 0.40568024 0.1601771 1.411448 0.3199719 0.3401815
0.27710205 1.0014081 0.0048557334 0.2757541 0.1818396 0.17255998 0.6226751 1.3959657
0.3081157 0.2934367 0.34357703 1.2717139 0.108727895 0.24049829 0.33340403 0.39431798
1.2556583 -0.0073668966 -0.026640764 0.24858697 0.2672156 0.3233966 0.288135 1.3862997
0.3513623 1.1272359 0.2400241 0.19933079 0.055319816 0.6457383 0.7771614 0.64406335
-0.021826545 0.29949236 0.09285763 0.7308536 1.3686608 1.0636041 0.33995345 0.8877231
0.3072988 1.5841875 0.27553695 0.9262205 0.35000008 0.27159038 0.23658533 0.10074103
0.88736016 0.2847944 0.84708655 1.3330708 1.4774864 1.1651531 0.2957021 0.28305095
0.30679873 0.13653532 0.9451442 1.5515764 0.29019162 1.3975732 -0.03879352 0.3382425
0.25215104 1.5824791 0.18284042 0.3441606 0.23185326 0.013612319 0.3116128 1.4100217
0.33680382 0.29415834 -0.028097993 0.22185342 1.1886853 0.97212857 0.27518636 0.31060112
0.0897009 0.945219 0.32602125 0.26674232 -0.0085191885 0.30245745 0.30952474 0.1845966
1.4065292 1.4442527 0.288123 0.25623575 0.3116259 0.3314971 0.09048422 1.1508347
0.62871546 1.4246283 0.31240875 0.24783829 0.29683346 0.33549136 0.32682592 1.4074862
0.2696244 0.32089838 0.18885937 0.04263911 0.33865714 1.206934 0.5478471 0.53735423
1.586923 0.14308672 0.29616186 0.34331805 0.18998772 0.3443601 0.9756284 1.1582835
0.2981773 0.2960996 0.3350498 0.3105198 0.27215585 0.09854838 1.1638451 0.32850656
0.2559078 -0.019879093 1.3708609 0.33787408 1.1664966 1.4723628 -0.011391522 0.28973404
0.8863604 0.32564285 0.27832603 0.23384386 0.16613448 1.4427365 0.2312366 -0.0355673
1.3704592 0.2517791 1.514172 1.5777646 -0.003825327 0.20298967 0.2796053 0.30552554
0.32397038 0.34511048 0.26327217 0.23752691 0.42154026 -0.020219373 0.92097414 0.18704665
00000000: c91c 4b3e 37ad 5c3e 7157 0c3f 07a1 c73f
00000010: d7c0 a23e 859e aa3e 24ba 9f3e 2638 a63f
00000020: 41e2 843e a47e 8a3e bc3e 843e c257 7e3f
00000030: ef71 0ebd 9378 4a3e ba3e 973f b520 8d3e
00000040: ffbe 0b3f 592f 553f ce3b 803e a05e 783f
00000050: f6d2 af3e 6110 a53e b947 af3f 165c 9d3e
00000060: 0898 12bc cf97 853f b4b7 b03e 29f6 a53e
00000070: c2cf 8c3e a1ae 773e 44f7 893e 7f3b 983e
00000080: 9d07 983e 2040 6f3f fe91 9e3f db8b 4b3e
00000090: 3a58 62bb 14fc 913e 7a43 913e dbe8 923e
000000a0: f96a 783f ff1e 8c3e 079d 9c3e 64cc 6a3e
000000b0: f843 4b3f 3dee 903e d619 963e 3393 413c
000000c0: 2831 a63e 5d5e b33e b0a0 943e 93df 543e
000000d0: e299 dfbc 9744 6f3f 073a 053f 7156 9d3f
000000e0: 6d3d ca3f 2519 573f 52cb a63e 1cba 813c
000000f0: b0f4 a73e 914e 523d f282 af3e 42ee 913e
00000100: 53f1 8d3e d2e5 6f3e 02ed ab3d 0de1 893e
00000110: bb2f 913e 21c8 a73e b912 ae3e b207 bc3f
00000120: b444 ac3e b0d9 313f 8364 7b3e 432b 0b3f
00000130: 6592 823e 7cfa c83f 945e 583e 1f20 ca3f
00000140: 3e6e b83f 0895 133f ac13 243f 6ce6 ab3e
00000150: e2dc a43e 682f 553e 929e 653e 6f61 2b3e
00000160: 639e 3c3e d7cd be3f 1149 383e 52b5 cf3e
00000170: 7705 243e 54aa b43f 5bd3 a33e 452c ae3e
00000180: 52e0 8d3e 242e 803f d81c 9f3b a42f 8d3e
00000190: 2934 3a3e 90b3 303e a367 1f3f 01af b23f
000001a0: 57c1 9d3e 563d 963e 54e9 af3e 85c7 a23f
000001b0: bbac de3d 2f45 763e efb3 aa3e 0ce4 c93e
000001c0: 69b9 a03f 0266 f1bb bb3d dabc 958d 7e3e
000001d0: 7cd0 883e 3d94 a53e 6e86 933e 4572 b13f
000001e0: c2e5 b33e 4449 903f e1c8 753e 5f1d 4c3e
000001f0: 0897 623d 1b4f 253f 0df4 463f 56e1 243f
00000200: 95cd b2bc 1057 993e 242c be3d 3919 3b3f
00000210: 4730 af3f 2e24 883f 610e ae3e d241 633f
00000220: 4556 9d3e a8c6 ca3f 2e13 8d3e c91c 6d3f
00000230: 3633 b33e e50d 8b3e 6d43 723e 5051 ce3d
00000240: 092a 633f 92d0 913e aada 583f 10a2 aa3f
00000250: 461e bd3f bd23 953f 4466 973e 0eec 903e
00000260: b914 9d3e eacf 0b3e f8f4 713f 0e9a c63f
00000270: ff93 943e aee3 b23f f4e5 1ebd 1f2e ad3e
00000280: f119 813e ad8e ca3f 853a 3b3e d135 b03e
00000290: f16a 6d3e 3406 5f3c b78b 9f3e 977b b43f
000002a0: 8d71 ac3e ec9b 963e c32d e6bc 8b2d 633e
000002b0: d726 983f 6bdd 783f 3ae5 8c3e 1c07 9f3e
000002c0: 1bb5 b73d dff9 713f 42ec a63e 7392 883e
000002d0: 1194 0bbc b4db 9a3e 077a 9e3e e406 3d3e
000002e0: 2609 b43f 46dd b83f dc84 933e 5531 833e
000002f0: 6e8d 9f3e fdb9 a93e ca4f b93d 8d4e 933f
00000300: 7ff3 203f 385a b63f 0af4 9f3e 52c9 7d3e
00000310: 8efa 973e 86c5 ab3e ba55 a73e 8228 b43f
00000320: 360c 8a3e cb4c a43e 5a64 413e 59a6 2e3d
00000330: 7864 ad3e d07c 9a3f b53f 0c3f 0c90 093f
00000340: 4b20 cb3f 5385 123e 87a2 973e 62c7 af3e
00000350: 248c 423e f84f b03e c8c2 793f a242 943f
00000360: b2aa 983e 5e9a 973e a68b ab3e 74fc 9e3e
00000370: 0358 8b3e bcd3 c93d e0f8 943f 0332 a83e
00000380: 5906 833e 7bd9 a2bc 5f78 af3f d5fd ac3e
00000390: c34f 953f 6276 bc3f 82a3 3abc 0558 943e
000003a0: 84e8 623f a9ba a63e c080 8e3e c474 6f3e
000003b0: 281f 2a3e 97ab b83f 4ac9 6c3e 04af 11bd
000003c0: 356b af3f 31e9 803e 63d0 c13f 31f4 c93f
000003d0: 56b2 7abb 86dc 4f3e 6d28 8f3e d86d 9c3e
000003e0: 72df a53e 52b2 b03e 9ccb 863e 413a 733e
000003f0: 20d4 d73e 19a3 a5bc f6c4 6b3f 2889 3f3e

fc_policy.bias f4 [9]
1.434931 -1.4938924 -1.4642528 -1.516902 -1.4247206 -1.4768833 -1.480606 -1.5088693
-1.5216432
00000000: d2ab b73f de37 bfbf a36c bbbf d829 c2bf
00000010: 3f5d b6bf 830a bdbf 7f84 bdbf a122 c1bf
00000020: 34c5 c2bf

fc_value.weight f4 [1, 256]
0.20678043 0.2592104 -0.0017631135 -0.10547307 0.21822217 0.23221295 0.2644538 -0.102579944
-0.028332401 0.10562686 0.2650307 -0.15558645 0.23053637 -0.15953405 -0.020929148 0.22355339
0.1287987 0.017142028 0.14095344 0.002125208 0.251865 0.21277687 -0.096015684 0.21254821
0.03149467 0.13611774 0.2013306 0.2651445 0.22348368 0.20271617 0.24172091 0.2213176
0.20845872 -0.099799804 0.0712314 0.14477725 0.19453938 0.26246077 0.2574261 0.24366544
-0.02787723 0.226276 0.24342348 0.25003996 -0.006284382 0.2341961 0.23657715 0.20719
0.26414874 0.21757853 0.21616535 -0.017574068 0.10455452 0.0137542235 0.34418613 -0.09468633
-0.109607145 0.1883025 0.23859066 0.2099649 0.2564179 0.25629538 0.23135921 0.25381294
0.2125879 0.20402461 -0.00025998428 0.22640118 0.25899458 0.24004191 0.24942957 -0.20119008
-0.03728301 0.038232137 0.23785624 0.12763578 0.0727397 -0.10735287 0.18619162 -0.1182907
0.012958734 0.03356621 0.12404549 0.21823283 0.20450379 -0.003750982 0.042939346 0.24593724
-0.109751455 0.100835815 0.26547897 0.021053847 -0.07670994 -0.01949475 0.23535454 0.23624457
0.23016822 0.07674596 0.11216429 0.25207558 -0.18156147 -0.17170763 -0.029145522 -0.1134302
0.22877586 0.24917835 0.23181699 -0.13056596 0.2623492 0.20448229 0.2073119 -0.119312115
0.028601585 -0.052381076 0.14785145 0.05938392 0.078898184 0.23226678 0.12366844 -0.16391397
0.21288325 0.0084119225 0.079451315 0.26346222 0.023064196 0.14126086 -0.014154773 0.1940084
0.04663899 0.20787652 0.20549837 0.16385004 -0.068760164 -0.01835548 0.23002984 -0.018913943
0.21740533 -0.10222479 0.24049252 0.08607706 0.23401879 0.2254089 0.24387664 0.22383776
-0.12777506 0.20511696 0.0059042014 -0.050626144 0.102896936 -0.03446255 0.2036961 0.23047315
0.24327095 0.19479053 -0.05086291 -0.07637562 0.20243937 -0.14076446 0.18105647 0.23557033
0.22552219 -0.04448836 0.24318448 0.2203303 0.24060331 0.22900906 0.2079907 -0.031008156
0.26553527 0.2216479 0.005626924 0.19320935 -0.026257519 0.0077458667 0.22378094 0.2508329
0.25525936 -0.033143867 0.2356352 0.031137127 0.017425876 0.21113741 0.264753 -0.15392147
0.0072536212 0.090546824 0.26114267 0.20094605 0.240648 0.22264121 0.19509126 -0.114893705
-0.11948225 -0.09276465 0.20783609 0.21615279 0.20664589 0.20820579 0.23447601 -0.096447386
0.00223296 0.22301182 0.21961537 0.2331379 0.20106603 -0.059610724 -0.017584994 0.13807791
-0.11995995 0.24483325 0.2223898 0.22213873 0.2554618 0.22105679 -0.0041118823 -0.008435694
0.26275674 0.20393503 0.25133115 0.21225695 0.2656715 -0.00082867825 0.03986656 0.21829656
0.20504837 -0.09264605 -0.005832178 0.22855717 -0.025582824 -0.24287996 0.14194487 0.21351968
-0.09374914 0.216082 0.20928654 0.22523904 0.20885661 0.10008649 0.013543911 -0.09811191
-0.081505686 -0.029334571 -0.10521833 -0.08294392 -0.14230679 0.12373339 0.2518839 0.08124377
0.24391276 0.21477705 0.21754736 0.20694864 0.010658171 0.13458796 0.022939054 0.20007473
00000000: 40be 533e 3ab7 843e 4618 e7ba 4402 d8bd
00000010: a275 5f3e 3bc9 6d3e 7d66 873e 6f15 d2bd
00000020: 5a19 e8bc e552 d83d 1bb2 873e 0e52 1fbe
00000030: ba11 6c3e e55c 23be 9b73 abbc 2eeb 643e
00000040: cee3 033e 706d 8c3c 1956 103e 1347 0b3b
00000050: 73f4 803e 2ee2 593e dfa3 c4bd 3da6 593e
00000060: 8e00 013d 7362 0b3e 9c29 4e3e 05c1 873e
00000070: e8d8 643e d494 4f3e b085 773e 15a1 623e
00000080: 3476 553e d763 ccbd c5e1 913d 7d40 143e
00000090: 5535 473e 4261 863e 5bcd 833e 6f83 793e
000000a0: ca5e e4bc e5b4 673e 0144 793e 3d05 803e
000000b0: 38ed cdbb 1ad1 6f3e 4841 723e 9e29 543e
000000c0: 813e 873e e8cc 5e3e 735a 5d3e 7ef7 8fbc
000000d0: ae20 d63d 6559 613c 2a39 b03e e8ea c1bd
000000e0: b679 e0bd 5fd2 403e 1c51 743e 0a01 573e
000000f0: 3549 833e 2639 833e 6ee9 6c3e c5f3 813e
00000100: a4b0 593e d4eb 503e 804e 88b9 b6d5 673e
00000110: f09a 843e 8ccd 753e 776a 7f3e c604 4ebe
00000120: 12b6 18bd 4d99 1c3d 9690 733e f4b2 023e
00000130: 8df8 943d d2db dbbd 04a9 3e3e 6542 f2bd
00000140: df50 543c b97c 093d 900b fe3d 6d78 5f3e
00000150: 7169 513e 09d3 75bb 2be1 2f3d f9d6 7b3e
00000160: 5fc5 e0bd 0283 ce3d dcec 873e 1e79 ac3c
00000170: 1a1a 9dbd 74b3 9fbc c800 713e 19ea 713e
00000180: 38b1 6b3e fc2c 9d3d 64b6 e53d 0d10 813e
00000190: 40eb 39be 20d4 2fbe 97c2 eebc 184e e8bd
000001a0: 3844 6a3e 9c28 7f3e 6f61 6d3e 15b3 05be
000001b0: a252 863e ce63 513e 9249 543e e959 f4bd
000001c0: df4d ea3c 8a8d 56bd 5f66 173e 8e3c 733d
000001d0: 5f95 a13d 58d7 6d3e e145 fd3d 10d9 27be
000001e0: 11fe 593e 29d2 093c 5fb7 a23d 85e4 863e
000001f0: 20f1 bc3c b0a6 103e 6ce9 67bc 23aa 463e
00000200: 8708 3f3d 95dd 543e 2a6e 523e 4ec8 273e
00000210: 21d2 8cbd 3b5e 96bc f18c 6b3e 6af1 9abc
00000220: 819f 5e3e 3b5b d1bd ac43 763e 2b49 b03d
00000230: 9fa2 6f3e 97d1 663e ccba 793e ba35 653e
00000240: 77d7 02be 2e0a 523e 0878 c13b 5c5d 4fbd
00000250: a1bb d23d 9a28 0dbd b695 503e 2701 6c3e
00000260: 051c 793e 2b77 473e a055 50bd d26a 9cbd
00000270: 444c 4f3e 8f24 10be de66 393e 5939 713e
00000280: 4aef 663e 6d39 36bd 5a05 793e 449e 613e
00000290: b760 763e 5a81 6a3e 84fb 543e d104 febc
000002a0: 3df4 873e abf7 623e 0f62 b83b acd8 453e
000002b0: 021a d7bc 0ad1 fd3b d526 653e 2b6d 803e
000002c0: 5bb1 823e ddc1 07bd 5b4a 713e 4a13 ff3c
000002d0: b6c0 8e3c 6834 583e b58d 873e 979d 1dbe
000002e0: c9af ed3b 9d70 b93d 7eb4 853e cdc4 4d3e
000002f0: 6e6c 763e 0ffc 633e 01c6 473e 644d ebbd
00000300: 1cb3 f4bd 65fb bdbd fcd2 543e 2857 5d3e
00000310: fb9a 533e e633 553e 7b1a 703e 3586 c5bd
00000320: da56 123b 365d 643e dae2 603e b4bb 6e3e
00000330: 41e4 4d3e 602a 74bd 680e 90bc 4c64 0d3e
00000340: 90ad f5bd 91b5 7a3e 27ba 633e 5678 633e
00000350: e4cb 823e b65c 623e f8bc 86bb dd35 0abc
00000360: 0d88 863e 58d4 503e 7aae 803e e359 593e
00000370: 1806 883e a83b 59ba 1e4b 233d 2289 5f3e
00000380: 33f8 513e 36bd bdbd db1b bfbb e40a 6a3e
00000390: 1293 d1bc 86b5 78be ff59 113e e7a4 5a3e
000003a0: 8dff bfbd 9a44 5d3e 364f 563e 10a5 663e
000003b0: 82de 553e 25fa cc3d 48e7 5d3c e6ee c8bd
000003c0: 74ec a6bd 0e4f f0bc b57c d7bd 80de a9bd
000003d0: dfb8 11be ee67 fd3d edf6 803e 2263 a63d
000003e0: 44c4 793e 84ee 5b3e bcc4 5e3e 58ea 533e
000003f0: 9c9f 2e3c 6dd1 093e afea bb3c 64e0 4c3e
