Models/enhanced_model_saved.pth (torch, 254967 bytes, 11 tensors)

conv.weight f4 [32, 1, 3, 3]
000000 aa 4e 6b 3e c2 eb 51 3e be b8 07 3e 40 3f e4 3d
       0.22979227 0.2050009 0.13254067 0.111448765
000010 d8 0a 2f 3d 4b 92 2e be a0 a9 1b 3e 3b 89 1c be
       0.04273495 -0.17047994 0.15201426 -0.15286724
000020 88 e9 78 bd f3 0d 29 be a2 0d 00 3e ca d8 35 3e
       -0.060769588 -0.16509227 0.125052 0.1775848
000030 94 a9 c0 3d ba cb 42 3e c4 bb 82 3d 00 d8 85 be
       0.094073445 0.19023028 0.0638347 -0.26141357
000040 04 32 b4 3d 0c e3 f5 bd 00 dd 41 bc b0 fe 95 3c
       0.08798602 -0.120061964 -0.011832476 0.018309921
000050 d0 a5 bf bc 80 1c c3 3d d1 57 a4 3e c0 b4 4c be
       -0.023394495 0.0952692 0.3209825 -0.19990826
000060 ee 15 5a be 10 9c 28 3e d8 0c 2b bd 7a 4f 42 3e
       -0.21297428 0.16465783 -0.041760296 0.1897563
000070 38 21 35 be 4c 87 88 3d 9b 62 43 be 20 17 84 bd
       -0.17688453 0.06666431 -0.19080584 -0.06449723
000080 50 ab ee bd 00 84 10 3b 38 9c 68 3d 5c 77 86 bd
       -0.11653769 0.0022051334 0.056789607 -0.06565735
000090 76 3d 72 3e eb 68 21 be 66 53 36 be 68 7e 74 3d
       0.23656258 -0.1576268 -0.17805251 0.059690863
0000a0 20 88 4c bd 5b 60 18 be a9 9b 9c 3e c6 08 31 3e
       -0.049934506 -0.14880507 0.3058751 0.17288503
0000b0 e2 64 5c 3e 18 e5 6d 3d f6 90 6d 3e b0 b5 08 3e
       0.21522859 0.05807981 0.2319983 0.13350558
0000c0 d0 b7 6b be d4 36 a0 be 96 e8 8d be 8a 6c 6d 3e
       -0.23019338 -0.3129183 -0.2771651 0.23185936
0000d0 d3 36 89 3e 77 b5 8c be 32 1a 6f 3e 20 f9 2f be
       0.2679964 -0.27482197 0.23349836 -0.17184877
0000e0 c6 71 ad bd 08 28 08 3d fc 95 fd 3d a2 d2 37 3e
       -0.08468966 0.0332413 0.12382123 0.17951444
0000f0 72 de 26 3e 66 91 c5 bd 00 99 b6 3b 7c c9 c2 bd
       0.16295794 -0.09646873 0.0055724382 -0.09511086
000100 90 b6 be bc bc 2a be 3d 98 03 8d be cf bf 8a be
       -0.023280412 0.09285495 -0.27541804 -0.27099463
000110 57 81 a4 3e 1d e8 88 3e 70 e1 48 be 72 39 58 3e
       0.32129928 0.26739588 -0.19617248 0.21115664
000120 bb 2a 98 3e d4 3c d4 3d 2b 32 a0 be 81 fd a9 3e
       0.297201 0.103631645 -0.31288275 0.3320122
000130 00 49 cd 3b ab 9c 88 3e d2 c6 6c 3e 30 07 c8 bd
       0.006264806 0.26682028 0.23122719 -0.09766996
000140 6b b2 21 be d6 e5 48 be 8d f5 8d 3e 00 74 b1 3d
       -0.15790717 -0.19618925 0.27726403 0.08664703
000150 32 e6 2e 3e cb 1d 8e be a6 fa 20 be 78 4b 0a bd
       0.1708 -0.27757105 -0.15720615 -0.03376338
000160 30 0e 9a 3c d8 54 06 3e 42 c7 24 3e 13 b0 5f be
       0.018805593 0.13118303 0.16091636 -0.2184451
000170 6e 62 31 3e c0 1d de bd 96 89 79 be 66 c1 92 be
       0.17322704 -0.10845518 -0.24368891 -0.28663176
000180 dc 4f cb bd 36 41 1b be 00 b3 95 bd 37 fc a1 be
       -0.09927341 -0.15161595 -0.07309532 -0.31637737
000190 dc 5e a7 3d 46 47 0c 3e f6 0f 67 be 00 da fc 3c
       0.0817239 0.13699064 -0.22564682 0.03086567
0001a0 88 a6 6c 3d 00 c2 2b bb 6e a9 3a be 5f a7 9c be
       0.057776004 -0.0026208162 -0.18228695 -0.30596444
0001b0 78 84 1d bd 96 8d 7f be 6c 3c c5 3d b9 52 88 3e
       -0.03845641 -0.24956354 0.09630665 0.26625612
0001c0 78 45 77 be 6e 50 55 be 0e a6 2c be 90 26 91 3c
       -0.24147594 -0.20831463 -0.1686022 0.017718583
0001d0 ee 7d 33 3e 00 44 8d bc e6 db 8f be 2c a4 ff bd
       0.17528507 -0.017244339 -0.28097457 -0.12482485
0001e0 58 11 3a be 00 73 f3 3d 66 f6 c1 bd 40 78 e3 bd
       -0.18170679 0.11887169 -0.09470825 -0.1110692
0001f0 dd 51 94 3e 9b e6 8f be 9e e7 38 be 3e 38 98 be
       0.28968707 -0.28105626 -0.18057105 -0.2973041
000200 80 fd 03 3c 50 21 81 bc b1 88 a2 3e 18 bf 84 be
       0.008056045 -0.015762955 0.31744912 -0.25927043
000210 40 95 87 bd 32 c3 33 3e b3 26 9b 3e 40 ca 1e 3e
       -0.06620264 0.1755493 0.30302963 0.1550684
000220 e8 9c 7e be b6 c8 aa bd 1f b0 a5 3e 9c 59 cd bd
       -0.24864542 -0.08339064 0.32360932 -0.10026857
000230 4c 70 9f 3d b2 23 04 3e b8 0f 99 be 1a 7b 3c 3e
       0.07785091 0.12904242 -0.29894805 0.18406335
000240 c0 a8 85 bb a2 7f 25 3e b0 a6 b2 3d 30 a9 de 3c
       -0.0040789545 0.1616197 0.08723199 0.027180284
000250 06 ce 28 be f8 5f 29 3e 4b 7e 9e 3e 32 52 1a 3e
       -0.16484842 0.16540515 0.3095573 0.15070418
000260 30 05 e4 3d 32 8d 77 3e 00 f4 bf bd 20 87 54 3c
       0.11133802 0.24174955 -0.09372711 0.012971669
000270 81 5b 85 3e f0 99 cf 3d 13 9b a4 3e 9b 99 89 3e
       0.26046374 0.10136783 0.32149562 0.26875004
000280 c0 84 84 bb 08 77 3e bd c8 da 7d 3d 79 d8 98 3e
       -0.0040441453 -0.046500236 0.061976224 0.29852656
000290 50 75 b0 3d c6 13 13 3e a6 75 3f be 53 aa 62 be
       0.086161256 0.14363012 -0.18697223 -0.22135286
0002a0 48 48 10 3e e5 a8 87 3e 0f d1 95 be 1e e0 6c 3e
       0.14090073 0.26496044 -0.29261062 0.23132369
0002b0 de 48 7b 3e 4e 0a 2e 3e a0 31 a4 bd 54 0c ce 3d
       0.24539515 0.16996118 -0.08017278 0.10060945
0002c0 d5 fe 8c 3e ac ff 92 3d aa eb 81 be 22 5c 47 3e
       0.2753817 0.07177672 -0.2537511 0.1946874
0002d0 80 d1 a0 be b0 17 c9 bc e6 a2 09 be 3f ac a5 3e
       -0.31409836 -0.024547428 -0.13441047 0.32357976
0002e0 1c 19 c4 bd 4e 38 36 be d8 52 52 3d 20 03 0e 3e
       -0.09575102 -0.17794916 0.051348537 0.1386838
0002f0 7f 1a 84 be 84 f3 e6 3d 02 bc 2f 3e b8 45 19 bd
       -0.25801465 0.11276916 0.17161563 -0.037420005
000300 2c 6d fb bd e8 ca 6f 3d c4 bf 84 be 3c a4 d3 bd
       -0.12276682 0.058543116 -0.25927556 -0.103340596
000310 3e 34 85 be a0 2c 97 be 9c ef f1 bd ac b1 dd 3d
       -0.2601642 -0.29526234 -0.1181328 0.10824904
000320 e4 ef c8 3d 6e 41 1c 3e 80 70 30 3d 9e 4f 08 be
       0.098113805 0.15259334 0.04307604 -0.13311622
000330 e3 69 26 be e8 0a 15 3d 20 ab 60 bd fd 7b 93 3e
       -0.1625133 0.036387354 -0.054850698 0.28805533
000340 ba 1b a7 be 00 d7 ae ba 8e dd 7c be 38 c6 50 bd
       -0.3263834 -0.0013339221 -0.24693891 -0.050970286
000350 b3 07 55 be c6 94 8f be 00 c6 d1 3d de 1f 06 3e
       -0.20803718 -0.28043193 0.10242844 0.13098094
000360 5e e7 37 be 62 b3 1e 3e 28 f9 7a bd 1a d8 06 3e
       -0.17959353 0.15498117 -0.06127277 0.13168374
000370 fd e4 96 3e ea db 3f 3e 3c 08 b2 bd fc 00 96 3d
       0.2947158 0.18736234 -0.08692977 0.073244065
000380 04 94 df 3d 55 ab 99 3e 40 8b a7 3b 00 da ec 3c
       0.109169036 0.30013528 0.0051130354 0.028912544
000390 de c6 36 be bb f3 31 be 5f 6e a7 be c5 c9 a9 3e
       -0.178493 -0.17378132 -0.32701394 0.3316175
0003a0 80 87 56 bc d6 8d 68 be 7e 9b a2 be 40 2d be 3c
       -0.013093829 -0.22710356 -0.31759256 0.023214936
0003b0 20 2c b3 bd 50 29 26 3e 9e 10 a8 be 5c a5 b5 3d
       -0.087486506 0.16226697 -0.32825178 0.088694304
0003c0 ae 9d 03 3e 80 0e 9f 3d b8 48 7e 3d 48 1d 84 be
       0.12853119 0.077664375 0.06208107 -0.2580359
0003d0 b4 d2 c3 3d 20 78 40 bc 18 96 19 be 7e 8e 47 be
       0.09561673 -0.01174739 -0.14998662 -0.1948795
0003e0 de 50 13 be 15 9a a9 3e 4e 19 82 be 33 67 9a 3e
       -0.14386317 0.33125368 -0.2540993 0.3015686
0003f0 9a 74 6b 3e 9b 8e 82 3e 6b 68 35 be a4 ca 94 3d
       0.22993699 0.25499424 -0.17715614 0.07265213

conv.bias f4 [32]
000000 87 a3 8a 3e c0 76 a5 3b 36 86 89 be 18 a9 71 3d
       0.27077886 0.0050495565 -0.26860207 0.05899915
000010 6c c1 c2 3d 06 26 cc bd 62 bf 17 3e 41 05 85 3e
       0.095095485 -0.0996819 0.148191 0.2598057
000020 68 c7 6a be 54 5c ca 3d 04 74 df 3d d6 39 7a 3e
       -0.2292763 0.098808914 0.109108 0.24436125
000030 de 8a 10 3e 6e 0e 64 be 8e fd 25 3e 94 6a 9f bd
       0.14115474 -0.2227113 0.16210005 -0.07784
000040 7a 28 55 3e 3c b3 a1 3d 0b e0 8a 3e 52 4c 86 be
       0.20816222 0.07895514 0.27124056 -0.26230103
000050 f9 1f 88 3e 4c 19 bc bd 48 3c 34 bd 72 21 49 3e
       0.26586893 -0.091845125 -0.0440028 0.19641665
000060 be 62 6c 3e 89 58 93 3e 2c 5b 9f 3d 4e 3f 6d 3e
       0.23084542 0.28778484 0.077810615 0.2316868
000070 b4 2a 99 be 37 45 98 be 5c 23 a1 bd 5e ce 3b be
       -0.29915392 -0.29740307 -0.078680724 -0.18340442

fc1.weight f4 [64, 288]
000000 0c 1e 2a 3c f8 fa 65 bd 21 8b 5e bd b4 9c 26 3c
       0.01038314 -0.056147546 -0.054331902 0.010169197
000010 16 6c 96 3c 4d 46 2f 3d 10 0f 12 bd 51 01 44 3d
       0.018362086 0.042791653 -0.035658896 0.047852818
000020 7b 38 42 3d 3a 46 b7 3c 16 4b 93 bc 00 ee 3c bb
       0.047417145 0.022372354 -0.01798014 -0.0028828382
000030 b8 ef 0a bd 38 3d ea 3b 62 96 bf bc 3d e6 31 3d
       -0.03392002 0.007148411 -0.023387138 0.043432463
000040 30 f1 03 bb 90 14 12 bd b6 63 93 3c 28 5e 78 bc
       -0.0020132773 -0.03566414 0.017991882 -0.015159167
000050 73 df 33 bd aa 82 9f 3c 30 06 fb bc 0f f4 02 bd
       -0.04391427 0.019471485 -0.030642599 -0.031971034
000060 d5 d5 5e 3d 6c b3 24 3c 48 f4 8d bc ef cf 50 3d
       0.054403145 0.010052543 -0.017328396 0.05097955
000070 62 8a c2 bc bc da 5c 3c 49 41 2e 3d a2 19 10 bd
       -0.023747627 0.013479885 0.04254273 -0.035180695
000080 44 2b 23 3c 71 03 2b bd 00 24 35 38 b7 e2 11 bd
       0.009959046 -0.04175133 4.318729e-05 -0.035616603
000090 c3 5a 39 bd 7c f1 2b 3c 18 be f4 bb 0f 64 26 3d
       -0.045252573 0.010494586 -0.00746895 0.040622767
0000a0 47 b6 5d bd 7f df 23 3d 90 9e 22 3b 68 2a b3 3b
       -0.05412891 0.040008064 0.002481375 0.0054677017
0000b0 a8 65 74 bc 4e 33 96 bc 85 70 19 3d dc 64 50 3c
       -0.014916815 -0.01833501 0.037460823 0.012719359
0000c0 00 f8 3c 3b c5 e8 0b 3d 76 5b 35 bd 8f 3d 6b 3d
       0.0028834343 0.034157533 -0.044276677 0.057431754
0000d0 60 83 ee bb 7e 8d 90 bc 46 6a 28 bd c2 b5 f2 3c
       -0.0072788447 -0.017645594 -0.041116975 0.029627685
0000e0 a7 f9 68 bd cc 43 2e bd 3d 48 e4 bc ee d9 07 bd
       -0.056878712 -0.042545125 -0.027866477 -0.03316682
0000f0 00 14 17 bd 11 95 fa bc 80 83 0a 3b e9 b8 4e 3d
       -0.036884308 -0.030588659 0.002113551 0.050469313
000100 73 16 0b 3d a6 83 bf 3c 88 82 1e bd 1e 83 35 bd
       0.033956956 0.023378205 -0.038698703 -0.044314496
000110 99 6a 30 3d cb 8e 05 3d e2 f4 01 bd 88 c3 19 bd
       0.04307041 0.03260688 -0.03172768 -0.03753999
000120 b2 57 ac bc ad 1e 62 3d d8 d2 b0 bb 4c 59 1d bd
       -0.02103791 0.055205036 -0.0053962283 -0.03841524
000130 93 b2 26 3d b0 9c de bb 1f 08 3d 3d 16 0d df 3c
       0.040697645 -0.006793581 0.046150323 0.02722792
000140 e0 1c ac bb ac 9a 40 3c a8 19 bd bb 46 a5 04 bd
       -0.0052524656 0.011755627 -0.0057708807 -0.03238418
000150 3e 10 88 bc 7c 68 0f 3c 58 bc ca bb 80 87 3b bb
       -0.016609307 0.008752938 -0.006187003 -0.00286147
000160 58 48 03 bc d0 c7 52 bb 2d 7c 49 bd 10 99 53 bc
       -0.008012854 -0.0032162555 -0.04919069 -0.012914911
000170 93 0a 6e 3d d0 64 48 3b 96 5e 8f bc 31 58 03 3d
       0.058115553 0.0030577667 -0.017501157 0.032066528
000180 36 8c 65 bd cc 3f 6e bc 38 9d d3 3b 8c 19 3a 3c
       -0.05604192 -0.014541578 0.006457951 0.01135863
000190 32 2c fd 3c 98 ed 89 3b 16 d5 a2 3c 44 2a 2b bd
       0.030904863 0.0042092316 0.019876998 -0.041788355
0001a0 e6 ad c9 3c 8a dd fd 3c ee e2 08 bd a5 20 1b 3d
       0.024619054 0.030989427 -0.033419542 0.03787293
0001b0 45 59 34 3d b5 84 70 bd 9f aa 40 bd 38 77 b9 bc
       0.044030447 -0.05872031 -0.047037717 -0.022639856
0001c0 59 6b 6c bd 23 0d 5a 3d 70 c7 79 3b 12 2b 6a bd
       -0.057719562 0.053235184 0.0038113259 -0.05716998
0001d0 84 e7 59 3c d9 61 63 bd ca e6 dc bc 63 93 f9 bc
       0.0132998265 -0.055513237 -0.026965518 -0.030465787
0001e0 56 e1 6b bd f9 0f 23 3d dd f5 10 bd 40 71 7f 3a
       -0.057587944 0.039810155 -0.035390723 0.00097443536
0001f0 00 1f af bc 70 48 1c bb e1 84 0b 3d be 56 a7 3c
       -0.021377087 -0.0023846887 0.03406227 0.020427104
000200 7d a0 35 3d 80 69 28 bd 8f f7 4c bd b6 25 b5 3c
       0.044342507 -0.041116238 -0.050040778 0.022112709
000210 f3 a6 39 3d e8 6f 28 bc 8c 2f 10 3c 08 9a e1 3b
       0.04532523 -0.010280587 0.008800399 0.006884817
000220 8b a7 28 bd 2c ae cb bc 58 0a bd 3b a9 ba 57 bd
       -0.041175406 -0.024863325 0.0057690553 -0.052668247
000230 a6 89 f2 bc d6 a3 b8 bc cb a9 3e 3d 3b f4 3f bd
       -0.029606652 -0.02253906 0.046548646 -0.046863776
000240 0f d0 03 3d df 8a 63 3d f0 79 5e 3b e5 e4 3f 3d
       0.032180842 0.05555236 0.0033947192 0.04684915
000250 c3 b9 4b 3d 34 3e 40 bd e4 89 09 bd 3d a4 00 3d
       0.049737703 -0.04693432 -0.03357877 0.03140663
000260 36 3f 97 bc 05 39 67 bd f3 5a 3d 3d 09 94 3b 3d
       -0.018462759 -0.056450862 0.046229314 0.045795474
000270 9b a9 3f 3d 96 f3 e3 3c dd 47 25 3d 80 91 ae bc
       0.046792608 0.027826112 0.040351737 -0.021309614
000280 76 47 8d 3c ac 62 a2 bc c7 9c 1c 3d 01 8b 64 3d
       0.01724599 -0.019822441 0.038235452 0.055796627
000290 66 86 e3 3c ec d9 55 3c b9 56 51 3d d2 92 b5 3c
       0.027774047 0.013052445 0.051108096 0.022164736
0002a0 6b 98 4a bd 49 4c 5a bd a1 b4 10 3d 5e 93 6e bd
       -0.049461763 -0.053295407 0.03532851 -0.05824601
0002b0 f0 46 68 bd 5c eb 1a bd 58 26 a3 3b 9e 49 3d bd
       -0.056708276 -0.037822112 0.004978936 -0.046212785
0002c0 07 6a 4a 3d 62 58 85 3c 21 17 69 3d 9f 4f 18 3d
       0.04941752 0.016277496 0.056906823 0.037185308
0002d0 05 d0 3f 3d e6 d6 42 bd 07 66 52 3d 98 c3 d3 bc
       0.046829242 -0.047568224 0.051366832 -0.025850102
0002e0 bd c5 39 3d b4 f2 69 bc f4 ad 2a bd 74 65 14 3c
       0.045354594 -0.014279056 -0.0416698 0.009057391
0002f0 ef 4b 4b 3d 14 fa 38 3c c3 11 3f 3d d0 f4 6b 3b
       0.049632963 0.011290092 0.0466478 0.0036004074
000300 44 de 5e bd 40 b4 37 bd a4 68 24 bd 48 19 de bc
       -0.054411188 -0.044849634 -0.040138856 -0.027111664
000310 50 61 0b bd 4a 7c 4d bd f4 97 7d 3c 9c ce 6c 3c
       -0.03402835 -0.05016736 0.015478123 0.014453556
000320 ec f1 0b 3c c2 69 b3 3c b6 c8 b1 3c c8 d2 d7 3b
       0.008541565 0.021901015 0.021702152 0.0065864064
000330 d8 74 ce bc b6 aa de 3c d7 72 25 3d 15 e0 f5 bc
       -0.0252022 0.02718101 0.040392723 -0.030014077
000340 36 8f 90 bc b4 c4 b1 bc f8 92 60 bd b6 d8 ee 3c
       -0.017646413 -0.02170024 -0.05482766 0.02915607
000350 d2 11 ae 3c 1c f6 26 3c fe fd 97 3c 98 ef 52 bd
       0.021248732 0.010190513 0.01855373 -0.051498026
000360 e8 bd ee bc 48 73 3d bd fc d1 74 3c 89 e5 35 3d
       -0.029143289 -0.04625252 0.014942642 0.044408355
000370 1e 86 d2 bc c7 9b 03 3d f8 1b a9 bb fa b4 a2 bc
       -0.025698718 0.032130983 -0.005160805 -0.019861687
000380 8a ad a8 3c be 08 f7 bc e2 4e ab bc 4d 81 5d bd
       0.020590562 -0.030155536 -0.020911638 -0.05407839
000390 f3 67 15 3d f8 81 e5 3b d4 8b 40 bc b6 ee d9 3c
       0.036476087 0.007004019 -0.011752088 0.026603084
0003a0 9a b0 5c bd d4 aa 14 bd 86 9c b6 bc 50 91 36 3b
       -0.053879358 -0.036295727 -0.022291433 0.002785761
0003b0 1c 03 22 3c 9b dd 0c 3d e0 ba 5f bd 16 6f fa 3c
       0.009888437 0.034391027 -0.054621577 0.030570548
0003c0 68 82 63 bd 4e 9e 60 bd 1f c9 40 bd 98 2b a9 3b
       -0.055544287 -0.05483847 -0.047066804 0.0051626675
0003d0 58 fd b7 3b 18 a8 5b bd 42 e1 e7 3c 82 39 00 bd
       0.0056149177 -0.053627104 0.028305653 -0.031304844
0003e0 60 5a c8 bc 20 d8 ae 3a c8 bb bd 3b cd 15 1f bd
       -0.024457157 0.0013339557 0.0057902075 -0.03883915
0003f0 0e 5f e3 3c b1 e7 64 bd 00 b9 47 bd 66 d2 ad 3c
       0.027755287 -0.05588502 -0.048760414 0.02121849

fc1.bias f4 [64]
000000 a0 37 e8 3a 90 9d 29 bd 9e 86 e8 3c df 6a 08 3d
       0.0017716773 -0.04141003 0.028384503 0.033305045
000010 e5 c6 2a 3d 00 c1 2f 39 f8 3d ed 3b bf 03 54 3d
       0.041693587 0.00016761199 0.0072400533 0.051761385
000020 78 db d1 3b d6 32 96 3c e0 1d fb 3a 77 5f 47 3d
       0.0064043365 0.018334787 0.0019158684 0.048675027
000030 a4 b2 7f bc 80 c1 ad 3a f0 f6 25 bd 5b a3 69 3d
       -0.015606556 0.001325652 -0.0405187 0.057040554
000040 8e 27 19 bd e0 18 c2 3a d0 b6 1f bb 13 f5 24 3d
       -0.037391238 0.0014808439 -0.002437044 0.040272783
000050 2e 6b 0c bd 44 f0 47 bd f9 61 54 3d 30 5f 69 bd
       -0.034281902 -0.04881312 0.051851247 -0.056975543
000060 da d9 16 bd 38 2d f0 3b 96 24 a8 3c 00 ed 2a bd
       -0.036828853 0.0073296092 0.020525258 -0.041729927
000070 c3 30 1b 3d e7 92 03 3d fe 49 ff bc 37 6d 37 3d
       0.0378883 0.03212252 -0.031163212 0.04478189
000080 42 0c 9a bc 37 6c 3b 3d 4b 0c 2b 3d 1b e9 03 3d
       -0.018804673 0.0457575 0.04175977 0.03220473
000090 92 d6 0e bd d7 04 3a 3d ee 80 87 3c d5 33 57 3d
       -0.0348726 0.045414772 0.01654097 0.052539665
0000a0 58 d8 8d bb b6 df 11 bd 1e da 3d bd a2 31 8d 3c
       -0.0043287687 -0.035613738 -0.04635059 0.01723558
0000b0 d1 93 43 bd a2 ae 89 bc 01 c0 0d 3d ac f2 41 3c
       -0.04774839 -0.016806904 0.034606937 0.011837643
0000c0 c2 c5 85 3c 31 fe 1d bd ec 5e 4e bd 36 8d dc bc
       0.01632965 -0.038572494 -0.050383493 -0.026922803
0000d0 e0 90 bc bb 1a e4 88 3c 12 95 63 bd 5d 52 66 bd
       -0.005754575 0.01671033 -0.055562086 -0.05623089
0000e0 36 07 dd 3c 9d f6 0e 3d 6d 8f 5a 3d 30 d9 13 3b
       0.026980978 0.034903158 0.053359438 0.0022559874
0000f0 b8 ae 97 bb 36 73 f9 3c 2b f2 6b 3d 3c 7a 75 3c
       -0.0046289824 0.030450445 0.057603996 0.014982756

fc2.weight f4 [128, 64]
000000 28 38 c0 3d a8 00 89 bd 86 b2 be 3d 00 20 d6 b8
       0.09385711 -0.06689578 0.093113944 -0.00010210276
000010 94 ce 81 bd be 1b f3 3d 00 d7 86 3a 80 c2 3d 3b
       -0.0633823 0.11870526 0.0010287464 0.0028955042
000020 b8 eb 94 3c 34 f6 55 3d 68 71 4a bd 94 7e d4 bd
       0.018178806 0.05223675 -0.04942456 -0.10375705
000030 d0 4e 58 3c a8 f3 bf bc 60 8c a4 3d 98 d1 7c bd
       0.013202384 -0.023431614 0.08034587 -0.06172332
000040 fc 97 4a bd d0 c1 8b bd 80 39 b6 3b 00 7f bb ba
       -0.04946135 -0.06824076 0.0055610538 -0.0014304817
000050 58 a5 01 bd 28 7f fc bc 4e 3e d9 3d f6 f0 d8 bd
       -0.031651825 -0.030822352 0.10607587 -0.10592835
000060 80 b3 e5 bc 52 24 a3 bd 30 d9 b3 3c b4 bc 98 3d
       -0.028039694 -0.07965912 0.021954149 0.07457867
000070 94 ba 3d bd 40 8f 75 3b 50 9a 18 3c d8 d6 7f bd
       -0.046320513 0.0037469417 0.009314135 -0.06246075
000080 20 04 19 bd 2c fd 71 3d 38 f1 65 bd 90 cf b6 3c
       -0.03735745 0.059079334 -0.056138247 0.02231577
000090 44 d9 d4 3d f0 82 c6 3c 0a c0 d7 bd ec 3d 66 bd
       0.10393003 0.024232358 -0.105346754 -0.056211397
0000a0 9a f2 eb 3d 36 5c 95 3d e8 ef 88 bd 12 a2 eb 3d
       0.11520882 0.072929785 -0.066863835 0.11505522
0000b0 88 cd 75 3d 08 18 f5 3d c0 80 d9 3d 60 7a bc 3c
       0.060010463 0.11967474 0.1062026 0.023007572
0000c0 70 85 54 bc a4 c9 b5 bd 06 69 d7 bd 68 07 18 3d
       -0.012971267 -0.088763505 -0.105180785 0.03711644
0000d0 b6 83 ab bd 70 90 a9 bc 0c 53 a4 bd 28 21 20 bd
       -0.08374731 -0.020698756 -0.080236524 -0.03909412
0000e0 86 ad 8f bd 10 60 4a bd 80 bd c2 3d c4 59 68 3d
       -0.07015519 -0.04940802 0.095088005 0.056726232
0000f0 a4 23 4e 3d 04 e0 81 bd 40 f0 ed bd a6 9c 81 bd
       0.05032696 -0.06341556 -0.1161809 -0.063287064
000100 f0 26 12 bd c4 23 06 3d 78 09 bf 3c 00 01 22 3b
       -0.035681665 0.032748953 0.023319945 0.0024719834
000110 94 cc cd 3d f0 e2 71 bd 12 8d f8 3d 2a f2 c2 3d
       0.10048786 -0.059054315 0.12136282 0.095188454
000120 44 60 01 3d 18 34 a8 3d 88 95 47 3d a8 6e bf bc
       0.031585947 0.08213061 0.04872659 -0.023368195
000130 76 99 a5 3d 20 67 88 3d 40 6b 84 3c c0 7d 55 3b
       0.08085911 0.066602945 0.016164422 0.0032576174
000140 c0 19 81 bd 16 1e c3 3d da d1 c9 3d 5c d3 1e 3d
       -0.063037395 0.09527223 0.09854479 0.038775787
000150 dc a6 ea 3d 40 c5 d1 3b 10 3c 5f bc a4 d1 86 3d
       0.11457607 0.006401688 -0.01362516 0.065829545
000160 88 73 a0 3c a2 89 86 bd 80 32 fe bb 70 92 38 bc
       0.01958634 -0.0656922 -0.007757485 -0.011265382
000170 98 42 e8 3c 18 95 9c 3c c0 3e 5a 3c 7c a8 c9 bd
       0.028352067 0.019114062 0.013320625 -0.09846589
000180 da c5 a2 bd 9c 0c d6 bd 3a ef 8c 3d 3e 76 fc 3d
       -0.079478934 -0.10451624 0.06881566 0.123272404
000190 80 a5 80 3a 70 57 f4 bc f4 14 5b bd 66 c3 e9 3d
       0.0009814948 -0.02982685 -0.05348678 0.114142224
0001a0 d0 e9 13 bd 48 31 96 3c 58 5e ca bd 80 84 d0 ba
       -0.036111653 0.018334046 -0.09881276 -0.0015908629
0001b0 d0 79 32 bc a0 55 ea bc 1e 57 a5 3d 20 4c 8b bb
       -0.0108933 -0.028605282 0.08073257 -0.004251018
0001c0 a8 e1 31 3d aa 3a bf 3d 8c 90 89 bd 00 0d 75 bb
       0.043428093 0.09337361 -0.06717023 -0.0037391782
0001d0 c2 a5 e5 3d 70 73 ec 3d b2 0b 98 bd 4c 91 3d 3d
       0.112132564 0.115454555 -0.07424106 0.046281144
0001e0 c4 d8 99 bd 18 f2 94 3d 64 14 e8 bd c8 6a 6b bd
       -0.07512048 0.07272738 -0.11332014 -0.05747488
0001f0 ec d0 c5 bd 56 de a0 3d 9c 9c 5d 3d a8 48 60 bd
       -0.09658989 0.07854907 0.054104432 -0.05475679
000200 44 28 6b bd a0 82 f9 3b 98 bc ea bc f0 cf dc bd
       -0.057411447 0.0076144487 -0.028654382 -0.107818484
000210 60 3d 24 bc 20 71 82 bd 12 57 89 3d 20 92 1b bd
       -0.010024399 -0.06369233 0.067060605 -0.037981153
000220 12 9d be bd 00 c4 54 3d 0c df 4e 3d f0 33 bc 3c
       -0.093073025 0.051944733 0.050505683 0.022973984
000230 50 34 85 3d 3c 61 f4 bd 18 7d 95 3c dc 00 38 bd
       0.065041184 -0.119326085 0.018248126 -0.044922695
000240 f8 d1 a8 bd 60 4f 4f 3d e0 d8 34 bc 6a 26 d1 3d
       -0.08243173 0.050612807 -0.011038035 0.10212405
000250 14 6d 1f 3d 8e 16 f3 3d b4 96 54 bd ac 72 3b 3d
       0.038922384 0.11869536 -0.051901534 0.045763656
000260 80 2a 42 3c be 09 f8 3d 80 94 8b 3b 24 5c e8 bd
       0.011850953 0.12111233 0.004259646 -0.113456994
000270 c8 b8 89 bc d0 2d f9 bc 54 50 29 3d 40 77 ca bb
       -0.016811743 -0.030417353 0.041336372 -0.0061787665
000280 cc 75 3d bd 10 80 a9 3c 60 1c b8 bb 48 ff 3d bd
       -0.046254918 0.020690948 -0.005618617 -0.046386033
000290 40 95 f4 3c 58 68 73 bd b0 50 fc bd 00 5a 26 3a
       0.029856324 -0.05942568 -0.123200774 0.00063458085
0002a0 20 e5 bb bd 10 57 c1 3d 8e e6 e0 bd 30 f7 0c bd
       -0.091745615 0.09440434 -0.10981475 -0.034415424
0002b0 00 97 5d bc c0 e8 9c bc f8 6c b3 bd 10 92 fd 3d
       -0.013524771 -0.019153953 -0.087610185 0.12381375
0002c0 20 e4 c1 bd f0 69 d0 3d d2 30 f0 bd 2e 22 da bd
       -0.094673395 0.10176456 -0.11728062 -0.106510505
0002d0 48 50 f6 bc 40 47 8e 3b b6 f6 c8 bd 70 0f b0 3d
       -0.030067578 0.0043419898 -0.098126814 0.085966945
0002e0 a8 9a e2 3c 70 64 3d bd 18 3c 8a bd 50 1d 74 bd
       0.027661636 -0.046238363 -0.06749743 -0.059598267
0002f0 80 d5 73 bc 92 53 e4 3d 0e 01 be bd 40 1e f1 3d
       -0.014882445 0.11148752 -0.09277545 0.11773348
000300 0c 44 be 3d d0 e4 70 bd c4 c6 86 bd 9e ac eb bd
       0.09290323 -0.058811963 -0.0658088 -0.115075335
000310 34 75 ef bd d0 f2 f8 3d 68 fc e2 bd bc 13 c8 3d
       -0.116922766 0.12155688 -0.11083299 0.09769389
000320 18 fb ff bc 20 18 47 3c 40 3c 55 bc b0 d2 92 3d
       -0.03124766 0.012151748 -0.013014853 0.07169092
000330 08 58 f0 3d 10 48 ba 3c b8 a1 2d bd 80 c5 b2 bc
       0.11735541 0.02273944 -0.042390555 -0.021822691
000340 00 e2 e1 bb e6 cf c4 bd 60 1c e7 3c b4 46 3c 3d
       -0.0068933964 -0.09609966 0.028211772 0.045965865
000350 30 41 fe 3c b2 b5 e2 bd 9c 06 85 bd 88 f5 09 bd
       0.031036943 -0.11069812 -0.06495401 -0.033681422
000360 ac 1c e0 bd 3c c2 54 bd 80 3b 58 bc 9a 16 c5 3d
       -0.10942969 -0.05194305 -0.01319778 0.096234515
000370 c4 c5 bd 3d 6c 18 8e 3d 50 19 78 bc 4c 35 3f bd
       0.092662364 0.06938252 -0.015142754 -0.046681687
000380 1a 67 bf bd 9c 07 0a bd 84 2e a9 3d 8c 28 0f bd
       -0.09345837 -0.033698663 0.08260825 -0.034950778
000390 04 21 8c 3d ce ea af bd ec 79 74 3d e0 7e fb 3c
       0.06842235 -0.08589707 0.059686586 0.030700147
0003a0 30 33 f4 bd e0 09 e9 3c 48 58 e6 bd e0 bc 93 3b
       -0.11923826 0.028447092 -0.11247307 0.0045085996
0003b0 e6 b3 e3 bd 78 d8 f3 bc f0 9c 23 3c 1a 18 b5 3d
       -0.11118297 -0.029766306 0.009986147 0.08842488
0003c0 70 e9 26 3c 74 66 7b bd e6 65 99 3d 88 d3 0e 3d
       0.010187492 -0.061377004 0.07490139 0.0348697
0003d0 4c c7 c7 bd 6a a7 df bd 00 d2 3a bd 4c 1e b6 bd
       -0.0975481 -0.109206036 -0.045610428 -0.088924974
0003e0 58 97 5d bd 44 a6 58 bd f0 0a d5 bc 20 52 fd 3b
       -0.05409941 -0.05289294 -0.026006192 0.0077307373
0003f0 94 15 63 3d b8 a6 e8 bc dc 1b e5 bd 30 49 92 3d
       0.0554405 -0.02839981 -0.111869544 0.07142866

fc2.bias f4 [128]
000000 f4 8d a7 3d 98 49 17 3d c8 ba 17 bd 4c c2 32 bd
       0.08181372 0.03693542 -0.037043363 -0.043642327
000010 fc cb 8d 3d 7a 24 ea 3d 00 76 af bc 60 dc d2 bb
       0.069236726 0.114327386 -0.021418571 -0.006434962
000020 e8 59 d4 bc f4 6d d1 3d 60 69 73 bd fa 10 87 bd
       -0.025921777 0.1022605 -0.059426665 -0.06595035
000030 4c f4 43 3d d6 2f 9b bd e6 89 f8 bd 90 a7 df 3c
       0.0478404 -0.07577483 -0.12135677 0.02730158
000040 d4 15 b0 3d a6 c1 a9 bd a8 d8 f5 bc 20 33 97 3c
       0.085979134 -0.08288889 -0.030010536 0.018456995
000050 80 b9 ec bd 66 68 d4 3d 76 3e a3 3d d6 e5 e1 bd
       -0.11558819 0.10371475 0.07970898 -0.11030166
000060 1a c2 a1 bd 64 8c 91 3d 48 e0 2c bd d0 3b 13 3c
       -0.0789835 0.071068555 -0.04220608 0.008986428
000070 94 d1 28 bd e6 70 e9 bd 38 60 5a bd 08 21 66 bd
       -0.041215494 -0.11398487 -0.053314418 -0.056183845
000080 7c e9 cd 3d 30 6b 3b 3c 60 b3 70 3d 20 53 2b 3d
       0.10054299 0.01143913 0.058764815 0.04182732
000090 b0 97 1b 3c b0 0a f6 3c f0 65 1e bd 9e 61 d4 bd
       0.009496614 0.030034393 -0.038671434 -0.103701815
0000a0 a2 a3 dd 3d 04 5d ea 3d 78 68 8a 3d 00 1d 0f bb
       0.10822226 0.114435226 0.06758207 -0.0021837354
0000b0 28 ec 12 3d 2c 3f 4f bd 90 7b 87 bd 6a ef b2 3d
       0.035869747 -0.050597355 -0.066153646 0.08737071
0000c0 78 c8 9d 3d 66 ec 8e 3d b8 2b f6 bc f8 a5 eb bd
       0.07704252 0.06978683 -0.030050144 -0.115062654
0000d0 0a 52 bc bd 26 76 cd bd da 32 a3 bd 68 74 27 3d
       -0.09195335 -0.10032301 -0.079686835 0.040882498
0000e0 36 16 d8 3d 1a 12 da bd c4 35 ee bd 64 12 ea bd
       0.105511114 -0.10647984 -0.11631349 -0.11429289
0000f0 38 2a d5 bd f6 bd 91 bd a0 8a bc bb e8 ff b7 3c
       -0.10408443 -0.0711631 -0.00575383 0.022460893
000100 68 d1 fa 3c a8 f3 a3 bd b4 9a 29 3d 22 33 b9 bd
       0.03061743 -0.08005458 0.041407302 -0.09042956
000110 14 c7 0b 3d 68 4e 70 bd 76 7c af bd 22 c1 f3 bd
       0.034125403 -0.058668524 -0.08568661 -0.119020715
000120 d0 e2 8b 3c ea 04 ca 3d f8 cf d2 bc 90 fd e0 bc
       0.017075926 0.098642185 -0.025733933 -0.027464658
000130 6a 23 e8 3d 00 39 ca bc 28 cf ab bd e8 87 f3 bd
       0.1133488 -0.024685383 -0.08389121 -0.118911564
000140 82 2a 85 bd 3e 4d ce 3d a4 4b 76 bd f2 4d da bd
       -0.06502248 0.100733265 -0.06013073 -0.10659398
000150 d4 20 0c 3d f8 8a f0 bc 10 53 9b 3d d8 f7 c2 3d
       0.034210995 -0.02936314 0.07584202 0.09519929
000160 20 59 e0 bb 24 21 c7 bd 78 8a ac 3d 34 e5 07 3d
       -0.006846562 -0.09723118 0.08424848 0.03317757
000170 4e cd fe 3d a0 48 f8 3c 44 4d 79 3d 00 83 57 3a
       0.124415025 0.030308068 0.060864702 0.00082211196
000180 14 df 78 3d 20 07 af bc 7c 69 52 bd 48 f8 07 bd
       0.06075962 -0.021365702 -0.05137013 -0.033195764
000190 4c 42 17 3d b0 1c bb bd 58 3a b2 bd c0 94 85 bc
       0.03692846 -0.09136331 -0.087025344 -0.016306281
0001a0 10 a8 30 3d e0 66 aa bb 6e 99 ab bd de b5 bc 3d
       0.043129027 -0.005200252 -0.08378874 0.09214376
0001b0 94 38 a2 3d 26 f9 b7 bd 30 3d 2d bc c6 7f db 3d
       0.07920948 -0.08983068 -0.01057367 0.1071773
0001c0 5e 36 e7 3d 20 c0 75 bd 40 62 30 bb f4 ff 78 bd
       0.112896666 -0.059997678 -0.002691403 -0.06079097
0001d0 18 83 83 bd 5e da a0 3d 30 71 36 bd 0e a2 85 bd
       -0.064214885 0.0785415 -0.044541538 -0.0652505
0001e0 c0 95 9f bc 00 91 e3 3a 80 dd 27 bc b0 c2 2d bd
       -0.019480586 0.0017361939 -0.010245681 -0.042421997
0001f0 b0 f8 11 3d 1c 84 2a bd 5c 76 1b 3d 24 36 33 bd
       0.035637558 -0.041629896 0.037954673 -0.043752804

fc3.weight f4 [256, 128]
000000 9c b2 55 bd 44 48 96 bc c9 07 9a 3d 6c ca ad 3c
       -0.05217229 -0.018345006 0.07521016 0.021214686
000010 68 2a 26 3c b2 b4 2d bd 28 65 eb 3c 74 5d b1 3c
       0.010141946 -0.042408653 0.028734758 0.021651007
000020 c6 af 1e 3d 5b 3f 93 3d 5c 6f e4 3c 80 48 c0 3a
       0.03874185 0.071898185 0.027885132 0.0014670044
000030 80 bb dd bb 32 28 77 3d 6a c3 2e 3d 60 82 5e 3b
       -0.0067667365 0.060341068 0.04266683 0.0033952221
000040 c7 bb 82 bd b5 95 26 bd c2 3d 32 3d 16 5a 4b bd
       -0.06383472 -0.040670116 0.043515928 -0.04964646
000050 f4 8c 6a bd 0b 42 8e 3d ee 6a 27 3d 0e de 2c bd
       -0.05726333 0.069461904 0.04087346 -0.042203955
000060 70 c5 cd bb 39 db af 3d de ab 69 3d d0 70 c7 3b
       -0.00627964 0.08586735 0.05704867 0.0060864463
000070 34 86 bb bc 60 00 e7 bc d8 ea 1d bc b6 18 7c 3d
       -0.022891141 -0.028198421 -0.009638511 0.061547004
000080 31 ef 90 3d 6b 94 7e bd 74 d4 8e bd 18 44 0d bc
       0.07076872 -0.06215326 -0.06974116 -0.008622192
000090 f6 d7 06 3d 78 f9 13 bc d9 68 97 bd 2e 1e f9 bc
       0.0329208 -0.009031646 -0.07393045 -0.030409899
0000a0 87 c3 54 bd 05 6e b2 bd ae 9c 52 bd c3 4c 91 3d
       -0.051944282 -0.08712391 -0.051418953 0.07094719
0000b0 80 eb d8 bb 2b d5 14 bd c0 59 ea 3b 9e 32 27 3d
       -0.0066198707 -0.036336105 0.0071518123 0.040819757
0000c0 ec 11 a9 bd 0e e3 26 3d 4d bd 90 bd b7 81 b0 3d
       -0.082553715 0.04074388 -0.07067356 0.08618491
0000d0 eb 24 a5 3d 12 91 15 3d 8d 73 a0 3d c5 51 39 bd
       0.08063682 0.036515303 0.078345396 -0.045243997
0000e0 08 7d 93 3c e8 37 4f 3c 22 b3 6d 3d 4c 7b f0 bc
       0.018003955 0.012647606 0.058032162 -0.029355668
0000f0 92 9a 09 3d 04 6f 8e bd 58 fb 9d 3c c2 28 5e 3d
       0.033594675 -0.06954768 0.01928489 0.05423809
000100 9c 2c 9d 3c 6b 78 b4 bd 1c 56 ef 3c ba 9b 9c bd
       0.01918631 -0.088120304 0.029215865 -0.0764689
000110 d8 3d 8c bc 98 21 ea 3c 02 86 66 3d 2c e1 73 bd
       -0.017119333 0.028580472 0.056280144 -0.059540913
000120 02 de fd bc 1c 79 0c 3d ef 1c 82 bd 78 87 f5 bc
       -0.03098965 0.034295186 -0.06353175 -0.029971823
000130 4f ce 57 bd d8 ae 7a bd b7 ab 1c bd 3e 92 2c 3d
       -0.052686986 -0.0612019 -0.038249698 0.042131655
000140 cb 06 68 bd 28 01 1d bc c4 c4 8c bc de e7 7e bd
       -0.056647103 -0.009582795 -0.017183669 -0.062232845
000150 56 c0 3b bd 8e 9b 23 3d 5a 3b 7e 3d bb 3c 8e 3d
       -0.045837723 0.03994327 0.06206832 0.06945177
000160 e4 88 98 bd 82 56 16 3d 0a 51 6f 3d 10 5b de 3c
       -0.07447985 0.036703594 0.058426894 0.027143031
000170 36 43 54 bd 98 12 56 3c 7b 5e ac bd 04 0f d9 3c
       -0.05182191 0.0130659565 -0.08416458 0.026496418
000180 c2 92 62 3d 2a 82 ad bd 17 fb 3f bd 20 b6 11 bb
       0.05531574 -0.084720924 -0.046870317 -0.00222338
000190 e5 ac b0 3d 26 c5 d7 bc a5 72 3a bd 87 98 98 3d
       0.08626727 -0.026339125 -0.04551949 0.07450967
0001a0 32 22 7e bd 3a 46 84 bd c6 60 87 bd 80 93 bd 3a
       -0.06204433 -0.06458707 -0.06610255 0.0014463514
0001b0 e0 d2 4c bc 64 04 9b bd dc dd ef 3c 2e e8 3f 3d
       -0.012501448 -0.07569197 0.029280595 0.046852283
0001c0 1d f8 2f bd 90 cd 88 bd c1 98 8b 3d d2 b4 52 3d
       -0.04296123 -0.06679833 0.06816245 0.051441975
0001d0 7c 39 5d bd 7f b6 9d 3d 01 34 ab 3d 6e a0 8d bd
       -0.0540099 0.07700824 0.08359528 -0.06915365
0001e0 2e 64 94 bd ac 14 1c bd f4 11 95 bc 47 8e 82 3d
       -0.0724567 -0.03810565 -0.018197037 0.063747935
0001f0 40 75 96 bc 4c 9e d8 3c 71 1e ad 3d 35 62 7d bd
       -0.018366456 0.02644267 0.08453072 -0.061861236
000200 63 a1 99 3d f0 ad 61 3c 7d b8 0f bd a2 10 e4 bc
       0.07501485 0.01377438 -0.03508805 -0.027839962
000210 ea 45 1f 3d 68 d3 4c 3c ca 3e 4c 3d 7a 73 0b bd
       0.038885035 0.012501575 0.049864568 -0.034045674
000220 c6 17 37 3d 23 31 98 bd 62 6d 1f 3d 10 9f 59 bd
       0.044700406 -0.07431247 0.038922675 -0.05313021
000230 0d fd 36 bd 22 96 60 3d e8 d9 89 bc 50 52 ec bb
       -0.04467492 0.054830678 -0.016827539 -0.007211961
000240 90 9d 4b 3c 60 b8 b9 bc b6 fc 25 3d ac 1d 4f bd
       0.012427703 -0.022670925 0.040524207 -0.050565407
000250 83 8f 28 bd e7 a2 91 3d 8e 2a 17 3d fd ad 40 bd
       -0.04115249 0.07111149 0.036905818 -0.04704093
000260 b7 32 45 bd d7 cd 51 bd 79 b8 af 3d 60 21 70 3c
       -0.04814407 -0.051221695 0.08580107 0.014656395
000270 9f 68 9d 3d 55 16 a6 3d a1 fe 8d bd 18 2d 0c 3c
       0.076859705 0.08109728 -0.06933332 0.008555673
000280 9b 30 8d 3d d4 7c 9c bd 75 9d 8a bd de ce 14 bd
       0.068940364 -0.076409966 -0.06768314 -0.036330096
000290 9c 0e 93 bd 48 ef 51 3c fb 1c 4e bd 88 ae 33 bd
       -0.07180521 0.012813397 -0.050320607 -0.043867618
0002a0 87 09 89 3d 9c 92 ae bc 96 be 4d 3d 6f f5 86 3d
       0.0669127 -0.021310143 0.050230585 0.065897815
0002b0 c4 c5 91 bd 8a 52 6a bd c0 5f 6b bb 36 4e 2d 3d
       -0.07117799 -0.05720762 -0.0035915226 0.042310916
0002c0 f7 f7 9f 3d 80 d1 46 bc bb 71 80 3d 77 a2 ad 3d
       0.078109674 -0.01213491 0.06271692 0.08478253
0002d0 12 0d 5c 3d 97 c7 9b 3d 1e c3 0f 3d 14 2c bd bc
       0.053723402 0.07606428 0.035098188 -0.023092307
0002e0 d8 75 27 3c 10 68 12 bc 06 92 3e 3d 96 b1 25 3d
       0.010220967 -0.008935943 0.046525978 0.040452562
0002f0 b2 31 df bc 6e 8a 18 3d ca 88 76 3d e0 45 89 bb
       -0.027245376 0.03724139 0.060189046 -0.004189238
000300 00 2b b5 39 5c 92 cc bc b7 2d a2 3d e4 01 6f bd
       0.00034555048 -0.024972133 0.07918876 -0.058351412
000310 ea f7 07 3d 9c b5 b1 bc f4 3b 8d 3c 40 3f e7 3a
       0.033195414 -0.021693043 0.017240502 0.0017642751
000320 be 65 7b 3d 16 0d 47 bd 63 13 a7 3d 28 6e a3 bd
       0.061376326 -0.048596464 0.081579946 -0.07979995
000330 98 d1 1c bc e0 e3 50 3c ec 80 75 bd 12 28 50 3d
       -0.009571455 0.012749642 -0.059937403 0.050819464
000340 02 07 31 3d 95 ff 87 3d 3d 3c 88 3d d8 8c ac bd
       0.043219574 0.06640545 0.066521145 -0.08425301
000350 20 64 0b bb bc 3f ad bd 32 49 5a 3d 2e f1 50 3d
       -0.0021269396 -0.08459422 0.05329246 0.051011257
000360 5c 08 ee bc 07 63 a0 3d 60 23 33 3c 16 5f 6d bd
       -0.02905672 0.07831388 0.010933727 -0.05795201
000370 d1 62 80 3d e4 0d a9 3c 88 46 51 bc 5c d7 be bc
       0.06268848 0.020636506 -0.012773164 -0.02329605
000380 58 2b 00 bd d7 65 a8 3d ef d7 a2 bd 7e 78 77 bd
       -0.031291336 0.082225494 -0.07951342 -0.060417645
000390 4c 46 89 bc a9 a5 37 bd 87 6b 47 bd 98 ae 0a 3d
       -0.016757153 -0.04483572 -0.04868653 0.03385791
0003a0 dc 50 aa bd 55 e2 88 bd c1 35 5a bd 6f 12 ae bd
       -0.08316204 -0.066837944 -0.05327392 -0.0849961
0003b0 22 71 2b 3d 08 40 38 3c 22 9c 6d 3d 90 8f 99 3c
       0.04185594 0.011245735 0.058010228 0.018745214
0003c0 04 cd 55 bd ab 2a 8b bd e9 d5 b2 bd b2 4b 18 3d
       -0.05219747 -0.06795248 -0.087322064 0.037181564
0003d0 f8 82 b1 3c 6e 1e 57 3d 50 72 ff bb 21 6e ab bd
       0.021668896 0.052519254 -0.0077956095 -0.08370615
0003e0 51 04 a4 bd d0 f9 db bb 38 95 3b 3c d1 bf a4 3d
       -0.08008636 -0.0067131296 0.011449151 0.080443986
0003f0 00 1a 0a bc 58 2a 73 bd 40 d1 d1 bc 25 42 b2 3d
       -0.00842905 -0.059366554 -0.025612473 0.08704022

fc3.bias f4 [256]
000000 38 57 44 3c d7 63 b0 3d 82 c3 7d 3d 78 ee 9e bd
       0.011983685 0.08612793 0.06195403 -0.07760328
000010 ae 53 1b 3d 80 d0 44 bc f6 7f 6a 3d b5 9a 90 3d
       0.0379216 -0.012012601 0.05725094 0.07060758
000020 b5 eb 8c 3d 70 a6 35 bc 38 bf cc bc 80 95 5f 3b
       0.06880895 -0.011087045 -0.024993524 0.0034116209
000030 10 56 29 bd 76 98 7f 3d 26 83 f0 bc 65 2e 28 bd
       -0.04134184 0.062401257 -0.029359411 -0.04105987
000040 21 d2 ae bd 75 8b 1d bd d0 61 43 3c b7 69 8c 3d
       -0.08536173 -0.038463075 0.011925176 0.06856101
000050 02 b3 70 bd 50 eb 22 3c e8 60 92 3c 3d 26 ab 3d
       -0.058764465 0.009943798 0.017868474 0.08356903
000060 30 36 7e bc 87 2d a2 3d d0 3f d0 bb 62 3a 38 3d
       -0.015515849 0.0791884 -0.0063552633 0.044977553
000070 76 a5 0e 3d fb 89 a5 3d e3 cd b2 bd d1 48 9b 3d
       0.034825765 0.08082958 -0.08730676 0.07582248
000080 f7 57 b3 3d f5 38 30 bd 30 63 d4 bc 36 31 0d bd
       0.08757012 -0.04302307 -0.025926203 -0.03447076
000090 0c e2 b2 bc df 58 9d 3d c4 11 9b bd 14 5f 87 bc
       -0.021836303 0.076829664 -0.07571748 -0.016524829
0000a0 a4 f6 c6 bc 28 b6 89 bd 42 1d 6c 3d 93 a3 9a 3d
       -0.02428753 -0.06724197 0.05764509 0.075507306
0000b0 ec 17 b8 bc 70 41 cd 3b cc 45 ed 3c 1d db 0b bd
       -0.022472344 0.0062639043 0.028963946 -0.03414451
0000c0 90 c6 b4 bc 82 e6 20 3d f0 ba 1d 3c 72 6a 5a 3d
       -0.022067338 0.03928233 0.009627089 0.05332417
0000d0 ca 57 0c 3d a1 63 90 3d 36 a1 e1 bc 5c 42 d1 3c
       0.03426341 0.07050253 -0.027542692 0.025544338
0000e0 00 b4 ac bc 5a 09 8a bd c0 ce ef 3a 8b ef 33 bd
       -0.021081924 -0.06740065 0.0018295869 -0.043929618
0000f0 a0 bd 66 3c 80 db 8c 3a ca db 55 3d 01 05 18 bd
       0.014083296 0.0010746568 0.05221156 -0.037114147
000100 1f e4 13 bd c4 bd 98 3c 28 8b 02 3d b0 9b 92 3c
       -0.036106225 0.018645175 0.03187099 0.017896503
000110 1d dd 11 bd e1 d9 91 bd aa fb b2 bd 90 77 93 bd
       -0.03561126 -0.07121635 -0.08739407 -0.07200539
000120 0c d3 98 bc b1 da 85 3d cc 66 82 bc e6 c0 31 3d
       -0.018655322 0.06535853 -0.015918158 0.043396853
000130 23 3e a8 3d 45 be a2 3d de 83 08 bd d4 d0 bf bc
       0.08214977 0.07946447 -0.033328883 -0.023415007
000140 75 31 89 3d e0 2d a8 3b d4 35 44 bd f9 17 a5 3d
       0.06698886 0.005132422 -0.047902897 0.08061213
000150 7e cb 90 bd b4 68 84 3c c8 b8 a0 3c a8 2b 8f bd
       -0.07070063 0.016163208 0.01961936 -0.06990749
000160 09 d2 90 3d f2 c0 7f 3d 16 91 2a 3d 08 a3 fd bc
       0.07071311 0.062439866 0.04164227 -0.030961528
000170 10 54 9a bb 80 60 47 bb 0f 9f 9b 3d b0 eb 23 3c
       -0.004709728 -0.0030422509 0.075986974 0.010004923
000180 a1 75 16 bd 5d a6 8d bd 30 c2 b4 bd cc aa b0 3c
       -0.036733273 -0.06916497 -0.08826101 0.021565817
000190 38 20 bd 3c 32 20 90 bd 3d 46 a1 3d e4 ae 9b bd
       0.023086652 -0.07037391 0.07874725 -0.07601717
0001a0 5e b1 70 3d 78 8f 21 bd 84 9b 0e 3d 27 97 48 bd
       0.0587629 -0.039443463 0.03481628 -0.048972275
0001b0 08 42 21 bd cb 1e a8 3d a8 55 45 bc 10 38 87 bb
       -0.039369613 0.08208998 -0.012044348 -0.004126556
0001c0 a9 c8 a2 3d d0 59 82 3c fd 8a 89 bd 40 91 9e 3a
       0.07948429 0.015911967 -0.06715963 0.0012097731
0001d0 82 87 f2 bc ba b6 4e 3d 1e 66 b4 bd 48 d6 7d 3c
       -0.02960563 0.05046723 -0.0880854 0.015492983
0001e0 e1 5f a4 3d 40 81 af ba 94 c4 82 bd d4 a1 e8 3c
       0.080261 -0.001338996 -0.063851506 0.028397478
0001f0 b4 96 5d bd b6 ca 6f bd 48 94 c0 bc 19 69 9a bd
       -0.0540988 -0.05854293 -0.023508206 -0.07539577
000200 0a 6e 48 3d 4d 32 9f 3d cf 14 8f 3d aa 62 55 3d
       0.048933066 0.07773266 0.06986391 0.052096047
000210 14 d3 ad bd 34 cf 9a bd 72 fb 88 bd 50 9b dc 3b
       -0.084875256 -0.07559052 -0.066885844 0.006732382
000220 67 68 ad bd 90 08 d1 3c 44 66 c2 3c e2 9f b4 bd
       -0.08467179 0.025516778 0.023730405 -0.08819558
000230 5c 62 8e bc b5 92 47 bd 78 39 5e 3c 0a 1a 49 3d
       -0.017380886 -0.048723895 0.013563506 0.0490971
000240 7c f4 8e 3c 20 96 5f bb 08 73 77 bc 64 26 85 bd
       0.017450564 -0.003411658 -0.015103109 -0.06501463
000250 db 89 54 bd cb da 9d bd 00 05 ab bd 60 82 3d bd
       -0.05188928 -0.07707747 -0.08350563 -0.046266913
000260 66 15 b0 bd 00 d6 db ba f5 e2 9d 3d 80 c6 88 ba
       -0.085978314 -0.0016772151 0.07709304 -0.0010435134
000270 42 da 4a 3d b4 7b 1f bd 81 68 83 3d 6e 95 07 3d
       0.049524553 -0.038936332 0.06416417 0.03310149
000280 d3 07 8e 3d c2 23 9b bd 24 78 0b bd 44 07 aa 3c
       0.06935086 -0.0757518 -0.034050122 0.020755418
000290 60 a7 11 bd 00 1a 59 bb 18 98 7a bd ca fc 74 bd
       -0.035560012 -0.003312707 -0.061180204 -0.05981139
0002a0 b0 51 7f 3c b9 95 80 3d 3c 46 ea bc 7d 6d a2 3d
       0.015583441 0.06278557 -0.028597943 0.079310395
0002b0 82 f2 3d bd c2 53 24 3d 80 52 49 3c 70 f5 66 bc
       -0.04637385 0.04011894 0.012287736 -0.014096603
0002c0 46 19 8f bd c4 b8 a2 bd 26 37 5c bd 7a 33 f1 bc
       -0.069872424 -0.079453975 -0.05376353 -0.029443491
0002d0 64 93 c9 3c f4 42 46 bd 44 24 c4 3c c0 4e a9 bc
       0.024606414 -0.048403695 0.023943074 -0.020667434
0002e0 2f 59 8e bd 97 27 a4 3d f0 11 89 3b 52 2a 24 3d
       -0.06950604 0.08015364 0.0041830465 0.040079422
0002f0 a2 32 09 3d e6 9e 79 3d 00 0b 84 39 fc 20 b5 bc
       0.033495553 0.060942553 0.00025185198 -0.022110455
000300 f8 b0 28 bc 35 cb 96 bd 6d 85 96 bd a6 fa 7e 3d
       -0.010296099 -0.073629774 -0.07349668 0.062250756
000310 00 02 22 ba 60 5d 85 3c 33 8a 97 3d ca 05 77 3d
       -0.00061801076 0.016279876 0.07399406 0.060308255
000320 4e c4 7a 3d 5a 87 57 bd d0 6e 09 bc b7 ef 86 3d
       0.061222367 -0.052619316 -0.008388236 0.06588691
000330 42 ba 07 3d 9a 73 2a 3d 59 7a a2 3d a0 c1 64 3c
       0.033136614 0.041614152 0.07933492 0.013962179
000340 f2 c5 59 3d be e5 1c 3d 80 c9 e3 3c 50 33 8e bc
       0.05316729 0.038305037 0.027806044 -0.017358452
000350 88 aa 5e 3c 90 c7 64 bc 88 4d 96 bd 52 c4 32 3d
       0.0135904625 -0.013963595 -0.07339007 0.043644257
000360 60 27 b4 3c ff f1 83 3d 5e cd 46 3d 80 c1 d9 ba
       0.021991432 0.064426415 0.048535697 -0.0016613454
000370 90 08 11 3d 06 bc 79 3d 20 8e 10 bb 46 46 23 bd
       0.035408556 0.06097033 -0.002205737 -0.03986194
000380 f3 6d a2 3d e8 b4 37 bc da 35 ef bc c2 d0 18 bd
       0.079311274 -0.011212565 -0.029200483 -0.037308462
000390 72 2a 1e 3d 94 42 d7 3c 88 c6 01 3d 34 60 b5 3c
       0.038614698 0.026276864 0.031683475 0.0221406
0003a0 40 aa b4 bd 3a d2 2d 3d d0 ce db 3c 98 a7 7a bc
       -0.08821535 0.042436816 0.026832014 -0.0152987465
0003b0 e8 36 a6 3c e0 c0 ac 3b 12 3d 1a 3d c0 60 1b bc
       0.020289853 0.005272016 0.037655897 -0.009483516
0003c0 e4 cf 87 bd 70 50 58 3c 32 c5 00 3d 30 70 1e bd
       -0.06631449 0.013202772 0.03143806 -0.03868121
0003d0 da 5c 30 3d f1 18 10 bd 6e 10 7c bd ab c3 07 bd
       0.0430573 -0.035180036 -0.061539106 -0.033145588
0003e0 e8 a7 49 3c 70 38 c9 bb c4 c9 fe 3c 92 db 32 3d
       0.012308098 -0.006140761 0.031102069 0.04366643
0003f0 cb 12 a5 bd 91 88 87 3d 40 c3 05 3c c0 a3 11 bc
       -0.08060225 0.06617845 0.008164227 -0.008889139

fc_policy.weight f4 [9, 256]
000000 30 77 6e 3c 52 12 10 bd 80 1c 61 3b 88 8d 31 bd
       0.014554784 -0.03517372 0.0034349263 -0.043347865
000010 c4 fa cf bc b0 0c ae 3c ac 95 2b 3d 40 b2 07 3b
       -0.025388129 0.021246284 0.041890785 0.002070561
000020 9c ea 8c 3c 24 ce a5 bc 74 d5 c1 bc 3c 0c 37 bd
       0.017201714 -0.020239897 -0.023661353 -0.044689402
000030 a6 6e 32 bd a8 15 a5 3c 00 bf cd bb 52 a6 40 bd
       -0.043562554 0.020151928 -0.0062788725 -0.047033615
000040 b8 78 59 3d d8 d2 77 bd 8a 41 0b bd 30 05 9d 3c
       0.053093642 -0.06050381 -0.03399805 0.019167513
000050 0a 5e 17 3d ca 11 74 bd 88 8b 78 3d 76 84 67 bd
       0.036954917 -0.059587277 0.060679942 -0.05652281
000060 50 54 cc bb 5c 1b 70 bd 2c 25 01 3d e2 93 26 3d
       -0.006235637 -0.058619842 0.03152959 0.040668376
000070 60 b1 c6 bc fa 1f 21 3d d2 76 5f bd cc cb 61 bd
       -0.0242545 0.039337136 -0.054556675 -0.055125996
000080 00 dc 53 3a 98 52 6e bc 70 7c 46 bc 10 a2 a4 3b
       0.0008081794 -0.014546059 -0.012114629 0.005024202
000090 90 96 13 3c b4 e3 63 bd 50 09 fc 3b 00 dd 0e ba
       0.009008065 -0.055637076 0.00769154 -0.00054498017
0000a0 30 f3 df 3b 94 f6 60 bd cc 59 db bc ce 12 7c 3d
       0.00683441 -0.054922655 -0.026776217 0.06154137
0000b0 58 71 03 bc 08 57 4e 3c e8 87 5c 3d e4 06 6b bd
       -0.008022629 0.012593992 0.053840548 -0.05737962
0000c0 a4 47 95 bc 76 9f 3a 3d 5c 9f e1 bc 20 91 68 bd
       -0.018222637 0.04556223 -0.027541809 -0.056779027
0000d0 54 a4 9a 3c b0 e5 40 bc 70 9d b4 bb b0 54 4d bc
       0.018877186 -0.011773512 -0.005511932 -0.012532398
0000e0 ae 45 02 3d c6 08 24 3d 28 a6 7b 3c 22 a2 06 bd
       0.031804733 0.04004743 0.015359439 -0.032869466
0000f0 f8 0f 27 3d 68 a2 9d bc 3c 73 3f bd 00 f4 87 3c
       0.040786713 -0.01924248 -0.046740755 0.01659584
000100 84 cb 8b 3c 38 5b bb bc 6c b9 98 3c 8e 38 5e bd
       0.017064817 -0.022870645 0.018643104 -0.054253154
000110 40 8b 20 bb ce 34 31 bd 16 56 17 3d 00 14 8f bc
       -0.0024497062 -0.04326325 0.036947332 -0.017465591
000120 dc ef e0 3c 34 b6 88 3c 44 84 ac 3c ac 11 83 bc
       0.027458124 0.016688444 0.021059163 -0.015999638
000130 60 71 09 3d c8 b2 0e 3d 1e 9d 0d bd f2 5b 65 bd
       0.03355539 0.034838468 -0.034573667 -0.05599589
000140 5c b9 e2 3c 00 28 6e 3c b8 97 32 bc a6 2a 0f bd
       0.027676277 0.014535904 -0.01090043 -0.034952782
000150 f4 66 ac bc a2 06 31 3d da 14 51 3d 44 41 79 3d
       -0.021045186 0.043219216 0.051045276 0.060853258
000160 a0 cc 3e 3b cc 78 22 3d 80 7c 2e 3d 8c 48 9c 3c
       0.0029113665 0.039665982 0.0425992 0.019077562
000170 30 f8 bd bb ee 36 3f 3d c8 4d 27 3d bc 97 1c 3d
       -0.0057974085 0.046683244 0.040845662 0.038230643
000180 78 f4 07 bc 3a 98 3d 3d 38 c3 2d bd 68 c8 e1 3c
       -0.008298032 0.046287753 -0.042422503 0.027561381
000190 08 c1 41 3c 50 dd 3c bd 54 38 7c bd f6 8b 19 bd
       0.011825807 -0.046109498 -0.061577156 -0.037486993
0001a0 fa db 74 bd e4 b2 2e bd 3c 56 27 3d 4c 66 00 3d
       -0.0597801 -0.042651072 0.040853724 0.031347558
0001b0 80 51 e1 3c be cf 64 bd 3c c6 c5 bc b0 c3 e8 bb
       0.027504683 -0.05586218 -0.024142377 -0.007103406
0001c0 b2 a8 6d 3d b8 e5 83 bc 0a e4 7d 3d 40 29 4d 3c
       0.05802221 -0.01610075 0.061985053 0.012522042
0001d0 80 85 76 3c 10 0a 16 3d 40 10 e6 ba 00 55 03 3a
       0.015046477 0.03663069 -0.001755245 0.00050099194
0001e0 04 d1 15 bd 04 d0 e8 bc 00 02 13 39 90 a1 8b bc
       -0.036576286 -0.028419502 0.00014019758 -0.017044812
0001f0 72 af 3b bd 00 fa 8a bc 98 f0 31 3d 40 8d a6 bb
       -0.045821615 -0.016964912 0.04344234 -0.0050827563
000200 e8 dd 41 bd ec e6 a9 bc 84 5e e7 3c 58 f0 69 bc
       -0.047330767 -0.020739995 0.02824331 -0.014278494
000210 02 7e 50 3d c0 6f 2d bd 00 1b 7d bc 0c 9b d6 bc
       0.05090142 -0.0423429 -0.015448332 -0.026196979
000220 5c e8 a2 3c f8 46 1c bd e0 45 1d 3c 14 c7 a4 bc
       0.019886188 -0.03815362 0.009599179 -0.02011446
000230 22 66 3b bd 4c a1 8a 3c ac 2f ad 3c 70 59 25 bd
       -0.0457517 0.016922615 0.021140896 -0.040368497
000240 48 17 4e bd 00 39 cb 3b 3c 05 c3 3c 60 5e eb 3b
       -0.05031517 0.0062018633 0.023806207 0.0071828812
000250 70 1a 29 bd 1c bc 73 3d e8 ff cc 3c f0 35 3d 3c
       -0.04128498 0.059505567 0.02502437 0.011548504
000260 62 da 55 3d c4 df e9 bc 20 73 23 bb 16 d2 18 bd
       0.05221022 -0.028549083 -0.0024940446 -0.03730973
000270 2c 93 40 bd 50 f2 38 bd 24 e0 7d 3d 54 54 05 3d
       -0.047015354 -0.045152962 0.061981335 0.032551125
000280 50 8e 90 3c f4 ec eb 3c a2 e2 19 bd 9c 01 b8 bc
       0.017645985 0.028799511 -0.03756965 -0.022461705
000290 cc 4e be bc 7c c4 54 bd 38 61 c4 bc 1c bc bf 3c
       -0.023230933 -0.051945195 -0.023972139 0.023405127
0002a0 48 fd 76 bd ee 6f 30 bd 10 47 05 bc c0 c4 5e bd
       -0.06030014 -0.043075494 -0.008134618 -0.054386854
0002b0 c0 be ae bc 78 d5 47 bc de ba 02 3d d0 d4 40 bd
       -0.021331191 -0.012196891 0.03191649 -0.047077954
0002c0 30 5b f8 3b f6 50 28 3d 3c 17 67 3d 96 ae 76 3d
       0.00757923 0.041092835 0.056418642 0.060225092
0002d0 a8 1f 20 3d 14 bc 9d bc d0 e3 ec bb 24 c6 b6 bc
       0.03909269 -0.019254722 -0.007229306 -0.022311278
0002e0 40 66 3a bb dc 30 f4 bc 8c 4f 52 3d b2 ed 0c bd
       -0.0028442293 -0.029808454 0.051345393 -0.03440637
0002f0 a0 9e 54 3b 40 3b 69 bb a4 5e 90 bc 00 29 0e bc
       0.003244318 -0.0035588294 -0.017623253 -0.008676767
000300 cc 7a 36 3d d6 72 34 bd 00 be c9 39 a0 cd f2 3c
       0.044550702 -0.04405483 0.0003847927 0.029639065
000310 90 79 0e bc 6e 19 57 3d 44 40 29 3d 34 d5 6b 3d
       -0.008695975 0.052514486 0.041321054 0.057576373
000320 50 c2 75 3d 1c d5 48 bd f0 2a 90 3b d0 ed 68 bc
       0.059999764 -0.049031362 0.00439965 -0.014216855
000330 18 d6 68 bd 80 70 0f 3d 02 c8 64 bd ce 1b 4e 3d
       -0.0568448 0.035019398 -0.055854805 0.050319485
000340 a0 1b 29 bd b4 9c 31 bd f8 db 4e bc 50 0a 04 3c
       -0.04128611 -0.043362334 -0.012625687 0.008059099
000350 a4 79 8f 3c 26 05 79 3d a8 5d 27 3d 90 6a 6d bc
       0.017514057 0.060795926 0.040860802 -0.0144907385
000360 44 f7 38 3d a8 ae dc bc 18 2c 33 bd 40 53 a3 bb
       0.045157686 -0.026938751 -0.043743223 -0.0049842894
000370 b0 56 7f bd 42 4c 45 3d 9a fa 6b bd 30 2d ec bc
       -0.06233853 0.04816843 -0.05761204 -0.02883014
000380 04 d7 d5 3c 48 4b 98 bc fe bd 43 bd e6 4e 58 bd
       0.026103504 -0.018590584 -0.047788613 -0.05280962
000390 40 d8 10 3b ac e8 fb 3c 4c 74 07 bd 76 e1 0c bd
       0.0022101551 0.030750595 -0.033069894 -0.034394704
0003a0 3c e2 37 3d 3e 3d 32 3d 8c 35 b4 bc 70 35 e4 3b
       0.04489349 0.043515436 -0.02199819 0.006964378
0003b0 70 41 f2 3b d2 e4 55 3d e2 f4 74 3d 44 51 c6 bc
       0.0073930547 0.052220173 0.05980385 -0.024208672
0003c0 8e 39 1a bd 00 0c 02 bd 68 8a 4b 3d 4a 1d 41 bd
       -0.037652545 -0.031749725 0.04969254 -0.047147073
0003d0 14 21 21 bd a4 fb 74 bd 08 d5 ea bc 80 3c 15 3c
       -0.039338186 -0.059810296 -0.028666034 0.009108663
0003e0 80 e8 c5 3b 7c 30 41 bd ec ed 0f bd c2 73 0d 3d
       0.006039679 -0.04716538 -0.03513901 0.034534223
0003f0 54 d1 5d 3d 38 22 75 3c ac cc 8d bc 46 93 06 bd
       0.05415471 0.014961772 -0.01730951 -0.032855295

fc_policy.bias f4 [9]
000000 80 c1 83 3a 88 a6 c4 3c 8e ab 75 bd 80 06 bb bc
       0.0010052174 0.02400519 -0.05997806 -0.022830248
000010 b4 5d fa 3c 1c 3c 59 3d f0 f6 be bc 2c e6 62 bd
       0.03056226 0.05303584 -0.023311108 -0.05539529
000020 50 87 90 3b
       0.0044106618
